…
[ INFO : 2022-06-08 19:41:25,376 ] - <== Data statistics ==>
[ INFO : 2022-06-08 19:41:25,376 ] - train data num: 1092009, spk num: 5994
[ INFO : 2022-06-08 19:41:25,386 ] - <== Dataloaders ==>
[ INFO : 2022-06-08 19:41:25,386 ] - train dataloaders created
[ INFO : 2022-06-08 19:41:25,386 ] - loader size: 1421
[ INFO : 2022-06-08 19:41:25,386 ] - <== Model ==>
[ INFO : 2022-06-08 19:41:25,447 ] - Load initial model from exp/ResNet101-TSTP-emb256-fbank80-num_frms200-aug0.6-spTrue-saFalse-ArcMargin-SGD-epoch150/models/model_45.pt
[ INFO : 2022-06-08 19:41:25,829 ] - ResNet(
[ INFO : 2022-06-08 19:41:25,829 ] -   (conv1): Conv2d(1, 32, kernel_size=(3, 3), stride=(1, 1), padding=(1, 1), bias=False)
[ INFO : 2022-06-08 19:41:25,829 ] -   (bn1): BatchNorm2d(32, eps=1e-05, momentum=0.1, affine=True, track_running_stats=True)
[ INFO : 2022-06-08 19:41:25,829 ] -   (layer1): Sequential(
[ INFO : 2022-06-08 19:41:25,829 ] -     (0): BasicBlock(
[ INFO : 2022-06-08 19:41:25,829 ] -       (conv1): Conv2d(32, 32, kernel_size=(3, 3), stride=(1, 1), padding=(1, 1), bias=False)
[ INFO : 2022-06-08 19:41:25,829 ] -       (bn1): BatchNorm2d(32, eps=1e-05, momentum=0.1, affine=True, track_running_stats=True)
[ INFO : 2022-06-08 19:41:25,829 ] -       (conv2): Conv2d(32, 32, kernel_size=(3, 3), stride=(1, 1), padding=(1, 1), bias=False)
[ INFO : 2022-06-08 19:41:25,830 ] -       (bn2): BatchNorm2d(32, eps=1e-05, momentum=0.1, affine=True, track_running_stats=True)
[ INFO : 2022-06-08 19:41:25,830 ] -       (shortcut): Sequential()
[ INFO : 2022-06-08 19:41:25,830 ] -     )
[ INFO : 2022-06-08 19:41:25,830 ] -     (1): BasicBlock(
[ INFO : 2022-06-08 19:41:25,830 ] -       (conv1): Conv2d(32, 32, kernel_size=(3, 3), stride=(1, 1), padding=(1, 1), bias=False)
[ INFO : 2022-06-08 19:41:25,830 ] -       (bn1): BatchNorm2d(32, eps=1e-05, momentum=0.1, affine=True, track_running_stats=True)
[ INFO : 2022-06-08 19:41:25,830 ] -       (conv2): Conv2d(32, 32, kernel_size=(3, 3), stride=(1, 1), padding=(1, 1), bias=False)
[ INFO : 2022-06-08 19:41:25,830 ] -       (bn2): BatchNorm2d(32, eps=1e-05, momentum=0.1, affine=True, track_running_stats=True)
[ INFO : 2022-06-08 19:41:25,831 ] -       (shortcut): Sequential()
[ INFO : 2022-06-08 19:41:25,831 ] -     )
[ INFO : 2022-06-08 19:41:25,831 ] -     (2): BasicBlock(
[ INFO : 2022-06-08 19:41:25,831 ] -       (conv1): Conv2d(32, 32, kernel_size=(3, 3), stride=(1, 1), padding=(1, 1), bias=False)
[ INFO : 2022-06-08 19:41:25,831 ] -       (bn1): BatchNorm2d(32, eps=1e-05, momentum=0.1, affine=True, track_running_stats=True)
[ INFO : 2022-06-08 19:41:25,831 ] -       (conv2): Conv2d(32, 32, kernel_size=(3, 3), stride=(1, 1), padding=(1, 1), bias=False)
[ INFO : 2022-06-08 19:41:25,831 ] -       (bn2): BatchNorm2d(32, eps=1e-05, momentum=0.1, affine=True, track_running_stats=True)
[ INFO : 2022-06-08 19:41:25,831 ] -       (shortcut): Sequential()
[ INFO : 2022-06-08 19:41:25,831 ] -     )
[ INFO : 2022-06-08 19:41:25,832 ] -   )
[ INFO : 2022-06-08 19:41:25,832 ] -   (layer2): Sequential(
[ INFO : 2022-06-08 19:41:25,832 ] -     (0): BasicBlock(
[ INFO : 2022-06-08 19:41:25,832 ] -       (conv1): Conv2d(32, 64, kernel_size=(3, 3), stride=(2, 2), padding=(1, 1), bias=False)
[ INFO : 2022-06-08 19:41:25,832 ] -       (bn1): BatchNorm2d(64, eps=1e-05, momentum=0.1, affine=True, track_running_stats=True)
[ INFO : 2022-06-08 19:41:25,832 ] -       (conv2): Conv2d(64, 64, kernel_size=(3, 3), stride=(1, 1), padding=(1, 1), bias=False)
[ INFO : 2022-06-08 19:41:25,832 ] -       (bn2): BatchNorm2d(64, eps=1e-05, momentum=0.1, affine=True, track_running_stats=True)
[ INFO : 2022-06-08 19:41:25,832 ] -       (shortcut): Sequential(
[ INFO : 2022-06-08 19:41:25,833 ] -         (0): Conv2d(32, 64, kernel_size=(1, 1), stride=(2, 2), bias=False)
[ INFO : 2022-06-08 19:41:25,833 ] -         (1): BatchNorm2d(64, eps=1e-05, momentum=0.1, affine=True, track_running_stats=True)
[ INFO : 2022-06-08 19:41:25,833 ] -       )
[ INFO : 2022-06-08 19:41:25,833 ] -     )
[ INFO : 2022-06-08 19:41:25,833 ] -     (1): BasicBlock(
[ INFO : 2022-06-08 19:41:25,833 ] -       (conv1): Conv2d(64, 64, kernel_size=(3, 3), stride=(1, 1), padding=(1, 1), bias=False)
[ INFO : 2022-06-08 19:41:25,833 ] -       (bn1): BatchNorm2d(64, eps=1e-05, momentum=0.1, affine=True, track_running_stats=True)
[ INFO : 2022-06-08 19:41:25,833 ] -       (conv2): Conv2d(64, 64, kernel_size=(3, 3), stride=(1, 1), padding=(1, 1), bias=False)
[ INFO : 2022-06-08 19:41:25,833 ] -       (bn2): BatchNorm2d(64, eps=1e-05, momentum=0.1, affine=True, track_running_stats=True)
[ INFO : 2022-06-08 19:41:25,834 ] -       (shortcut): Sequential()
[ INFO : 2022-06-08 19:41:25,834 ] -     )
[ INFO : 2022-06-08 19:41:25,834 ] -     (2): BasicBlock(
[ INFO : 2022-06-08 19:41:25,834 ] -       (conv1): Conv2d(64, 64, kernel_size=(3, 3), stride=(1, 1), padding=(1, 1), bias=False)
[ INFO : 2022-06-08 19:41:25,834 ] -       (bn1): BatchNorm2d(64, eps=1e-05, momentum=0.1, affine=True, track_running_stats=True)
[ INFO : 2022-06-08 19:41:25,834 ] -       (conv2): Conv2d(64, 64, kernel_size=(3, 3), stride=(1, 1), padding=(1, 1), bias=False)
[ INFO : 2022-06-08 19:41:25,834 ] -       (bn2): BatchNorm2d(64, eps=1e-05, momentum=0.1, affine=True, track_running_stats=True)
[ INFO : 2022-06-08 19:41:25,834 ] -       (shortcut): Sequential()
[ INFO : 2022-06-08 19:41:25,834 ] -     )
[ INFO : 2022-06-08 19:41:25,835 ] -     (3): BasicBlock(
[ INFO : 2022-06-08 19:41:25,835 ] -       (conv1): Conv2d(64, 64, kernel_size=(3, 3), stride=(1, 1), padding=(1, 1), bias=False)
[ INFO : 2022-06-08 19:41:25,835 ] -       (bn1): BatchNorm2d(64, eps=1e-05, momentum=0.1, affine=True, track_running_stats=True)
[ INFO : 2022-06-08 19:41:25,835 ] -       (conv2): Conv2d(64, 64, kernel_size=(3, 3), stride=(1, 1), padding=(1, 1), bias=False)
[ INFO : 2022-06-08 19:41:25,835 ] -       (bn2): BatchNorm2d(64, eps=1e-05, momentum=0.1, affine=True, track_running_stats=True)
[ INFO : 2022-06-08 19:41:25,835 ] -       (shortcut): Sequential()
[ INFO : 2022-06-08 19:41:25,835 ] -     )
[ INFO : 2022-06-08 19:41:25,835 ] -   )
[ INFO : 2022-06-08 19:41:25,835 ] -   (layer3): Sequential(
[ INFO : 2022-06-08 19:41:25,836 ] -     (0): BasicBlock(
[ INFO : 2022-06-08 19:41:25,836 ] -       (conv1): Conv2d(64, 128, kernel_size=(3, 3), stride=(2, 2), padding=(1, 1), bias=False)
[ INFO : 2022-06-08 19:41:25,836 ] -       (bn1): BatchNorm2d(128, eps=1e-05, momentum=0.1, affine=True, track_running_stats=True)
[ INFO : 2022-06-08 19:41:25,836 ] -       (conv2): Conv2d(128, 128, kernel_size=(3, 3), stride=(1, 1), padding=(1, 1), bias=False)
[ INFO : 2022-06-08 19:41:25,836 ] -       (bn2): BatchNorm2d(128, eps=1e-05, momentum=0.1, affine=True, track_running_stats=True)
[ INFO : 2022-06-08 19:41:25,836 ] -       (shortcut): Sequential(
[ INFO : 2022-06-08 19:41:25,836 ] -         (0): Conv2d(64, 128, kernel_size=(1, 1), stride=(2, 2), bias=False)
[ INFO : 2022-06-08 19:41:25,836 ] -         (1): BatchNorm2d(128, eps=1e-05, momentum=0.1, affine=True, track_running_stats=True)
[ INFO : 2022-06-08 19:41:25,836 ] -       )
[ INFO : 2022-06-08 19:41:25,837 ] -     )
[ INFO : 2022-06-08 19:41:25,837 ] -     (1): BasicBlock(
[ INFO : 2022-06-08 19:41:25,837 ] -       (conv1): Conv2d(128, 128, kernel_size=(3, 3), stride=(1, 1), padding=(1, 1), bias=False)
[ INFO : 2022-06-08 19:41:25,837 ] -       (bn1): BatchNorm2d(128, eps=1e-05, momentum=0.1, affine=True, track_running_stats=True)
[ INFO : 2022-06-08 19:41:25,837 ] -       (conv2): Conv2d(128, 128, kernel_size=(3, 3), stride=(1, 1), padding=(1, 1), bias=False)
[ INFO : 2022-06-08 19:41:25,837 ] -       (bn2): BatchNorm2d(128, eps=1e-05, momentum=0.1, affine=True, track_running_stats=True)
[ INFO : 2022-06-08 19:41:25,837 ] -       (shortcut): Sequential()
[ INFO : 2022-06-08 19:41:25,837 ] -     )
[ INFO : 2022-06-08 19:41:25,837 ] -     (2): BasicBlock(
[ INFO : 2022-06-08 19:41:25,838 ] -       (conv1): Conv2d(128, 128, kernel_size=(3, 3), stride=(1, 1), padding=(1, 1), bias=False)
[ INFO : 2022-06-08 19:41:25,838 ] -       (bn1): BatchNorm2d(128, eps=1e-05, momentum=0.1, affine=True, track_running_stats=True)
[ INFO : 2022-06-08 19:41:25,838 ] -       (conv2): Conv2d(128, 128, kernel_size=(3, 3), stride=(1, 1), padding=(1, 1), bias=False)
[ INFO : 2022-06-08 19:41:25,838 ] -       (bn2): BatchNorm2d(128, eps=1e-05, momentum=0.1, affine=True, track_running_stats=True)
[ INFO : 2022-06-08 19:41:25,838 ] -       (shortcut): Sequential()
[ INFO : 2022-06-08 19:41:25,838 ] -     )
[ INFO : 2022-06-08 19:41:25,838 ] -     (3): BasicBlock(
[ INFO : 2022-06-08 19:41:25,838 ] -       (conv1): Conv2d(128, 128, kernel_size=(3, 3), stride=(1, 1), padding=(1, 1), bias=False)
[ INFO : 2022-06-08 19:41:25,838 ] -       (bn1): BatchNorm2d(128, eps=1e-05, momentum=0.1, affine=True, track_running_stats=True)
[ INFO : 2022-06-08 19:41:25,839 ] -       (conv2): Conv2d(128, 128, kernel_size=(3, 3), stride=(1, 1), padding=(1, 1), bias=False)
[ INFO : 2022-06-08 19:41:25,839 ] -       (bn2): BatchNorm2d(128, eps=1e-05, momentum=0.1, affine=True, track_running_stats=True)
[ INFO : 2022-06-08 19:41:25,839 ] -       (shortcut): Sequential()
[ INFO : 2022-06-08 19:41:25,839 ] -     )
[ INFO : 2022-06-08 19:41:25,839 ] -     (4): BasicBlock(
[ INFO : 2022-06-08 19:41:25,839 ] -       (conv1): Conv2d(128, 128, kernel_size=(3, 3), stride=(1, 1), padding=(1, 1), bias=False)
[ INFO : 2022-06-08 19:41:25,839 ] -       (bn1): BatchNorm2d(128, eps=1e-05, momentum=0.1, affine=True, track_running_stats=True)
[ INFO : 2022-06-08 19:41:25,839 ] -       (conv2): Conv2d(128, 128, kernel_size=(3, 3), stride=(1, 1), padding=(1, 1), bias=False)
[ INFO : 2022-06-08 19:41:25,839 ] -       (bn2): BatchNorm2d(128, eps=1e-05, momentum=0.1, affine=True, track_running_stats=True)
[ INFO : 2022-06-08 19:41:25,840 ] -       (shortcut): Sequential()
[ INFO : 2022-06-08 19:41:25,840 ] -     )
[ INFO : 2022-06-08 19:41:25,840 ] -     (5): BasicBlock(
[ INFO : 2022-06-08 19:41:25,840 ] -       (conv1): Conv2d(128, 128, kernel_size=(3, 3), stride=(1, 1), padding=(1, 1), bias=False)
[ INFO : 2022-06-08 19:41:25,840 ] -       (bn1): BatchNorm2d(128, eps=1e-05, momentum=0.1, affine=True, track_running_stats=True)
[ INFO : 2022-06-08 19:41:25,840 ] -       (conv2): Conv2d(128, 128, kernel_size=(3, 3), stride=(1, 1), padding=(1, 1), bias=False)
[ INFO : 2022-06-08 19:41:25,840 ] -       (bn2): BatchNorm2d(128, eps=1e-05, momentum=0.1, affine=True, track_running_stats=True)
[ INFO : 2022-06-08 19:41:25,840 ] -       (shortcut): Sequential()
[ INFO : 2022-06-08 19:41:25,841 ] -     )
[ INFO : 2022-06-08 19:41:25,841 ] -   )
[ INFO : 2022-06-08 19:41:25,841 ] -   (layer4): Sequential(
[ INFO : 2022-06-08 19:41:25,841 ] -     (0): BasicBlock(
[ INFO : 2022-06-08 19:41:25,841 ] -       (conv1): Conv2d(128, 256, kernel_size=(3, 3), stride=(2, 2), padding=(1, 1), bias=False)
[ INFO : 2022-06-08 19:41:25,841 ] -       (bn1): BatchNorm2d(256, eps=1e-05, momentum=0.1, affine=True, track_running_stats=True)
[ INFO : 2022-06-08 19:41:25,841 ] -       (conv2): Conv2d(256, 256, kernel_size=(3, 3), stride=(1, 1), padding=(1, 1), bias=False)
[ INFO : 2022-06-08 19:41:25,841 ] -       (bn2): BatchNorm2d(256, eps=1e-05, momentum=0.1, affine=True, track_running_stats=True)
[ INFO : 2022-06-08 19:41:25,841 ] -       (shortcut): Sequential(
[ INFO : 2022-06-08 19:41:25,842 ] -         (0): Conv2d(128, 256, kernel_size=(1, 1), stride=(2, 2), bias=False)
[ INFO : 2022-06-08 19:41:25,842 ] -         (1): BatchNorm2d(256, eps=1e-05, momentum=0.1, affine=True, track_running_stats=True)
[ INFO : 2022-06-08 19:41:25,842 ] -       )
[ INFO : 2022-06-08 19:41:25,842 ] -     )
[ INFO : 2022-06-08 19:41:25,842 ] -     (1): BasicBlock(
[ INFO : 2022-06-08 19:41:25,842 ] -       (conv1): Conv2d(256, 256, kernel_size=(3, 3), stride=(1, 1), padding=(1, 1), bias=False)
[ INFO : 2022-06-08 19:41:25,842 ] -       (bn1): BatchNorm2d(256, eps=1e-05, momentum=0.1, affine=True, track_running_stats=True)
[ INFO : 2022-06-08 19:41:25,842 ] -       (conv2): Conv2d(256, 256, kernel_size=(3, 3), stride=(1, 1), padding=(1, 1), bias=False)
[ INFO : 2022-06-08 19:41:25,842 ] -       (bn2): BatchNorm2d(256, eps=1e-05, momentum=0.1, affine=True, track_running_stats=True)
[ INFO : 2022-06-08 19:41:25,843 ] -       (shortcut): Sequential()
[ INFO : 2022-06-08 19:41:25,843 ] -     )
[ INFO : 2022-06-08 19:41:25,843 ] -     (2): BasicBlock(
[ INFO : 2022-06-08 19:41:25,843 ] -       (conv1): Conv2d(256, 256, kernel_size=(3, 3), stride=(1, 1), padding=(1, 1), bias=False)
[ INFO : 2022-06-08 19:41:25,843 ] -       (bn1): BatchNorm2d(256, eps=1e-05, momentum=0.1, affine=True, track_running_stats=True)
[ INFO : 2022-06-08 19:41:25,843 ] -       (conv2): Conv2d(256, 256, kernel_size=(3, 3), stride=(1, 1), padding=(1, 1), bias=False)
[ INFO : 2022-06-08 19:41:25,843 ] -       (bn2): BatchNorm2d(256, eps=1e-05, momentum=0.1, affine=True, track_running_stats=True)
[ INFO : 2022-06-08 19:41:25,843 ] -       (shortcut): Sequential()
[ INFO : 2022-06-08 19:41:25,843 ] -     )
[ INFO : 2022-06-08 19:41:25,844 ] -   )
[ INFO : 2022-06-08 19:41:25,844 ] -   (pool): TSTP()
[ INFO : 2022-06-08 19:41:25,844 ] -   (seg_1): Linear(in_features=5120, out_features=256, bias=True)
[ INFO : 2022-06-08 19:41:25,844 ] -   (seg_bn_1): BatchNorm1d(256, eps=1e-05, momentum=0.1, affine=False, track_running_stats=True)
[ INFO : 2022-06-08 19:41:25,844 ] -   (seg_2): Linear(in_features=256, out_features=256, bias=True)
[ INFO : 2022-06-08 19:41:25,844 ] -   (projection): ArcMarginProduct(
[ INFO : 2022-06-08 19:41:25,844 ] -     in_features=256, out_features=17982, scale=32.0,
[ INFO : 2022-06-08 19:41:25,844 ] -                       margin=0.0, easy_margin=False
[ INFO : 2022-06-08 19:41:25,844 ] -   )
[ INFO : 2022-06-08 19:41:25,845 ] - )
[ INFO : 2022-06-08 19:41:26,548 ] - checkpoint: exp/ResNet101-TSTP-emb256-fbank80-num_frms200-aug0.6-spTrue-saFalse-ArcMargin-SGD-epoch150/models/model_45.pt
…
