…
[ INFO : 2022-06-16 16:21:36,293 ] - train data num: 1747308, spk num: 29501
[ INFO : 2022-06-16 16:21:36,305 ] - <== Dataloaders ==>
[ INFO : 2022-06-16 16:21:36,305 ] - train dataloaders created
[ INFO : 2022-06-16 16:21:36,305 ] - loader size: 2275
[ INFO : 2022-06-16 16:21:36,305 ] - <== Model ==>
[ INFO : 2022-06-16 16:21:36,402 ] - Load initial model from exp/ResNet34-TSTP-emb256-fbank80-num_frms200-aug0.6-spTrue-saFalse-ArcMargin-SGD-epoch150/models/avg_model.pt
[ INFO : 2022-06-16 16:21:36,440 ] - Dropping parameter projection.weight
[ INFO : 2022-06-16 16:21:36,667 ] - ResNet(
[ INFO : 2022-06-16 16:21:36,667 ] -   (conv1): Conv2d(1, 32, kernel_size=(3, 3), stride=(1, 1), padding=(1, 1), bias=False)
[ INFO : 2022-06-16 16:21:36,667 ] -   (bn1): BatchNorm2d(32, eps=1e-05, momentum=0.1, affine=True, track_running_stats=True)
[ INFO : 2022-06-16 16:21:36,667 ] -   (layer1): Sequential(
[ INFO : 2022-06-16 16:21:36,667 ] -     (0): BasicBlock(
[ INFO : 2022-06-16 16:21:36,667 ] -       (conv1): Conv2d(32, 32, kernel_size=(3, 3), stride=(1, 1), padding=(1, 1), bias=False)
[ INFO : 2022-06-16 16:21:36,667 ] -       (bn1): BatchNorm2d(32, eps=1e-05, momentum=0.1, affine=True, track_running_stats=True)
[ INFO : 2022-06-16 16:21:36,668 ] -       (conv2): Conv2d(32, 32, kernel_size=(3, 3), stride=(1, 1), padding=(1, 1), bias=False)
[ INFO : 2022-06-16 16:21:36,668 ] -       (bn2): BatchNorm2d(32, eps=1e-05, momentum=0.1, affine=True, track_running_stats=True)
[ INFO : 2022-06-16 16:21:36,668 ] -       (shortcut): Sequential()
[ INFO : 2022-06-16 16:21:36,668 ] -     )
[ INFO : 2022-06-16 16:21:36,668 ] -     (1): BasicBlock(
[ INFO : 2022-06-16 16:21:36,668 ] -       (conv1): Conv2d(32, 32, kernel_size=(3, 3), stride=(1, 1), padding=(1, 1), bias=False)
[ INFO : 2022-06-16 16:21:36,668 ] -       (bn1): BatchNorm2d(32, eps=1e-05, momentum=0.1, affine=True, track_running_stats=True)
[ INFO : 2022-06-16 16:21:36,668 ] -       (conv2): Conv2d(32, 32, kernel_size=(3, 3), stride=(1, 1), padding=(1, 1), bias=False)
[ INFO : 2022-06-16 16:21:36,668 ] -       (bn2): BatchNorm2d(32, eps=1e-05, momentum=0.1, affine=True, track_running_stats=True)
[ INFO : 2022-06-16 16:21:36,668 ] -       (shortcut): Sequential()
[ INFO : 2022-06-16 16:21:36,668 ] -     )
[ INFO : 2022-06-16 16:21:36,669 ] -     (2): BasicBlock(
[ INFO : 2022-06-16 16:21:36,669 ] -       (conv1): Conv2d(32, 32, kernel_size=(3, 3), stride=(1, 1), padding=(1, 1), bias=False)
[ INFO : 2022-06-16 16:21:36,669 ] -       (bn1): BatchNorm2d(32, eps=1e-05, momentum=0.1, affine=True, track_running_stats=True)
[ INFO : 2022-06-16 16:21:36,669 ] -       (conv2): Conv2d(32, 32, kernel_size=(3, 3), stride=(1, 1), padding=(1, 1), bias=False)
[ INFO : 2022-06-16 16:21:36,669 ] -       (bn2): BatchNorm2d(32, eps=1e-05, momentum=0.1, affine=True, track_running_stats=True)
[ INFO : 2022-06-16 16:21:36,669 ] -       (shortcut): Sequential()
[ INFO : 2022-06-16 16:21:36,669 ] -     )
[ INFO : 2022-06-16 16:21:36,669 ] -   )
[ INFO : 2022-06-16 16:21:36,669 ] -   (layer2): Sequential(
[ INFO : 2022-06-16 16:21:36,669 ] -     (0): BasicBlock(
[ INFO : 2022-06-16 16:21:36,669 ] -       (conv1): Conv2d(32, 64, kernel_size=(3, 3), stride=(2, 2), padding=(1, 1), bias=False)
[ INFO : 2022-06-16 16:21:36,669 ] -       (bn1): BatchNorm2d(64, eps=1e-05, momentum=0.1, affine=True, track_running_stats=True)
[ INFO : 2022-06-16 16:21:36,670 ] -       (conv2): Conv2d(64, 64, kernel_size=(3, 3), stride=(1, 1), padding=(1, 1), bias=False)
[ INFO : 2022-06-16 16:21:36,670 ] -       (bn2): BatchNorm2d(64, eps=1e-05, momentum=0.1, affine=True, track_running_stats=True)
[ INFO : 2022-06-16 16:21:36,670 ] -       (shortcut): Sequential(
[ INFO : 2022-06-16 16:21:36,670 ] -         (0): Conv2d(32, 64, kernel_size=(1, 1), stride=(2, 2), bias=False)
[ INFO : 2022-06-16 16:21:36,670 ] -         (1): BatchNorm2d(64, eps=1e-05, momentum=0.1, affine=True, track_running_stats=True)
[ INFO : 2022-06-16 16:21:36,670 ] -       )
[ INFO : 2022-06-16 16:21:36,670 ] -     )
[ INFO : 2022-06-16 16:21:36,670 ] -     (1): BasicBlock(
[ INFO : 2022-06-16 16:21:36,670 ] -       (conv1): Conv2d(64, 64, kernel_size=(3, 3), stride=(1, 1), padding=(1, 1), bias=False)
[ INFO : 2022-06-16 16:21:36,670 ] -       (bn1): BatchNorm2d(64, eps=1e-05, momentum=0.1, affine=True, track_running_stats=True)
[ INFO : 2022-06-16 16:21:36,670 ] -       (conv2): Conv2d(64, 64, kernel_size=(3, 3), stride=(1, 1), padding=(1, 1), bias=False)
[ INFO : 2022-06-16 16:21:36,671 ] -       (bn2): BatchNorm2d(64, eps=1e-05, momentum=0.1, affine=True, track_running_stats=True)
[ INFO : 2022-06-16 16:21:36,671 ] -       (shortcut): Sequential()
[ INFO : 2022-06-16 16:21:36,671 ] -     )
[ INFO : 2022-06-16 16:21:36,671 ] -     (2): BasicBlock(
[ INFO : 2022-06-16 16:21:36,671 ] -       (conv1): Conv2d(64, 64, kernel_size=(3, 3), stride=(1, 1), padding=(1, 1), bias=False)
[ INFO : 2022-06-16 16:21:36,671 ] -       (bn1): BatchNorm2d(64, eps=1e-05, momentum=0.1, affine=True, track_running_stats=True)
[ INFO : 2022-06-16 16:21:36,671 ] -       (conv2): Conv2d(64, 64, kernel_size=(3, 3), stride=(1, 1), padding=(1, 1), bias=False)
[ INFO : 2022-06-16 16:21:36,671 ] -       (bn2): BatchNorm2d(64, eps=1e-05, momentum=0.1, affine=True, track_running_stats=True)
[ INFO : 2022-06-16 16:21:36,671 ] -       (shortcut): Sequential()
[ INFO : 2022-06-16 16:21:36,671 ] -     )
[ INFO : 2022-06-16 16:21:36,671 ] -     (3): BasicBlock(
[ INFO : 2022-06-16 16:21:36,672 ] -       (conv1): Conv2d(64, 64, kernel_size=(3, 3), stride=(1, 1), padding=(1, 1), bias=False)
[ INFO : 2022-06-16 16:21:36,672 ] -       (bn1): BatchNorm2d(64, eps=1e-05, momentum=0.1, affine=True, track_running_stats=True)
[ INFO : 2022-06-16 16:21:36,672 ] -       (conv2): Conv2d(64, 64, kernel_size=(3, 3), stride=(1, 1), padding=(1, 1), bias=False)
[ INFO : 2022-06-16 16:21:36,672 ] -       (bn2): BatchNorm2d(64, eps=1e-05, momentum=0.1, affine=True, track_running_stats=True)
[ INFO : 2022-06-16 16:21:36,672 ] -       (shortcut): Sequential()
[ INFO : 2022-06-16 16:21:36,672 ] -     )
[ INFO : 2022-06-16 16:21:36,672 ] -   )
[ INFO : 2022-06-16 16:21:36,672 ] -   (layer3): Sequential(
[ INFO : 2022-06-16 16:21:36,672 ] -     (0): BasicBlock(
[ INFO : 2022-06-16 16:21:36,672 ] -       (conv1): Conv2d(64, 128, kernel_size=(3, 3), stride=(2, 2), padding=(1, 1), bias=False)
[ INFO : 2022-06-16 16:21:36,672 ] -       (bn1): BatchNorm2d(128, eps=1e-05, momentum=0.1, affine=True, track_running_stats=True)
[ INFO : 2022-06-16 16:21:36,673 ] -       (conv2): Conv2d(128, 128, kernel_size=(3, 3), stride=(1, 1), padding=(1, 1), bias=False)
[ INFO : 2022-06-16 16:21:36,673 ] -       (bn2): BatchNorm2d(128, eps=1e-05, momentum=0.1, affine=True, track_running_stats=True)
[ INFO : 2022-06-16 16:21:36,673 ] -       (shortcut): Sequential(
[ INFO : 2022-06-16 16:21:36,673 ] -         (0): Conv2d(64, 128, kernel_size=(1, 1), stride=(2, 2), bias=False)
[ INFO : 2022-06-16 16:21:36,673 ] -         (1): BatchNorm2d(128, eps=1e-05, momentum=0.1, affine=True, track_running_stats=True)
[ INFO : 2022-06-16 16:21:36,673 ] -       )
[ INFO : 2022-06-16 16:21:36,673 ] -     )
[ INFO : 2022-06-16 16:21:36,673 ] -     (1): BasicBlock(
[ INFO : 2022-06-16 16:21:36,673 ] -       (conv1): Conv2d(128, 128, kernel_size=(3, 3), stride=(1, 1), padding=(1, 1), bias=False)
[ INFO : 2022-06-16 16:21:36,673 ] -       (bn1): BatchNorm2d(128, eps=1e-05, momentum=0.1, affine=True, track_running_stats=True)
[ INFO : 2022-06-16 16:21:36,673 ] -       (conv2): Conv2d(128, 128, kernel_size=(3, 3), stride=(1, 1), padding=(1, 1), bias=False)
[ INFO : 2022-06-16 16:21:36,673 ] -       (bn2): BatchNorm2d(128, eps=1e-05, momentum=0.1, affine=True, track_running_stats=True)
[ INFO : 2022-06-16 16:21:36,674 ] -       (shortcut): Sequential()
[ INFO : 2022-06-16 16:21:36,674 ] -     )
[ INFO : 2022-06-16 16:21:36,674 ] -     (2): BasicBlock(
[ INFO : 2022-06-16 16:21:36,674 ] -       (conv1): Conv2d(128, 128, kernel_size=(3, 3), stride=(1, 1), padding=(1, 1), bias=False)
[ INFO : 2022-06-16 16:21:36,674 ] -       (bn1): BatchNorm2d(128, eps=1e-05, momentum=0.1, affine=True, track_running_stats=True)
[ INFO : 2022-06-16 16:21:36,674 ] -       (conv2): Conv2d(128, 128, kernel_size=(3, 3), stride=(1, 1), padding=(1, 1), bias=False)
[ INFO : 2022-06-16 16:21:36,674 ] -       (bn2): BatchNorm2d(128, eps=1e-05, momentum=0.1, affine=True, track_running_stats=True)
[ INFO : 2022-06-16 16:21:36,674 ] -       (shortcut): Sequential()
[ INFO : 2022-06-16 16:21:36,674 ] -     )
[ INFO : 2022-06-16 16:21:36,674 ] -     (3): BasicBlock(
[ INFO : 2022-06-16 16:21:36,674 ] -       (conv1): Conv2d(128, 128, kernel_size=(3, 3), stride=(1, 1), padding=(1, 1), bias=False)
[ INFO : 2022-06-16 16:21:36,675 ] -       (bn1): BatchNorm2d(128, eps=1e-05, momentum=0.1, affine=True, track_running_stats=True)
[ INFO : 2022-06-16 16:21:36,675 ] -       (conv2): Conv2d(128, 128, kernel_size=(3, 3), stride=(1, 1), padding=(1, 1), bias=False)
[ INFO : 2022-06-16 16:21:36,675 ] -       (bn2): BatchNorm2d(128, eps=1e-05, momentum=0.1, affine=True, track_running_stats=True)
[ INFO : 2022-06-16 16:21:36,675 ] -       (shortcut): Sequential()
[ INFO : 2022-06-16 16:21:36,675 ] -     )
[ INFO : 2022-06-16 16:21:36,675 ] -     (4): BasicBlock(
[ INFO : 2022-06-16 16:21:36,675 ] -       (conv1): Conv2d(128, 128, kernel_size=(3, 3), stride=(1, 1), padding=(1, 1), bias=False)
[ INFO : 2022-06-16 16:21:36,675 ] -       (bn1): BatchNorm2d(128, eps=1e-05, momentum=0.1, affine=True, track_running_stats=True)
[ INFO : 2022-06-16 16:21:36,675 ] -       (conv2): Conv2d(128, 128, kernel_size=(3, 3), stride=(1, 1), padding=(1, 1), bias=False)
[ INFO : 2022-06-16 16:21:36,675 ] -       (bn2): BatchNorm2d(128, eps=1e-05, momentum=0.1, affine=True, track_running_stats=True)
[ INFO : 2022-06-16 16:21:36,675 ] -       (shortcut): Sequential()
[ INFO : 2022-06-16 16:21:36,675 ] -     )
[ INFO : 2022-06-16 16:21:36,676 ] -     (5): BasicBlock(
[ INFO : 2022-06-16 16:21:36,676 ] -       (conv1): Conv2d(128, 128, kernel_size=(3, 3), stride=(1, 1), padding=(1, 1), bias=False)
[ INFO : 2022-06-16 16:21:36,676 ] -       (bn1): BatchNorm2d(128, eps=1e-05, momentum=0.1, affine=True, track_running_stats=True)
[ INFO : 2022-06-16 16:21:36,676 ] -       (conv2): Conv2d(128, 128, kernel_size=(3, 3), stride=(1, 1), padding=(1, 1), bias=False)
[ INFO : 2022-06-16 16:21:36,676 ] -       (bn2): BatchNorm2d(128, eps=1e-05, momentum=0.1, affine=True, track_running_stats=True)
[ INFO : 2022-06-16 16:21:36,676 ] -       (shortcut): Sequential()
[ INFO : 2022-06-16 16:21:36,676 ] -     )
[ INFO : 2022-06-16 16:21:36,676 ] -   )
[ INFO : 2022-06-16 16:21:36,676 ] -   (layer4): Sequential(
[ INFO : 2022-06-16 16:21:36,676 ] -     (0): BasicBlock(
[ INFO : 2022-06-16 16:21:36,676 ] -       (conv1): Conv2d(128, 256, kernel_size=(3, 3), stride=(2, 2), padding=(1, 1), bias=False)
[ INFO : 2022-06-16 16:21:36,677 ] -       (bn1): BatchNorm2d(256, eps=1e-05, momentum=0.1, affine=True, track_running_stats=True)
[ INFO : 2022-06-16 16:21:36,677 ] -       (conv2): Conv2d(256, 256, kernel_size=(3, 3), stride=(1, 1), padding=(1, 1), bias=False)
[ INFO : 2022-06-16 16:21:36,677 ] -       (bn2): BatchNorm2d(256, eps=1e-05, momentum=0.1, affine=True, track_running_stats=True)
[ INFO : 2022-06-16 16:21:36,677 ] -       (shortcut): Sequential(
[ INFO : 2022-06-16 16:21:36,677 ] -         (0): Conv2d(128, 256, kernel_size=(1, 1), stride=(2, 2), bias=False)
[ INFO : 2022-06-16 16:21:36,677 ] -         (1): BatchNorm2d(256, eps=1e-05, momentum=0.1, affine=True, track_running_stats=True)
[ INFO : 2022-06-16 16:21:36,677 ] -       )
[ INFO : 2022-06-16 16:21:36,677 ] -     )
[ INFO : 2022-06-16 16:21:36,677 ] -     (1): BasicBlock(
[ INFO : 2022-06-16 16:21:36,677 ] -       (conv1): Conv2d(256, 256, kernel_size=(3, 3), stride=(1, 1), padding=(1, 1), bias=False)
[ INFO : 2022-06-16 16:21:36,677 ] -       (bn1): BatchNorm2d(256, eps=1e-05, momentum=0.1, affine=True, track_running_stats=True)
[ INFO : 2022-06-16 16:21:36,677 ] -       (conv2): Conv2d(256, 256, kernel_size=(3, 3), stride=(1, 1), padding=(1, 1), bias=False)
[ INFO : 2022-06-16 16:21:36,678 ] -       (bn2): BatchNorm2d(256, eps=1e-05, momentum=0.1, affine=True, track_running_stats=True)
[ INFO : 2022-06-16 16:21:36,678 ] -       (shortcut): Sequential()
[ INFO : 2022-06-16 16:21:36,678 ] -     )
[ INFO : 2022-06-16 16:21:36,678 ] -     (2): BasicBlock(
[ INFO : 2022-06-16 16:21:36,678 ] -       (conv1): Conv2d(256, 256, kernel_size=(3, 3), stride=(1, 1), padding=(1, 1), bias=False)
[ INFO : 2022-06-16 16:21:36,678 ] -       (bn1): BatchNorm2d(256, eps=1e-05, momentum=0.1, affine=True, track_running_stats=True)
[ INFO : 2022-06-16 16:21:36,678 ] -       (conv2): Conv2d(256, 256, kernel_size=(3, 3), stride=(1, 1), padding=(1, 1), bias=False)
[ INFO : 2022-06-16 16:21:36,678 ] -       (bn2): BatchNorm2d(256, eps=1e-05, momentum=0.1, affine=True, track_running_stats=True)
[ INFO : 2022-06-16 16:21:36,678 ] -       (shortcut): Sequential()
[ INFO : 2022-06-16 16:21:36,678 ] -     )
[ INFO : 2022-06-16 16:21:36,678 ] -   )
[ INFO : 2022-06-16 16:21:36,679 ] -   (pool): TSTP()
[ INFO : 2022-06-16 16:21:36,679 ] -   (seg_1): Linear(in_features=5120, out_features=256, bias=True)
[ INFO : 2022-06-16 16:21:36,679 ] -   (seg_bn_1): BatchNorm1d(256, eps=1e-05, momentum=0.1, affine=False, track_running_stats=True)
[ INFO : 2022-06-16 16:21:36,679 ] -   (seg_2): Linear(in_features=256, out_features=256, bias=True)
[ INFO : 2022-06-16 16:21:36,679 ] -   (projection): ArcMarginProduct(
[ INFO : 2022-06-16 16:21:36,679 ] -     in_features=256, out_features=88503, scale=32.0,
[ INFO : 2022-06-16 16:21:36,679 ] -                       margin=0.0, easy_margin=False
[ INFO : 2022-06-16 16:21:36,679 ] -   )
[ INFO : 2022-06-16 16:21:36,679 ] - )
[ INFO : 2022-06-16 16:21:37,637 ] - Skip loading parameter: projection.weight, required shape: torch.Size([88503, 256]), loaded shape: torch.Size([17982, 256])
…
