…
[ INFO : 2022-06-16 16:31:37,104 ] - train data num: 1747308, spk num: 29501
[ INFO : 2022-06-16 16:31:37,116 ] - <== Dataloaders ==>
[ INFO : 2022-06-16 16:31:37,116 ] - train dataloaders created
[ INFO : 2022-06-16 16:31:37,116 ] - loader size: 2275
[ INFO : 2022-06-16 16:31:37,116 ] - <== Model ==>
[ INFO : 2022-06-16 16:31:37,197 ] - Load initial model from exp/ResNet34-TSTP-emb256-fbank80-num_frms200-aug0.6-spTrue-saFalse-ArcMargin-SGD-epoch150/models/avg_model.pt
[ INFO : 2022-06-16 16:31:37,235 ] - Dropping parameter projection.weight
[ INFO : 2022-06-16 16:31:37,445 ] - ResNet(
[ INFO : 2022-06-16 16:31:37,445 ] -   (conv1): Conv2d(1, 32, kernel_size=(3, 3), stride=(1, 1), padding=(1, 1), bias=False)
[ INFO : 2022-06-16 16:31:37,445 ] -   (bn1): BatchNorm2d(32, eps=1e-05, momentum=0.1, affine=True, track_running_stats=True)
[ INFO : 2022-06-16 16:31:37,446 ] -   (layer1): Sequential(
[ INFO : 2022-06-16 16:31:37,446 ] -     (0): BasicBlock(
[ INFO : 2022-06-16 16:31:37,446 ] -       (conv1): Conv2d(32, 32, kernel_size=(3, 3), stride=(1, 1), padding=(1, 1), bias=False)
[ INFO : 2022-06-16 16:31:37,446 ] -       (bn1): BatchNorm2d(32, eps=1e-05, momentum=0.1, affine=True, track_running_stats=True)
[ INFO : 2022-06-16 16:31:37,446 ] -       (conv2): Conv2d(32, 32, kernel_size=(3, 3), stride=(1, 1), padding=(1, 1), bias=False)
[ INFO : 2022-06-16 16:31:37,446 ] -       (bn2): BatchNorm2d(32, eps=1e-05, momentum=0.1, affine=True, track_running_stats=True)
[ INFO : 2022-06-16 16:31:37,446 ] -       (shortcut): Sequential()
[ INFO : 2022-06-16 16:31:37,446 ] -     )
[ INFO : 2022-06-16 16:31:37,446 ] -     (1): BasicBlock(
[ INFO : 2022-06-16 16:31:37,446 ] -       (conv1): Conv2d(32, 32, kernel_size=(3, 3), stride=(1, 1), padding=(1, 1), bias=False)
[ INFO : 2022-06-16 16:31:37,447 ] -       (bn1): BatchNorm2d(32, eps=1e-05, momentum=0.1, affine=True, track_running_stats=True)
[ INFO : 2022-06-16 16:31:37,447 ] -       (conv2): Conv2d(32, 32, kernel_size=(3, 3), stride=(1, 1), padding=(1, 1), bias=False)
[ INFO : 2022-06-16 16:31:37,447 ] -       (bn2): BatchNorm2d(32, eps=1e-05, momentum=0.1, affine=True, track_running_stats=True)
[ INFO : 2022-06-16 16:31:37,447 ] -       (shortcut): Sequential()
[ INFO : 2022-06-16 16:31:37,447 ] -     )
[ INFO : 2022-06-16 16:31:37,447 ] -     (2): BasicBlock(
[ INFO : 2022-06-16 16:31:37,447 ] -       (conv1): Conv2d(32, 32, kernel_size=(3, 3), stride=(1, 1), padding=(1, 1), bias=False)
[ INFO : 2022-06-16 16:31:37,447 ] -       (bn1): BatchNorm2d(32, eps=1e-05, momentum=0.1, affine=True, track_running_stats=True)
[ INFO : 2022-06-16 16:31:37,447 ] -       (conv2): Conv2d(32, 32, kernel_size=(3, 3), stride=(1, 1), padding=(1, 1), bias=False)
[ INFO : 2022-06-16 16:31:37,447 ] -       (bn2): BatchNorm2d(32, eps=1e-05, momentum=0.1, affine=True, track_running_stats=True)
[ INFO : 2022-06-16 16:31:37,447 ] -       (shortcut): Sequential()
[ INFO : 2022-06-16 16:31:37,448 ] -     )
[ INFO : 2022-06-16 16:31:37,448 ] -   )
[ INFO : 2022-06-16 16:31:37,448 ] -   (layer2): Sequential(
[ INFO : 2022-06-16 16:31:37,448 ] -     (0): BasicBlock(
[ INFO : 2022-06-16 16:31:37,448 ] -       (conv1): Conv2d(32, 64, kernel_size=(3, 3), stride=(2, 2), padding=(1, 1), bias=False)
[ INFO : 2022-06-16 16:31:37,448 ] -       (bn1): BatchNorm2d(64, eps=1e-05, momentum=0.1, affine=True, track_running_stats=True)
[ INFO : 2022-06-16 16:31:37,448 ] -       (conv2): Conv2d(64, 64, kernel_size=(3, 3), stride=(1, 1), padding=(1, 1), bias=False)
[ INFO : 2022-06-16 16:31:37,448 ] -       (bn2): BatchNorm2d(64, eps=1e-05, momentum=0.1, affine=True, track_running_stats=True)
[ INFO : 2022-06-16 16:31:37,448 ] -       (shortcut): Sequential(
[ INFO : 2022-06-16 16:31:37,448 ] -         (0): Conv2d(32, 64, kernel_size=(1, 1), stride=(2, 2), bias=False)
[ INFO : 2022-06-16 16:31:37,449 ] -         (1): BatchNorm2d(64, eps=1e-05, momentum=0.1, affine=True, track_running_stats=True)
[ INFO : 2022-06-16 16:31:37,449 ] -       )
[ INFO : 2022-06-16 16:31:37,449 ] -     )
[ INFO : 2022-06-16 16:31:37,449 ] -     (1): BasicBlock(
[ INFO : 2022-06-16 16:31:37,449 ] -       (conv1): Conv2d(64, 64, kernel_size=(3, 3), stride=(1, 1), padding=(1, 1), bias=False)
[ INFO : 2022-06-16 16:31:37,449 ] -       (bn1): BatchNorm2d(64, eps=1e-05, momentum=0.1, affine=True, track_running_stats=True)
[ INFO : 2022-06-16 16:31:37,449 ] -       (conv2): Conv2d(64, 64, kernel_size=(3, 3), stride=(1, 1), padding=(1, 1), bias=False)
[ INFO : 2022-06-16 16:31:37,449 ] -       (bn2): BatchNorm2d(64, eps=1e-05, momentum=0.1, affine=True, track_running_stats=True)
[ INFO : 2022-06-16 16:31:37,449 ] -       (shortcut): Sequential()
[ INFO : 2022-06-16 16:31:37,449 ] -     )
[ INFO : 2022-06-16 16:31:37,449 ] -     (2): BasicBlock(
[ INFO : 2022-06-16 16:31:37,450 ] -       (conv1): Conv2d(64, 64, kernel_size=(3, 3), stride=(1, 1), padding=(1, 1), bias=False)
[ INFO : 2022-06-16 16:31:37,450 ] -       (bn1): BatchNorm2d(64, eps=1e-05, momentum=0.1, affine=True, track_running_stats=True)
[ INFO : 2022-06-16 16:31:37,450 ] -       (conv2): Conv2d(64, 64, kernel_size=(3, 3), stride=(1, 1), padding=(1, 1), bias=False)
[ INFO : 2022-06-16 16:31:37,450 ] -       (bn2): BatchNorm2d(64, eps=1e-05, momentum=0.1, affine=True, track_running_stats=True)
[ INFO : 2022-06-16 16:31:37,450 ] -       (shortcut): Sequential()
[ INFO : 2022-06-16 16:31:37,450 ] -     )
[ INFO : 2022-06-16 16:31:37,450 ] -     (3): BasicBlock(
[ INFO : 2022-06-16 16:31:37,450 ] -       (conv1): Conv2d(64, 64, kernel_size=(3, 3), stride=(1, 1), padding=(1, 1), bias=False)
[ INFO : 2022-06-16 16:31:37,450 ] -       (bn1): BatchNorm2d(64, eps=1e-05, momentum=0.1, affine=True, track_running_stats=True)
[ INFO : 2022-06-16 16:31:37,450 ] -       (conv2): Conv2d(64, 64, kernel_size=(3, 3), stride=(1, 1), padding=(1, 1), bias=False)
[ INFO : 2022-06-16 16:31:37,450 ] -       (bn2): BatchNorm2d(64, eps=1e-05, momentum=0.1, affine=True, track_running_stats=True)
[ INFO : 2022-06-16 16:31:37,451 ] -       (shortcut): Sequential()
[ INFO : 2022-06-16 16:31:37,451 ] -     )
[ INFO : 2022-06-16 16:31:37,451 ] -   )
[ INFO : 2022-06-16 16:31:37,451 ] -   (layer3): Sequential(
[ INFO : 2022-06-16 16:31:37,451 ] -     (0): BasicBlock(
[ INFO : 2022-06-16 16:31:37,451 ] -       (conv1): Conv2d(64, 128, kernel_size=(3, 3), stride=(2, 2), padding=(1, 1), bias=False)
[ INFO : 2022-06-16 16:31:37,451 ] -       (bn1): BatchNorm2d(128, eps=1e-05, momentum=0.1, affine=True, track_running_stats=True)
[ INFO : 2022-06-16 16:31:37,451 ] -       (conv2): Conv2d(128, 128, kernel_size=(3, 3), stride=(1, 1), padding=(1, 1), bias=False)
[ INFO : 2022-06-16 16:31:37,451 ] -       (bn2): BatchNorm2d(128, eps=1e-05, momentum=0.1, affine=True, track_running_stats=True)
[ INFO : 2022-06-16 16:31:37,451 ] -       (shortcut): Sequential(
[ INFO : 2022-06-16 16:31:37,451 ] -         (0): Conv2d(64, 128, kernel_size=(1, 1), stride=(2, 2), bias=False)
[ INFO : 2022-06-16 16:31:37,452 ] -         (1): BatchNorm2d(128, eps=1e-05, momentum=0.1, affine=True, track_running_stats=True)
[ INFO : 2022-06-16 16:31:37,452 ] -       )
[ INFO : 2022-06-16 16:31:37,452 ] -     )
[ INFO : 2022-06-16 16:31:37,452 ] -     (1): BasicBlock(
[ INFO : 2022-06-16 16:31:37,452 ] -       (conv1): Conv2d(128, 128, kernel_size=(3, 3), stride=(1, 1), padding=(1, 1), bias=False)
[ INFO : 2022-06-16 16:31:37,452 ] -       (bn1): BatchNorm2d(128, eps=1e-05, momentum=0.1, affine=True, track_running_stats=True)
[ INFO : 2022-06-16 16:31:37,452 ] -       (conv2): Conv2d(128, 128, kernel_size=(3, 3), stride=(1, 1), padding=(1, 1), bias=False)
[ INFO : 2022-06-16 16:31:37,452 ] -       (bn2): BatchNorm2d(128, eps=1e-05, momentum=0.1, affine=True, track_running_stats=True)
[ INFO : 2022-06-16 16:31:37,452 ] -       (shortcut): Sequential()
[ INFO : 2022-06-16 16:31:37,452 ] -     )
[ INFO : 2022-06-16 16:31:37,453 ] -     (2): BasicBlock(
[ INFO : 2022-06-16 16:31:37,453 ] -       (conv1): Conv2d(128, 128, kernel_size=(3, 3), stride=(1, 1), padding=(1, 1), bias=False)
[ INFO : 2022-06-16 16:31:37,453 ] -       (bn1): BatchNorm2d(128, eps=1e-05, momentum=0.1, affine=True, track_running_stats=True)
[ INFO : 2022-06-16 16:31:37,453 ] -       (conv2): Conv2d(128, 128, kernel_size=(3, 3), stride=(1, 1), padding=(1, 1), bias=False)
[ INFO : 2022-06-16 16:31:37,453 ] -       (bn2): BatchNorm2d(128, eps=1e-05, momentum=0.1, affine=True, track_running_stats=True)
[ INFO : 2022-06-16 16:31:37,453 ] -       (shortcut): Sequential()
[ INFO : 2022-06-16 16:31:37,453 ] -     )
[ INFO : 2022-06-16 16:31:37,453 ] -     (3): BasicBlock(
[ INFO : 2022-06-16 16:31:37,453 ] -       (conv1): Conv2d(128, 128, kernel_size=(3, 3), stride=(1, 1), padding=(1, 1), bias=False)
[ INFO : 2022-06-16 16:31:37,453 ] -       (bn1): BatchNorm2d(128, eps=1e-05, momentum=0.1, affine=True, track_running_stats=True)
[ INFO : 2022-06-16 16:31:37,453 ] -       (conv2): Conv2d(128, 128, kernel_size=(3, 3), stride=(1, 1), padding=(1, 1), bias=False)
[ INFO : 2022-06-16 16:31:37,453 ] -       (bn2): BatchNorm2d(128, eps=1e-05, momentum=0.1, affine=True, track_running_stats=True)
[ INFO : 2022-06-16 16:31:37,454 ] -       (shortcut): Sequential()
[ INFO : 2022-06-16 16:31:37,454 ] -     )
[ INFO : 2022-06-16 16:31:37,454 ] -     (4): BasicBlock(
[ INFO : 2022-06-16 16:31:37,454 ] -       (conv1): Conv2d(128, 128, kernel_size=(3, 3), stride=(1, 1), padding=(1, 1), bias=False)
[ INFO : 2022-06-16 16:31:37,454 ] -       (bn1): BatchNorm2d(128, eps=1e-05, momentum=0.1, affine=True, track_running_stats=True)
[ INFO : 2022-06-16 16:31:37,454 ] -       (conv2): Conv2d(128, 128, kernel_size=(3, 3), stride=(1, 1), padding=(1, 1), bias=False)
[ INFO : 2022-06-16 16:31:37,454 ] -       (bn2): BatchNorm2d(128, eps=1e-05, momentum=0.1, affine=True, track_running_stats=True)
[ INFO : 2022-06-16 16:31:37,454 ] -       (shortcut): Sequential()
[ INFO : 2022-06-16 16:31:37,454 ] -     )
[ INFO : 2022-06-16 16:31:37,454 ] -     (5): BasicBlock(
[ INFO : 2022-06-16 16:31:37,454 ] -       (conv1): Conv2d(128, 128, kernel_size=(3, 3), stride=(1, 1), padding=(1, 1), bias=False)
[ INFO : 2022-06-16 16:31:37,455 ] -       (bn1): BatchNorm2d(128, eps=1e-05, momentum=0.1, affine=True, track_running_stats=True)
[ INFO : 2022-06-16 16:31:37,455 ] -       (conv2): Conv2d(128, 128, kernel_size=(3, 3), stride=(1, 1), padding=(1, 1), bias=False)
[ INFO : 2022-06-16 16:31:37,455 ] -       (bn2): BatchNorm2d(128, eps=1e-05, momentum=0.1, affine=True, track_running_stats=True)
[ INFO : 2022-06-16 16:31:37,455 ] -       (shortcut): Sequential()
[ INFO : 2022-06-16 16:31:37,455 ] -     )
[ INFO : 2022-06-16 16:31:37,455 ] -   )
[ INFO : 2022-06-16 16:31:37,455 ] -   (layer4): Sequential(
[ INFO : 2022-06-16 16:31:37,455 ] -     (0): BasicBlock(
[ INFO : 2022-06-16 16:31:37,455 ] -       (conv1): Conv2d(128, 256, kernel_size=(3, 3), stride=(2, 2), padding=(1, 1), bias=False)
[ INFO : 2022-06-16 16:31:37,455 ] -       (bn1): BatchNorm2d(256, eps=1e-05, momentum=0.1, affine=True, track_running_stats=True)
[ INFO : 2022-06-16 16:31:37,456 ] -       (conv2): Conv2d(256, 256, kernel_size=(3, 3), stride=(1, 1), padding=(1, 1), bias=False)
[ INFO : 2022-06-16 16:31:37,456 ] -       (bn2): BatchNorm2d(256, eps=1e-05, momentum=0.1, affine=True, track_running_stats=True)
[ INFO : 2022-06-16 16:31:37,456 ] -       (shortcut): Sequential(
[ INFO : 2022-06-16 16:31:37,456 ] -         (0): Conv2d(128, 256, kernel_size=(1, 1), stride=(2, 2), bias=False)
[ INFO : 2022-06-16 16:31:37,456 ] -         (1): BatchNorm2d(256, eps=1e-05, momentum=0.1, affine=True, track_running_stats=True)
[ INFO : 2022-06-16 16:31:37,456 ] -       )
[ INFO : 2022-06-16 16:31:37,456 ] -     )
[ INFO : 2022-06-16 16:31:37,456 ] -     (1): BasicBlock(
[ INFO : 2022-06-16 16:31:37,456 ] -       (conv1): Conv2d(256, 256, kernel_size=(3, 3), stride=(1, 1), padding=(1, 1), bias=False)
[ INFO : 2022-06-16 16:31:37,457 ] -       (bn1): BatchNorm2d(256, eps=1e-05, momentum=0.1, affine=True, track_running_stats=True)
[ INFO : 2022-06-16 16:31:37,457 ] -       (conv2): Conv2d(256, 256, kernel_size=(3, 3), stride=(1, 1), padding=(1, 1), bias=False)
[ INFO : 2022-06-16 16:31:37,457 ] -       (bn2): BatchNorm2d(256, eps=1e-05, momentum=0.1, affine=True, track_running_stats=True)
[ INFO : 2022-06-16 16:31:37,457 ] -       (shortcut): Sequential()
[ INFO : 2022-06-16 16:31:37,457 ] -     )
[ INFO : 2022-06-16 16:31:37,457 ] -     (2): BasicBlock(
[ INFO : 2022-06-16 16:31:37,457 ] -       (conv1): Conv2d(256, 256, kernel_size=(3, 3), stride=(1, 1), padding=(1, 1), bias=False)
[ INFO : 2022-06-16 16:31:37,457 ] -       (bn1): BatchNorm2d(256, eps=1e-05, momentum=0.1, affine=True, track_running_stats=True)
[ INFO : 2022-06-16 16:31:37,457 ] -       (conv2): Conv2d(256, 256, kernel_size=(3, 3), stride=(1, 1), padding=(1, 1), bias=False)
[ INFO : 2022-06-16 16:31:37,457 ] -       (bn2): BatchNorm2d(256, eps=1e-05, momentum=0.1, affine=True, track_running_stats=True)
[ INFO : 2022-06-16 16:31:37,458 ] -       (shortcut): Sequential()
[ INFO : 2022-06-16 16:31:37,458 ] -     )
[ INFO : 2022-06-16 16:31:37,458 ] -   )
[ INFO : 2022-06-16 16:31:37,458 ] -   (pool): TSTP()
[ INFO : 2022-06-16 16:31:37,458 ] -   (seg_1): Linear(in_features=5120, out_features=256, bias=True)
[ INFO : 2022-06-16 16:31:37,458 ] -   (seg_bn_1): BatchNorm1d(256, eps=1e-05, momentum=0.1, affine=False, track_running_stats=True)
[ INFO : 2022-06-16 16:31:37,458 ] -   (seg_2): Linear(in_features=256, out_features=256, bias=True)
[ INFO : 2022-06-16 16:31:37,458 ] -   (projection): ArcMarginProduct(
[ INFO : 2022-06-16 16:31:37,458 ] -     in_features=256, out_features=88503, scale=32.0,
[ INFO : 2022-06-16 16:31:37,458 ] -                       margin=0.0, easy_margin=False
[ INFO : 2022-06-16 16:31:37,459 ] -   )
[ INFO : 2022-06-16 16:31:37,459 ] - )
[ INFO : 2022-06-16 16:31:38,288 ] - start_epoch: 1
…
