…
[ INFO : 2022-06-16 12:01:18,039 ] - <== Data statistics ==>
[ INFO : 2022-06-16 12:01:18,040 ] - train data num: 1747308, spk num: 29501
[ INFO : 2022-06-16 12:01:18,049 ] - <== Dataloaders ==>
[ INFO : 2022-06-16 12:01:18,050 ] - train dataloaders created
[ INFO : 2022-06-16 12:01:18,050 ] - loader size: 2275
[ INFO : 2022-06-16 12:01:18,050 ] - <== Model ==>
[ INFO : 2022-06-16 12:01:18,111 ] - Load initial model from exp/ResNet101-TSTP-emb256-fbank80-num_frms200-aug0.6-spTrue-saFalse-ArcMargin-SGD-epoch150/models/model_45.pt
[ INFO : 2022-06-16 12:01:18,387 ] - ResNet(
[ INFO : 2022-06-16 12:01:18,387 ] -   (conv1): Conv2d(1, 32, kernel_size=(3, 3), stride=(1, 1), padding=(1, 1), bias=False)
[ INFO : 2022-06-16 12:01:18,387 ] -   (bn1): BatchNorm2d(32, eps=1e-05, momentum=0.1, affine=True, track_running_stats=True)
[ INFO : 2022-06-16 12:01:18,387 ] -   (layer1): Sequential(
[ INFO : 2022-06-16 12:01:18,387 ] -     (0): BasicBlock(
[ INFO : 2022-06-16 12:01:18,387 ] -       (conv1): Conv2d(32, 32, kernel_size=(3, 3), stride=(1, 1), padding=(1, 1), bias=False)
[ INFO : 2022-06-16 12:01:18,387 ] -       (bn1): BatchNorm2d(32, eps=1e-05, momentum=0.1, affine=True, track_running_stats=True)
[ INFO : 2022-06-16 12:01:18,387 ] -       (conv2): Conv2d(32, 32, kernel_size=(3, 3), stride=(1, 1), padding=(1, 1), bias=False)
[ INFO : 2022-06-16 12:01:18,388 ] -       (bn2): BatchNorm2d(32, eps=1e-05, momentum=0.1, affine=True, track_running_stats=True)
[ INFO : 2022-06-16 12:01:18,388 ] -       (shortcut): Sequential()
[ INFO : 2022-06-16 12:01:18,388 ] -     )
[ INFO : 2022-06-16 12:01:18,388 ] -     (1): BasicBlock(
[ INFO : 2022-06-16 12:01:18,388 ] -       (conv1): Conv2d(32, 32, kernel_size=(3, 3), stride=(1, 1), padding=(1, 1), bias=False)
[ INFO : 2022-06-16 12:01:18,388 ] -       (bn1): BatchNorm2d(32, eps=1e-05, momentum=0.1, affine=True, track_running_stats=True)
[ INFO : 2022-06-16 12:01:18,388 ] -       (conv2): Conv2d(32, 32, kernel_size=(3, 3), stride=(1, 1), padding=(1, 1), bias=False)
[ INFO : 2022-06-16 12:01:18,388 ] -       (bn2): BatchNorm2d(32, eps=1e-05, momentum=0.1, affine=True, track_running_stats=True)
[ INFO : 2022-06-16 12:01:18,388 ] -       (shortcut): Sequential()
[ INFO : 2022-06-16 12:01:18,388 ] -     )
[ INFO : 2022-06-16 12:01:18,388 ] -     (2): BasicBlock(
[ INFO : 2022-06-16 12:01:18,388 ] -       (conv1): Conv2d(32, 32, kernel_size=(3, 3), stride=(1, 1), padding=(1, 1), bias=False)
[ INFO : 2022-06-16 12:01:18,388 ] -       (bn1): BatchNorm2d(32, eps=1e-05, momentum=0.1, affine=True, track_running_stats=True)
[ INFO : 2022-06-16 12:01:18,389 ] -       (conv2): Conv2d(32, 32, kernel_size=(3, 3), stride=(1, 1), padding=(1, 1), bias=False)
[ INFO : 2022-06-16 12:01:18,389 ] -       (bn2): BatchNorm2d(32, eps=1e-05, momentum=0.1, affine=True, track_running_stats=True)
[ INFO : 2022-06-16 12:01:18,389 ] -       (shortcut): Sequential()
[ INFO : 2022-06-16 12:01:18,389 ] -     )
[ INFO : 2022-06-16 12:01:18,389 ] -   )
[ INFO : 2022-06-16 12:01:18,389 ] -   (layer2): Sequential(
[ INFO : 2022-06-16 12:01:18,389 ] -     (0): BasicBlock(
[ INFO : 2022-06-16 12:01:18,389 ] -       (conv1): Conv2d(32, 64, kernel_size=(3, 3), stride=(2, 2), padding=(1, 1), bias=False)
[ INFO : 2022-06-16 12:01:18,389 ] -       (bn1): BatchNorm2d(64, eps=1e-05, momentum=0.1, affine=True, track_running_stats=True)
[ INFO : 2022-06-16 12:01:18,389 ] -       (conv2): Conv2d(64, 64, kernel_size=(3, 3), stride=(1, 1), padding=(1, 1), bias=False)
[ INFO : 2022-06-16 12:01:18,389 ] -       (bn2): BatchNorm2d(64, eps=1e-05, momentum=0.1, affine=True, track_running_stats=True)
[ INFO : 2022-06-16 12:01:18,389 ] -       (shortcut): Sequential(
[ INFO : 2022-06-16 12:01:18,390 ] -         (0): Conv2d(32, 64, kernel_size=(1, 1), stride=(2, 2), bias=False)
[ INFO : 2022-06-16 12:01:18,390 ] -         (1): BatchNorm2d(64, eps=1e-05, momentum=0.1, affine=True, track_running_stats=True)
[ INFO : 2022-06-16 12:01:18,390 ] -       )
[ INFO : 2022-06-16 12:01:18,390 ] -     )
[ INFO : 2022-06-16 12:01:18,390 ] -     (1): BasicBlock(
[ INFO : 2022-06-16 12:01:18,390 ] -       (conv1): Conv2d(64, 64, kernel_size=(3, 3), stride=(1, 1), padding=(1, 1), bias=False)
[ INFO : 2022-06-16 12:01:18,390 ] -       (bn1): BatchNorm2d(64, eps=1e-05, momentum=0.1, affine=True, track_running_stats=True)
[ INFO : 2022-06-16 12:01:18,390 ] -       (conv2): Conv2d(64, 64, kernel_size=(3, 3), stride=(1, 1), padding=(1, 1), bias=False)
[ INFO : 2022-06-16 12:01:18,390 ] -       (bn2): BatchNorm2d(64, eps=1e-05, momentum=0.1, affine=True, track_running_stats=True)
[ INFO : 2022-06-16 12:01:18,390 ] -       (shortcut): Sequential()
[ INFO : 2022-06-16 12:01:18,390 ] -     )
[ INFO : 2022-06-16 12:01:18,390 ] -     (2): BasicBlock(
[ INFO : 2022-06-16 12:01:18,391 ] -       (conv1): Conv2d(64, 64, kernel_size=(3, 3), stride=(1, 1), padding=(1, 1), bias=False)
[ INFO : 2022-06-16 12:01:18,391 ] -       (bn1): BatchNorm2d(64, eps=1e-05, momentum=0.1, affine=True, track_running_stats=True)
[ INFO : 2022-06-16 12:01:18,391 ] -       (conv2): Conv2d(64, 64, kernel_size=(3, 3), stride=(1, 1), padding=(1, 1), bias=False)
[ INFO : 2022-06-16 12:01:18,391 ] -       (bn2): BatchNorm2d(64, eps=1e-05, momentum=0.1, affine=True, track_running_stats=True)
[ INFO : 2022-06-16 12:01:18,391 ] -       (shortcut): Sequential()
[ INFO : 2022-06-16 12:01:18,391 ] -     )
[ INFO : 2022-06-16 12:01:18,391 ] -     (3): BasicBlock(
[ INFO : 2022-06-16 12:01:18,391 ] -       (conv1): Conv2d(64, 64, kernel_size=(3, 3), stride=(1, 1), padding=(1, 1), bias=False)
[ INFO : 2022-06-16 12:01:18,391 ] -       (bn1): BatchNorm2d(64, eps=1e-05, momentum=0.1, affine=True, track_running_stats=True)
[ INFO : 2022-06-16 12:01:18,391 ] -       (conv2): Conv2d(64, 64, kernel_size=(3, 3), stride=(1, 1), padding=(1, 1), bias=False)
[ INFO : 2022-06-16 12:01:18,391 ] -       (bn2): BatchNorm2d(64, eps=1e-05, momentum=0.1, affine=True, track_running_stats=True)
[ INFO : 2022-06-16 12:01:18,391 ] -       (shortcut): Sequential()
[ INFO : 2022-06-16 12:01:18,391 ] -     )
[ INFO : 2022-06-16 12:01:18,392 ] -   )
[ INFO : 2022-06-16 12:01:18,392 ] -   (layer3): Sequential(
[ INFO : 2022-06-16 12:01:18,392 ] -     (0): BasicBlock(
[ INFO : 2022-06-16 12:01:18,392 ] -       (conv1): Conv2d(64, 128, kernel_size=(3, 3), stride=(2, 2), padding=(1, 1), bias=False)
[ INFO : 2022-06-16 12:01:18,392 ] -       (bn1): BatchNorm2d(128, eps=1e-05, momentum=0.1, affine=True, track_running_stats=True)
[ INFO : 2022-06-16 12:01:18,392 ] -       (conv2): Conv2d(128, 128, kernel_size=(3, 3), stride=(1, 1), padding=(1, 1), bias=False)
[ INFO : 2022-06-16 12:01:18,392 ] -       (bn2): BatchNorm2d(128, eps=1e-05, momentum=0.1, affine=True, track_running_stats=True)
[ INFO : 2022-06-16 12:01:18,392 ] -       (shortcut): Sequential(
[ INFO : 2022-06-16 12:01:18,392 ] -         (0): Conv2d(64, 128, kernel_size=(1, 1), stride=(2, 2), bias=False)
[ INFO : 2022-06-16 12:01:18,392 ] -         (1): BatchNorm2d(128, eps=1e-05, momentum=0.1, affine=True, track_running_stats=True)
[ INFO : 2022-06-16 12:01:18,392 ] -       )
[ INFO : 2022-06-16 12:01:18,392 ] -     )
[ INFO : 2022-06-16 12:01:18,393 ] -     (1): BasicBlock(
[ INFO : 2022-06-16 12:01:18,393 ] -       (conv1): Conv2d(128, 128, kernel_size=(3, 3), stride=(1, 1), padding=(1, 1), bias=False)
[ INFO : 2022-06-16 12:01:18,393 ] -       (bn1): BatchNorm2d(128, eps=1e-05, momentum=0.1, affine=True, track_running_stats=True)
[ INFO : 2022-06-16 12:01:18,393 ] -       (conv2): Conv2d(128, 128, kernel_size=(3, 3), stride=(1, 1), padding=(1, 1), bias=False)
[ INFO : 2022-06-16 12:01:18,393 ] -       (bn2): BatchNorm2d(128, eps=1e-05, momentum=0.1, affine=True, track_running_stats=True)
[ INFO : 2022-06-16 12:01:18,393 ] -       (shortcut): Sequential()
[ INFO : 2022-06-16 12:01:18,393 ] -     )
[ INFO : 2022-06-16 12:01:18,393 ] -     (2): BasicBlock(
[ INFO : 2022-06-16 12:01:18,393 ] -       (conv1): Conv2d(128, 128, kernel_size=(3, 3), stride=(1, 1), padding=(1, 1), bias=False)
[ INFO : 2022-06-16 12:01:18,393 ] -       (bn1): BatchNorm2d(128, eps=1e-05, momentum=0.1, affine=True, track_running_stats=True)
[ INFO : 2022-06-16 12:01:18,393 ] -       (conv2): Conv2d(128, 128, kernel_size=(3, 3), stride=(1, 1), padding=(1, 1), bias=False)
[ INFO : 2022-06-16 12:01:18,393 ] -       (bn2): BatchNorm2d(128, eps=1e-05, momentum=0.1, affine=True, track_running_stats=True)
[ INFO : 2022-06-16 12:01:18,394 ] -       (shortcut): Sequential()
[ INFO : 2022-06-16 12:01:18,394 ] -     )
[ INFO : 2022-06-16 12:01:18,394 ] -     (3): BasicBlock(
[ INFO : 2022-06-16 12:01:18,394 ] -       (conv1): Conv2d(128, 128, kernel_size=(3, 3), stride=(1, 1), padding=(1, 1), bias=False)
[ INFO : 2022-06-16 12:01:18,394 ] -       (bn1): BatchNorm2d(128, eps=1e-05, momentum=0.1, affine=True, track_running_stats=True)
[ INFO : 2022-06-16 12:01:18,394 ] -       (conv2): Conv2d(128, 128, kernel_size=(3, 3), stride=(1, 1), padding=(1, 1), bias=False)
[ INFO : 2022-06-16 12:01:18,394 ] -       (bn2): BatchNorm2d(128, eps=1e-05, momentum=0.1, affine=True, track_running_stats=True)
[ INFO : 2022-06-16 12:01:18,394 ] -       (shortcut): Sequential()
[ INFO : 2022-06-16 12:01:18,394 ] -     )
[ INFO : 2022-06-16 12:01:18,394 ] -     (4): BasicBlock(
[ INFO : 2022-06-16 12:01:18,394 ] -       (conv1): Conv2d(128, 128, kernel_size=(3, 3), stride=(1, 1), padding=(1, 1), bias=False)
[ INFO : 2022-06-16 12:01:18,394 ] -       (bn1): BatchNorm2d(128, eps=1e-05, momentum=0.1, affine=True, track_running_stats=True)
[ INFO : 2022-06-16 12:01:18,394 ] -       (conv2): Conv2d(128, 128, kernel_size=(3, 3), stride=(1, 1), padding=(1, 1), bias=False)
[ INFO : 2022-06-16 12:01:18,395 ] -       (bn2): BatchNorm2d(128, eps=1e-05, momentum=0.1, affine=True, track_running_stats=True)
[ INFO : 2022-06-16 12:01:18,395 ] -       (shortcut): Sequential()
[ INFO : 2022-06-16 12:01:18,395 ] -     )
[ INFO : 2022-06-16 12:01:18,395 ] -     (5): BasicBlock(
[ INFO : 2022-06-16 12:01:18,395 ] -       (conv1): Conv2d(128, 128, kernel_size=(3, 3), stride=(1, 1), padding=(1, 1), bias=False)
[ INFO : 2022-06-16 12:01:18,395 ] -       (bn1): BatchNorm2d(128, eps=1e-05, momentum=0.1, affine=True, track_running_stats=True)
[ INFO : 2022-06-16 12:01:18,395 ] -       (conv2): Conv2d(128, 128, kernel_size=(3, 3), stride=(1, 1), padding=(1, 1), bias=False)
[ INFO : 2022-06-16 12:01:18,395 ] -       (bn2): BatchNorm2d(128, eps=1e-05, momentum=0.1, affine=True, track_running_stats=True)
[ INFO : 2022-06-16 12:01:18,395 ] -       (shortcut): Sequential()
[ INFO : 2022-06-16 12:01:18,395 ] -     )
[ INFO : 2022-06-16 12:01:18,395 ] -   )
[ INFO : 2022-06-16 12:01:18,395 ] -   (layer4): Sequential(
[ INFO : 2022-06-16 12:01:18,395 ] -     (0): BasicBlock(
[ INFO : 2022-06-16 12:01:18,396 ] -       (conv1): Conv2d(128, 256, kernel_size=(3, 3), stride=(2, 2), padding=(1, 1), bias=False)
[ INFO : 2022-06-16 12:01:18,396 ] -       (bn1): BatchNorm2d(256, eps=1e-05, momentum=0.1, affine=True, track_running_stats=True)
[ INFO : 2022-06-16 12:01:18,396 ] -       (conv2): Conv2d(256, 256, kernel_size=(3, 3), stride=(1, 1), padding=(1, 1), bias=False)
[ INFO : 2022-06-16 12:01:18,396 ] -       (bn2): BatchNorm2d(256, eps=1e-05, momentum=0.1, affine=True, track_running_stats=True)
[ INFO : 2022-06-16 12:01:18,396 ] -       (shortcut): Sequential(
[ INFO : 2022-06-16 12:01:18,396 ] -         (0): Conv2d(128, 256, kernel_size=(1, 1), stride=(2, 2), bias=False)
[ INFO : 2022-06-16 12:01:18,396 ] -         (1): BatchNorm2d(256, eps=1e-05, momentum=0.1, affine=True, track_running_stats=True)
[ INFO : 2022-06-16 12:01:18,396 ] -       )
[ INFO : 2022-06-16 12:01:18,396 ] -     )
[ INFO : 2022-06-16 12:01:18,396 ] -     (1): BasicBlock(
[ INFO : 2022-06-16 12:01:18,396 ] -       (conv1): Conv2d(256, 256, kernel_size=(3, 3), stride=(1, 1), padding=(1, 1), bias=False)
[ INFO : 2022-06-16 12:01:18,396 ] -       (bn1): BatchNorm2d(256, eps=1e-05, momentum=0.1, affine=True, track_running_stats=True)
[ INFO : 2022-06-16 12:01:18,397 ] -       (conv2): Conv2d(256, 256, kernel_size=(3, 3), stride=(1, 1), padding=(1, 1), bias=False)
[ INFO : 2022-06-16 12:01:18,397 ] -       (bn2): BatchNorm2d(256, eps=1e-05, momentum=0.1, affine=True, track_running_stats=True)
[ INFO : 2022-06-16 12:01:18,397 ] -       (shortcut): Sequential()
[ INFO : 2022-06-16 12:01:18,397 ] -     )
[ INFO : 2022-06-16 12:01:18,397 ] -     (2): BasicBlock(
[ INFO : 2022-06-16 12:01:18,397 ] -       (conv1): Conv2d(256, 256, kernel_size=(3, 3), stride=(1, 1), padding=(1, 1), bias=False)
[ INFO : 2022-06-16 12:01:18,397 ] -       (bn1): BatchNorm2d(256, eps=1e-05, momentum=0.1, affine=True, track_running_stats=True)
[ INFO : 2022-06-16 12:01:18,397 ] -       (conv2): Conv2d(256, 256, kernel_size=(3, 3), stride=(1, 1), padding=(1, 1), bias=False)
[ INFO : 2022-06-16 12:01:18,397 ] -       (bn2): BatchNorm2d(256, eps=1e-05, momentum=0.1, affine=True, track_running_stats=True)
[ INFO : 2022-06-16 12:01:18,397 ] -       (shortcut): Sequential()
[ INFO : 2022-06-16 12:01:18,397 ] -     )
[ INFO : 2022-06-16 12:01:18,397 ] -   )
[ INFO : 2022-06-16 12:01:18,398 ] -   (pool): TSTP()
[ INFO : 2022-06-16 12:01:18,398 ] -   (seg_1): Linear(in_features=5120, out_features=256, bias=True)
[ INFO : 2022-06-16 12:01:18,398 ] -   (seg_bn_1): BatchNorm1d(256, eps=1e-05, momentum=0.1, affine=False, track_running_stats=True)
[ INFO : 2022-06-16 12:01:18,398 ] -   (seg_2): Linear(in_features=256, out_features=256, bias=True)
[ INFO : 2022-06-16 12:01:18,398 ] -   (projection): ArcMarginProduct(
[ INFO : 2022-06-16 12:01:18,398 ] -     in_features=256, out_features=88503, scale=32.0,
[ INFO : 2022-06-16 12:01:18,398 ] -                       margin=0.0, easy_margin=False
[ INFO : 2022-06-16 12:01:18,398 ] -   )
[ INFO : 2022-06-16 12:01:18,398 ] - )
[ INFO : 2022-06-16 12:01:19,205 ] - start_epoch: 1
…
