…
[ INFO : 2022-06-16 12:16:55,850 ] - <== Data statistics ==>
[ INFO : 2022-06-16 12:16:55,851 ] - train data num: 1747308, spk num: 29501
[ INFO : 2022-06-16 12:16:55,860 ] - <== Dataloaders ==>
[ INFO : 2022-06-16 12:16:55,860 ] - train dataloaders created
[ INFO : 2022-06-16 12:16:55,861 ] - loader size: 2275
[ INFO : 2022-06-16 12:16:55,861 ] - <== Model ==>
[ INFO : 2022-06-16 12:16:55,921 ] - Load initial model from exp/ResNet101-TSTP-emb256-fbank80-num_frms200-aug0.6-spTrue-saFalse-ArcMargin-SGD-epoch150/models/model_45.pt
[ INFO : 2022-06-16 12:16:56,197 ] - ResNet(
[ INFO : 2022-06-16 12:16:56,198 ] -   (conv1): Conv2d(1, 32, kernel_size=(3, 3), stride=(1, 1), padding=(1, 1), bias=False)
[ INFO : 2022-06-16 12:16:56,198 ] -   (bn1): BatchNorm2d(32, eps=1e-05, momentum=0.1, affine=True, track_running_stats=True)
[ INFO : 2022-06-16 12:16:56,198 ] -   (layer1): Sequential(
[ INFO : 2022-06-16 12:16:56,198 ] -     (0): BasicBlock(
[ INFO : 2022-06-16 12:16:56,198 ] -       (conv1): Conv2d(32, 32, kernel_size=(3, 3), stride=(1, 1), padding=(1, 1), bias=False)
[ INFO : 2022-06-16 12:16:56,198 ] -       (bn1): BatchNorm2d(32, eps=1e-05, momentum=0.1, affine=True, track_running_stats=True)
[ INFO : 2022-06-16 12:16:56,198 ] -       (conv2): Conv2d(32, 32, kernel_size=(3, 3), stride=(1, 1), padding=(1, 1), bias=False)
[ INFO : 2022-06-16 12:16:56,198 ] -       (bn2): BatchNorm2d(32, eps=1e-05, momentum=0.1, affine=True, track_running_stats=True)
[ INFO : 2022-06-16 12:16:56,199 ] -       (shortcut): Sequential()
[ INFO : 2022-06-16 12:16:56,199 ] -     )
[ INFO : 2022-06-16 12:16:56,199 ] -     (1): BasicBlock(
[ INFO : 2022-06-16 12:16:56,199 ] -       (conv1): Conv2d(32, 32, kernel_size=(3, 3), stride=(1, 1), padding=(1, 1), bias=False)
[ INFO : 2022-06-16 12:16:56,199 ] -       (bn1): BatchNorm2d(32, eps=1e-05, momentum=0.1, affine=True, track_running_stats=True)
[ INFO : 2022-06-16 12:16:56,199 ] -       (conv2): Conv2d(32, 32, kernel_size=(3, 3), stride=(1, 1), padding=(1, 1), bias=False)
[ INFO : 2022-06-16 12:16:56,199 ] -       (bn2): BatchNorm2d(32, eps=1e-05, momentum=0.1, affine=True, track_running_stats=True)
[ INFO : 2022-06-16 12:16:56,199 ] -       (shortcut): Sequential()
[ INFO : 2022-06-16 12:16:56,200 ] -     )
[ INFO : 2022-06-16 12:16:56,200 ] -     (2): BasicBlock(
[ INFO : 2022-06-16 12:16:56,200 ] -       (conv1): Conv2d(32, 32, kernel_size=(3, 3), stride=(1, 1), padding=(1, 1), bias=False)
[ INFO : 2022-06-16 12:16:56,200 ] -       (bn1): BatchNorm2d(32, eps=1e-05, momentum=0.1, affine=True, track_running_stats=True)
[ INFO : 2022-06-16 12:16:56,200 ] -       (conv2): Conv2d(32, 32, kernel_size=(3, 3), stride=(1, 1), padding=(1, 1), bias=False)
[ INFO : 2022-06-16 12:16:56,200 ] -       (bn2): BatchNorm2d(32, eps=1e-05, momentum=0.1, affine=True, track_running_stats=True)
[ INFO : 2022-06-16 12:16:56,200 ] -       (shortcut): Sequential()
[ INFO : 2022-06-16 12:16:56,200 ] -     )
[ INFO : 2022-06-16 12:16:56,200 ] -   )
[ INFO : 2022-06-16 12:16:56,200 ] -   (layer2): Sequential(
[ INFO : 2022-06-16 12:16:56,201 ] -     (0): BasicBlock(
[ INFO : 2022-06-16 12:16:56,201 ] -       (conv1): Conv2d(32, 64, kernel_size=(3, 3), stride=(2, 2), padding=(1, 1), bias=False)
[ INFO : 2022-06-16 12:16:56,201 ] -       (bn1): BatchNorm2d(64, eps=1e-05, momentum=0.1, affine=True, track_running_stats=True)
[ INFO : 2022-06-16 12:16:56,201 ] -       (conv2): Conv2d(64, 64, kernel_size=(3, 3), stride=(1, 1), padding=(1, 1), bias=False)
[ INFO : 2022-06-16 12:16:56,201 ] -       (bn2): BatchNorm2d(64, eps=1e-05, momentum=0.1, affine=True, track_running_stats=True)
[ INFO : 2022-06-16 12:16:56,201 ] -       (shortcut): Sequential(
[ INFO : 2022-06-16 12:16:56,201 ] -         (0): Conv2d(32, 64, kernel_size=(1, 1), stride=(2, 2), bias=False)
[ INFO : 2022-06-16 12:16:56,201 ] -         (1): BatchNorm2d(64, eps=1e-05, momentum=0.1, affine=True, track_running_stats=True)
[ INFO : 2022-06-16 12:16:56,202 ] -       )
[ INFO : 2022-06-16 12:16:56,202 ] -     )
[ INFO : 2022-06-16 12:16:56,202 ] -     (1): BasicBlock(
[ INFO : 2022-06-16 12:16:56,202 ] -       (conv1): Conv2d(64, 64, kernel_size=(3, 3), stride=(1, 1), padding=(1, 1), bias=False)
[ INFO : 2022-06-16 12:16:56,202 ] -       (bn1): BatchNorm2d(64, eps=1e-05, momentum=0.1, affine=True, track_running_stats=True)
[ INFO : 2022-06-16 12:16:56,202 ] -       (conv2): Conv2d(64, 64, kernel_size=(3, 3), stride=(1, 1), padding=(1, 1), bias=False)
[ INFO : 2022-06-16 12:16:56,202 ] -       (bn2): BatchNorm2d(64, eps=1e-05, momentum=0.1, affine=True, track_running_stats=True)
[ INFO : 2022-06-16 12:16:56,202 ] -       (shortcut): Sequential()
[ INFO : 2022-06-16 12:16:56,202 ] -     )
[ INFO : 2022-06-16 12:16:56,203 ] -     (2): BasicBlock(
[ INFO : 2022-06-16 12:16:56,203 ] -       (conv1): Conv2d(64, 64, kernel_size=(3, 3), stride=(1, 1), padding=(1, 1), bias=False)
[ INFO : 2022-06-16 12:16:56,203 ] -       (bn1): BatchNorm2d(64, eps=1e-05, momentum=0.1, affine=True, track_running_stats=True)
[ INFO : 2022-06-16 12:16:56,203 ] -       (conv2): Conv2d(64, 64, kernel_size=(3, 3), stride=(1, 1), padding=(1, 1), bias=False)
[ INFO : 2022-06-16 12:16:56,203 ] -       (bn2): BatchNorm2d(64, eps=1e-05, momentum=0.1, affine=True, track_running_stats=True)
[ INFO : 2022-06-16 12:16:56,203 ] -       (shortcut): Sequential()
[ INFO : 2022-06-16 12:16:56,203 ] -     )
[ INFO : 2022-06-16 12:16:56,203 ] -     (3): BasicBlock(
[ INFO : 2022-06-16 12:16:56,203 ] -       (conv1): Conv2d(64, 64, kernel_size=(3, 3), stride=(1, 1), padding=(1, 1), bias=False)
[ INFO : 2022-06-16 12:16:56,203 ] -       (bn1): BatchNorm2d(64, eps=1e-05, momentum=0.1, affine=True, track_running_stats=True)
[ INFO : 2022-06-16 12:16:56,204 ] -       (conv2): Conv2d(64, 64, kernel_size=(3, 3), stride=(1, 1), padding=(1, 1), bias=False)
[ INFO : 2022-06-16 12:16:56,204 ] -       (bn2): BatchNorm2d(64, eps=1e-05, momentum=0.1, affine=True, track_running_stats=True)
[ INFO : 2022-06-16 12:16:56,204 ] -       (shortcut): Sequential()
[ INFO : 2022-06-16 12:16:56,204 ] -     )
[ INFO : 2022-06-16 12:16:56,204 ] -   )
[ INFO : 2022-06-16 12:16:56,204 ] -   (layer3): Sequential(
[ INFO : 2022-06-16 12:16:56,204 ] -     (0): BasicBlock(
[ INFO : 2022-06-16 12:16:56,204 ] -       (conv1): Conv2d(64, 128, kernel_size=(3, 3), stride=(2, 2), padding=(1, 1), bias=False)
[ INFO : 2022-06-16 12:16:56,204 ] -       (bn1): BatchNorm2d(128, eps=1e-05, momentum=0.1, affine=True, track_running_stats=True)
[ INFO : 2022-06-16 12:16:56,205 ] -       (conv2): Conv2d(128, 128, kernel_size=(3, 3), stride=(1, 1), padding=(1, 1), bias=False)
[ INFO : 2022-06-16 12:16:56,205 ] -       (bn2): BatchNorm2d(128, eps=1e-05, momentum=0.1, affine=True, track_running_stats=True)
[ INFO : 2022-06-16 12:16:56,205 ] -       (shortcut): Sequential(
[ INFO : 2022-06-16 12:16:56,205 ] -         (0): Conv2d(64, 128, kernel_size=(1, 1), stride=(2, 2), bias=False)
[ INFO : 2022-06-16 12:16:56,205 ] -         (1): BatchNorm2d(128, eps=1e-05, momentum=0.1, affine=True, track_running_stats=True)
[ INFO : 2022-06-16 12:16:56,205 ] -       )
[ INFO : 2022-06-16 12:16:56,205 ] -     )
[ INFO : 2022-06-16 12:16:56,205 ] -     (1): BasicBlock(
[ INFO : 2022-06-16 12:16:56,205 ] -       (conv1): Conv2d(128, 128, kernel_size=(3, 3), stride=(1, 1), padding=(1, 1), bias=False)
[ INFO : 2022-06-16 12:16:56,206 ] -       (bn1): BatchNorm2d(128, eps=1e-05, momentum=0.1, affine=True, track_running_stats=True)
[ INFO : 2022-06-16 12:16:56,206 ] -       (conv2): Conv2d(128, 128, kernel_size=(3, 3), stride=(1, 1), padding=(1, 1), bias=False)
[ INFO : 2022-06-16 12:16:56,206 ] -       (bn2): BatchNorm2d(128, eps=1e-05, momentum=0.1, affine=True, track_running_stats=True)
[ INFO : 2022-06-16 12:16:56,206 ] -       (shortcut): Sequential()
[ INFO : 2022-06-16 12:16:56,206 ] -     )
[ INFO : 2022-06-16 12:16:56,206 ] -     (2): BasicBlock(
[ INFO : 2022-06-16 12:16:56,206 ] -       (conv1): Conv2d(128, 128, kernel_size=(3, 3), stride=(1, 1), padding=(1, 1), bias=False)
[ INFO : 2022-06-16 12:16:56,206 ] -       (bn1): BatchNorm2d(128, eps=1e-05, momentum=0.1, affine=True, track_running_stats=True)
[ INFO : 2022-06-16 12:16:56,206 ] -       (conv2): Conv2d(128, 128, kernel_size=(3, 3), stride=(1, 1), padding=(1, 1), bias=False)
[ INFO : 2022-06-16 12:16:56,207 ] -       (bn2): BatchNorm2d(128, eps=1e-05, momentum=0.1, affine=True, track_running_stats=True)
[ INFO : 2022-06-16 12:16:56,207 ] -       (shortcut): Sequential()
[ INFO : 2022-06-16 12:16:56,207 ] -     )
[ INFO : 2022-06-16 12:16:56,207 ] -     (3): BasicBlock(
[ INFO : 2022-06-16 12:16:56,207 ] -       (conv1): Conv2d(128, 128, kernel_size=(3, 3), stride=(1, 1), padding=(1, 1), bias=False)
[ INFO : 2022-06-16 12:16:56,207 ] -       (bn1): BatchNorm2d(128, eps=1e-05, momentum=0.1, affine=True, track_running_stats=True)
[ INFO : 2022-06-16 12:16:56,207 ] -       (conv2): Conv2d(128, 128, kernel_size=(3, 3), stride=(1, 1), padding=(1, 1), bias=False)
[ INFO : 2022-06-16 12:16:56,207 ] -       (bn2): BatchNorm2d(128, eps=1e-05, momentum=0.1, affine=True, track_running_stats=True)
[ INFO : 2022-06-16 12:16:56,207 ] -       (shortcut): Sequential()
[ INFO : 2022-06-16 12:16:56,208 ] -     )
[ INFO : 2022-06-16 12:16:56,208 ] -     (4): BasicBlock(
[ INFO : 2022-06-16 12:16:56,208 ] -       (conv1): Conv2d(128, 128, kernel_size=(3, 3), stride=(1, 1), padding=(1, 1), bias=False)
[ INFO : 2022-06-16 12:16:56,208 ] -       (bn1): BatchNorm2d(128, eps=1e-05, momentum=0.1, affine=True, track_running_stats=True)
[ INFO : 2022-06-16 12:16:56,208 ] -       (conv2): Conv2d(128, 128, kernel_size=(3, 3), stride=(1, 1), padding=(1, 1), bias=False)
[ INFO : 2022-06-16 12:16:56,208 ] -       (bn2): BatchNorm2d(128, eps=1e-05, momentum=0.1, affine=True, track_running_stats=True)
[ INFO : 2022-06-16 12:16:56,208 ] -       (shortcut): Sequential()
[ INFO : 2022-06-16 12:16:56,208 ] -     )
[ INFO : 2022-06-16 12:16:56,208 ] -     (5): BasicBlock(
[ INFO : 2022-06-16 12:16:56,209 ] -       (conv1): Conv2d(128, 128, kernel_size=(3, 3), stride=(1, 1), padding=(1, 1), bias=False)
[ INFO : 2022-06-16 12:16:56,209 ] -       (bn1): BatchNorm2d(128, eps=1e-05, momentum=0.1, affine=True, track_running_stats=True)
[ INFO : 2022-06-16 12:16:56,209 ] -       (conv2): Conv2d(128, 128, kernel_size=(3, 3), stride=(1, 1), padding=(1, 1), bias=False)
[ INFO : 2022-06-16 12:16:56,209 ] -       (bn2): BatchNorm2d(128, eps=1e-05, momentum=0.1, affine=True, track_running_stats=True)
[ INFO : 2022-06-16 12:16:56,209 ] -       (shortcut): Sequential()
[ INFO : 2022-06-16 12:16:56,209 ] -     )
[ INFO : 2022-06-16 12:16:56,209 ] -   )
[ INFO : 2022-06-16 12:16:56,209 ] -   (layer4): Sequential(
[ INFO : 2022-06-16 12:16:56,209 ] -     (0): BasicBlock(
[ INFO : 2022-06-16 12:16:56,210 ] -       (conv1): Conv2d(128, 256, kernel_size=(3, 3), stride=(2, 2), padding=(1, 1), bias=False)
[ INFO : 2022-06-16 12:16:56,210 ] -       (bn1): BatchNorm2d(256, eps=1e-05, momentum=0.1, affine=True, track_running_stats=True)
[ INFO : 2022-06-16 12:16:56,210 ] -       (conv2): Conv2d(256, 256, kernel_size=(3, 3), stride=(1, 1), padding=(1, 1), bias=False)
[ INFO : 2022-06-16 12:16:56,210 ] -       (bn2): BatchNorm2d(256, eps=1e-05, momentum=0.1, affine=True, track_running_stats=True)
[ INFO : 2022-06-16 12:16:56,210 ] -       (shortcut): Sequential(
[ INFO : 2022-06-16 12:16:56,210 ] -         (0): Conv2d(128, 256, kernel_size=(1, 1), stride=(2, 2), bias=False)
[ INFO : 2022-06-16 12:16:56,210 ] -         (1): BatchNorm2d(256, eps=1e-05, momentum=0.1, affine=True, track_running_stats=True)
[ INFO : 2022-06-16 12:16:56,210 ] -       )
[ INFO : 2022-06-16 12:16:56,210 ] -     )
[ INFO : 2022-06-16 12:16:56,211 ] -     (1): BasicBlock(
[ INFO : 2022-06-16 12:16:56,211 ] -       (conv1): Conv2d(256, 256, kernel_size=(3, 3), stride=(1, 1), padding=(1, 1), bias=False)
[ INFO : 2022-06-16 12:16:56,211 ] -       (bn1): BatchNorm2d(256, eps=1e-05, momentum=0.1, affine=True, track_running_stats=True)
[ INFO : 2022-06-16 12:16:56,211 ] -       (conv2): Conv2d(256, 256, kernel_size=(3, 3), stride=(1, 1), padding=(1, 1), bias=False)
[ INFO : 2022-06-16 12:16:56,211 ] -       (bn2): BatchNorm2d(256, eps=1e-05, momentum=0.1, affine=True, track_running_stats=True)
[ INFO : 2022-06-16 12:16:56,211 ] -       (shortcut): Sequential()
[ INFO : 2022-06-16 12:16:56,211 ] -     )
[ INFO : 2022-06-16 12:16:56,211 ] -     (2): BasicBlock(
[ INFO : 2022-06-16 12:16:56,211 ] -       (conv1): Conv2d(256, 256, kernel_size=(3, 3), stride=(1, 1), padding=(1, 1), bias=False)
[ INFO : 2022-06-16 12:16:56,211 ] -       (bn1): BatchNorm2d(256, eps=1e-05, momentum=0.1, affine=True, track_running_stats=True)
[ INFO : 2022-06-16 12:16:56,212 ] -       (conv2): Conv2d(256, 256, kernel_size=(3, 3), stride=(1, 1), padding=(1, 1), bias=False)
[ INFO : 2022-06-16 12:16:56,212 ] -       (bn2): BatchNorm2d(256, eps=1e-05, momentum=0.1, affine=True, track_running_stats=True)
[ INFO : 2022-06-16 12:16:56,212 ] -       (shortcut): Sequential()
[ INFO : 2022-06-16 12:16:56,212 ] -     )
[ INFO : 2022-06-16 12:16:56,212 ] -   )
[ INFO : 2022-06-16 12:16:56,212 ] -   (pool): TSTP()
[ INFO : 2022-06-16 12:16:56,212 ] -   (seg_1): Linear(in_features=5120, out_features=256, bias=True)
[ INFO : 2022-06-16 12:16:56,212 ] -   (seg_bn_1): BatchNorm1d(256, eps=1e-05, momentum=0.1, affine=False, track_running_stats=True)
[ INFO : 2022-06-16 12:16:56,212 ] -   (seg_2): Linear(in_features=256, out_features=256, bias=True)
[ INFO : 2022-06-16 12:16:56,212 ] -   (projection): ArcMarginProduct(
[ INFO : 2022-06-16 12:16:56,213 ] -     in_features=256, out_features=88503, scale=32.0,
[ INFO : 2022-06-16 12:16:56,213 ] -                       margin=0.0, easy_margin=False
[ INFO : 2022-06-16 12:16:56,213 ] -   )
[ INFO : 2022-06-16 12:16:56,213 ] - )
[ INFO : 2022-06-16 12:16:57,014 ] - start_epoch: 1
…
