…
[ INFO : 2022-06-16 16:28:50,694 ] - train data num: 1747308, spk num: 29501
[ INFO : 2022-06-16 16:28:50,705 ] - <== Dataloaders ==>
[ INFO : 2022-06-16 16:28:50,705 ] - train dataloaders created
[ INFO : 2022-06-16 16:28:50,705 ] - loader size: 2275
[ INFO : 2022-06-16 16:28:50,705 ] - <== Model ==>
[ INFO : 2022-06-16 16:28:50,770 ] - Load initial model from exp/ResNet34-TSTP-emb256-fbank80-num_frms200-aug0.6-spTrue-saFalse-ArcMargin-SGD-epoch150/models/model_150.pt
[ INFO : 2022-06-16 16:28:50,835 ] - Dropping parameter projection.weight
[ INFO : 2022-06-16 16:28:51,049 ] - ResNet(
[ INFO : 2022-06-16 16:28:51,049 ] -   (conv1): Conv2d(1, 32, kernel_size=(3, 3), stride=(1, 1), padding=(1, 1), bias=False)
[ INFO : 2022-06-16 16:28:51,049 ] -   (bn1): BatchNorm2d(32, eps=1e-05, momentum=0.1, affine=True, track_running_stats=True)
[ INFO : 2022-06-16 16:28:51,049 ] -   (layer1): Sequential(
[ INFO : 2022-06-16 16:28:51,049 ] -     (0): BasicBlock(
[ INFO : 2022-06-16 16:28:51,049 ] -       (conv1): Conv2d(32, 32, kernel_size=(3, 3), stride=(1, 1), padding=(1, 1), bias=False)
[ INFO : 2022-06-16 16:28:51,049 ] -       (bn1): BatchNorm2d(32, eps=1e-05, momentum=0.1, affine=True, track_running_stats=True)
[ INFO : 2022-06-16 16:28:51,050 ] -       (conv2): Conv2d(32, 32, kernel_size=(3, 3), stride=(1, 1), padding=(1, 1), bias=False)
[ INFO : 2022-06-16 16:28:51,050 ] -       (bn2): BatchNorm2d(32, eps=1e-05, momentum=0.1, affine=True, track_running_stats=True)
[ INFO : 2022-06-16 16:28:51,050 ] -       (shortcut): Sequential()
[ INFO : 2022-06-16 16:28:51,050 ] -     )
[ INFO : 2022-06-16 16:28:51,050 ] -     (1): BasicBlock(
[ INFO : 2022-06-16 16:28:51,050 ] -       (conv1): Conv2d(32, 32, kernel_size=(3, 3), stride=(1, 1), padding=(1, 1), bias=False)
[ INFO : 2022-06-16 16:28:51,050 ] -       (bn1): BatchNorm2d(32, eps=1e-05, momentum=0.1, affine=True, track_running_stats=True)
[ INFO : 2022-06-16 16:28:51,050 ] -       (conv2): Conv2d(32, 32, kernel_size=(3, 3), stride=(1, 1), padding=(1, 1), bias=False)
[ INFO : 2022-06-16 16:28:51,050 ] -       (bn2): BatchNorm2d(32, eps=1e-05, momentum=0.1, affine=True, track_running_stats=True)
[ INFO : 2022-06-16 16:28:51,050 ] -       (shortcut): Sequential()
[ INFO : 2022-06-16 16:28:51,051 ] -     )
[ INFO : 2022-06-16 16:28:51,051 ] -     (2): BasicBlock(
[ INFO : 2022-06-16 16:28:51,051 ] -       (conv1): Conv2d(32, 32, kernel_size=(3, 3), stride=(1, 1), padding=(1, 1), bias=False)
[ INFO : 2022-06-16 16:28:51,051 ] -       (bn1): BatchNorm2d(32, eps=1e-05, momentum=0.1, affine=True, track_running_stats=True)
[ INFO : 2022-06-16 16:28:51,051 ] -       (conv2): Conv2d(32, 32, kernel_size=(3, 3), stride=(1, 1), padding=(1, 1), bias=False)
[ INFO : 2022-06-16 16:28:51,051 ] -       (bn2): BatchNorm2d(32, eps=1e-05, momentum=0.1, affine=True, track_running_stats=True)
[ INFO : 2022-06-16 16:28:51,051 ] -       (shortcut): Sequential()
[ INFO : 2022-06-16 16:28:51,051 ] -     )
[ INFO : 2022-06-16 16:28:51,051 ] -   )
[ INFO : 2022-06-16 16:28:51,052 ] -   (layer2): Sequential(
[ INFO : 2022-06-16 16:28:51,052 ] -     (0): BasicBlock(
[ INFO : 2022-06-16 16:28:51,052 ] -       (conv1): Conv2d(32, 64, kernel_size=(3, 3), stride=(2, 2), padding=(1, 1), bias=False)
[ INFO : 2022-06-16 16:28:51,052 ] -       (bn1): BatchNorm2d(64, eps=1e-05, momentum=0.1, affine=True, track_running_stats=True)
[ INFO : 2022-06-16 16:28:51,052 ] -       (conv2): Conv2d(64, 64, kernel_size=(3, 3), stride=(1, 1), padding=(1, 1), bias=False)
[ INFO : 2022-06-16 16:28:51,052 ] -       (bn2): BatchNorm2d(64, eps=1e-05, momentum=0.1, affine=True, track_running_stats=True)
[ INFO : 2022-06-16 16:28:51,052 ] -       (shortcut): Sequential(
[ INFO : 2022-06-16 16:28:51,052 ] -         (0): Conv2d(32, 64, kernel_size=(1, 1), stride=(2, 2), bias=False)
[ INFO : 2022-06-16 16:28:51,053 ] -         (1): BatchNorm2d(64, eps=1e-05, momentum=0.1, affine=True, track_running_stats=True)
[ INFO : 2022-06-16 16:28:51,053 ] -       )
[ INFO : 2022-06-16 16:28:51,053 ] -     )
[ INFO : 2022-06-16 16:28:51,053 ] -     (1): BasicBlock(
[ INFO : 2022-06-16 16:28:51,053 ] -       (conv1): Conv2d(64, 64, kernel_size=(3, 3), stride=(1, 1), padding=(1, 1), bias=False)
[ INFO : 2022-06-16 16:28:51,053 ] -       (bn1): BatchNorm2d(64, eps=1e-05, momentum=0.1, affine=True, track_running_stats=True)
[ INFO : 2022-06-16 16:28:51,053 ] -       (conv2): Conv2d(64, 64, kernel_size=(3, 3), stride=(1, 1), padding=(1, 1), bias=False)
[ INFO : 2022-06-16 16:28:51,053 ] -       (bn2): BatchNorm2d(64, eps=1e-05, momentum=0.1, affine=True, track_running_stats=True)
[ INFO : 2022-06-16 16:28:51,053 ] -       (shortcut): Sequential()
[ INFO : 2022-06-16 16:28:51,053 ] -     )
[ INFO : 2022-06-16 16:28:51,054 ] -     (2): BasicBlock(
[ INFO : 2022-06-16 16:28:51,054 ] -       (conv1): Conv2d(64, 64, kernel_size=(3, 3), stride=(1, 1), padding=(1, 1), bias=False)
[ INFO : 2022-06-16 16:28:51,054 ] -       (bn1): BatchNorm2d(64, eps=1e-05, momentum=0.1, affine=True, track_running_stats=True)
[ INFO : 2022-06-16 16:28:51,054 ] -       (conv2): Conv2d(64, 64, kernel_size=(3, 3), stride=(1, 1), padding=(1, 1), bias=False)
[ INFO : 2022-06-16 16:28:51,054 ] -       (bn2): BatchNorm2d(64, eps=1e-05, momentum=0.1, affine=True, track_running_stats=True)
[ INFO : 2022-06-16 16:28:51,054 ] -       (shortcut): Sequential()
[ INFO : 2022-06-16 16:28:51,054 ] -     )
[ INFO : 2022-06-16 16:28:51,054 ] -     (3): BasicBlock(
[ INFO : 2022-06-16 16:28:51,054 ] -       (conv1): Conv2d(64, 64, kernel_size=(3, 3), stride=(1, 1), padding=(1, 1), bias=False)
[ INFO : 2022-06-16 16:28:51,054 ] -       (bn1): BatchNorm2d(64, eps=1e-05, momentum=0.1, affine=True, track_running_stats=True)
[ INFO : 2022-06-16 16:28:51,055 ] -       (conv2): Conv2d(64, 64, kernel_size=(3, 3), stride=(1, 1), padding=(1, 1), bias=False)
[ INFO : 2022-06-16 16:28:51,055 ] -       (bn2): BatchNorm2d(64, eps=1e-05, momentum=0.1, affine=True, track_running_stats=True)
[ INFO : 2022-06-16 16:28:51,055 ] -       (shortcut): Sequential()
[ INFO : 2022-06-16 16:28:51,055 ] -     )
[ INFO : 2022-06-16 16:28:51,055 ] -   )
[ INFO : 2022-06-16 16:28:51,055 ] -   (layer3): Sequential(
[ INFO : 2022-06-16 16:28:51,055 ] -     (0): BasicBlock(
[ INFO : 2022-06-16 16:28:51,055 ] -       (conv1): Conv2d(64, 128, kernel_size=(3, 3), stride=(2, 2), padding=(1, 1), bias=False)
[ INFO : 2022-06-16 16:28:51,055 ] -       (bn1): BatchNorm2d(128, eps=1e-05, momentum=0.1, affine=True, track_running_stats=True)
[ INFO : 2022-06-16 16:28:51,055 ] -       (conv2): Conv2d(128, 128, kernel_size=(3, 3), stride=(1, 1), padding=(1, 1), bias=False)
[ INFO : 2022-06-16 16:28:51,056 ] -       (bn2): BatchNorm2d(128, eps=1e-05, momentum=0.1, affine=True, track_running_stats=True)
[ INFO : 2022-06-16 16:28:51,056 ] -       (shortcut): Sequential(
[ INFO : 2022-06-16 16:28:51,056 ] -         (0): Conv2d(64, 128, kernel_size=(1, 1), stride=(2, 2), bias=False)
[ INFO : 2022-06-16 16:28:51,056 ] -         (1): BatchNorm2d(128, eps=1e-05, momentum=0.1, affine=True, track_running_stats=True)
[ INFO : 2022-06-16 16:28:51,056 ] -       )
[ INFO : 2022-06-16 16:28:51,056 ] -     )
[ INFO : 2022-06-16 16:28:51,056 ] -     (1): BasicBlock(
[ INFO : 2022-06-16 16:28:51,057 ] -       (conv1): Conv2d(128, 128, kernel_size=(3, 3), stride=(1, 1), padding=(1, 1), bias=False)
[ INFO : 2022-06-16 16:28:51,057 ] -       (bn1): BatchNorm2d(128, eps=1e-05, momentum=0.1, affine=True, track_running_stats=True)
[ INFO : 2022-06-16 16:28:51,057 ] -       (conv2): Conv2d(128, 128, kernel_size=(3, 3), stride=(1, 1), padding=(1, 1), bias=False)
[ INFO : 2022-06-16 16:28:51,057 ] -       (bn2): BatchNorm2d(128, eps=1e-05, momentum=0.1, affine=True, track_running_stats=True)
[ INFO : 2022-06-16 16:28:51,057 ] -       (shortcut): Sequential()
[ INFO : 2022-06-16 16:28:51,057 ] -     )
[ INFO : 2022-06-16 16:28:51,057 ] -     (2): BasicBlock(
[ INFO : 2022-06-16 16:28:51,057 ] -       (conv1): Conv2d(128, 128, kernel_size=(3, 3), stride=(1, 1), padding=(1, 1), bias=False)
[ INFO : 2022-06-16 16:28:51,057 ] -       (bn1): BatchNorm2d(128, eps=1e-05, momentum=0.1, affine=True, track_running_stats=True)
[ INFO : 2022-06-16 16:28:51,057 ] -       (conv2): Conv2d(128, 128, kernel_size=(3, 3), stride=(1, 1), padding=(1, 1), bias=False)
[ INFO : 2022-06-16 16:28:51,058 ] -       (bn2): BatchNorm2d(128, eps=1e-05, momentum=0.1, affine=True, track_running_stats=True)
[ INFO : 2022-06-16 16:28:51,058 ] -       (shortcut): Sequential()
[ INFO : 2022-06-16 16:28:51,058 ] -     )
[ INFO : 2022-06-16 16:28:51,058 ] -     (3): BasicBlock(
[ INFO : 2022-06-16 16:28:51,058 ] -       (conv1): Conv2d(128, 128, kernel_size=(3, 3), stride=(1, 1), padding=(1, 1), bias=False)
[ INFO : 2022-06-16 16:28:51,058 ] -       (bn1): BatchNorm2d(128, eps=1e-05, momentum=0.1, affine=True, track_running_stats=True)
[ INFO : 2022-06-16 16:28:51,058 ] -       (conv2): Conv2d(128, 128, kernel_size=(3, 3), stride=(1, 1), padding=(1, 1), bias=False)
[ INFO : 2022-06-16 16:28:51,058 ] -       (bn2): BatchNorm2d(128, eps=1e-05, momentum=0.1, affine=True, track_running_stats=True)
[ INFO : 2022-06-16 16:28:51,058 ] -       (shortcut): Sequential()
[ INFO : 2022-06-16 16:28:51,059 ] -     )
[ INFO : 2022-06-16 16:28:51,059 ] -     (4): BasicBlock(
[ INFO : 2022-06-16 16:28:51,059 ] -       (conv1): Conv2d(128, 128, kernel_size=(3, 3), stride=(1, 1), padding=(1, 1), bias=False)
[ INFO : 2022-06-16 16:28:51,059 ] -       (bn1): BatchNorm2d(128, eps=1e-05, momentum=0.1, affine=True, track_running_stats=True)
[ INFO : 2022-06-16 16:28:51,059 ] -       (conv2): Conv2d(128, 128, kernel_size=(3, 3), stride=(1, 1), padding=(1, 1), bias=False)
[ INFO : 2022-06-16 16:28:51,059 ] -       (bn2): BatchNorm2d(128, eps=1e-05, momentum=0.1, affine=True, track_running_stats=True)
[ INFO : 2022-06-16 16:28:51,059 ] -       (shortcut): Sequential()
[ INFO : 2022-06-16 16:28:51,059 ] -     )
[ INFO : 2022-06-16 16:28:51,059 ] -     (5): BasicBlock(
[ INFO : 2022-06-16 16:28:51,059 ] -       (conv1): Conv2d(128, 128, kernel_size=(3, 3), stride=(1, 1), padding=(1, 1), bias=False)
[ INFO : 2022-06-16 16:28:51,060 ] -       (bn1): BatchNorm2d(128, eps=1e-05, momentum=0.1, affine=True, track_running_stats=True)
[ INFO : 2022-06-16 16:28:51,060 ] -       (conv2): Conv2d(128, 128, kernel_size=(3, 3), stride=(1, 1), padding=(1, 1), bias=False)
[ INFO : 2022-06-16 16:28:51,060 ] -       (bn2): BatchNorm2d(128, eps=1e-05, momentum=0.1, affine=True, track_running_stats=True)
[ INFO : 2022-06-16 16:28:51,060 ] -       (shortcut): Sequential()
[ INFO : 2022-06-16 16:28:51,060 ] -     )
[ INFO : 2022-06-16 16:28:51,060 ] -   )
[ INFO : 2022-06-16 16:28:51,060 ] -   (layer4): Sequential(
[ INFO : 2022-06-16 16:28:51,060 ] -     (0): BasicBlock(
[ INFO : 2022-06-16 16:28:51,060 ] -       (conv1): Conv2d(128, 256, kernel_size=(3, 3), stride=(2, 2), padding=(1, 1), bias=False)
[ INFO : 2022-06-16 16:28:51,060 ] -       (bn1): BatchNorm2d(256, eps=1e-05, momentum=0.1, affine=True, track_running_stats=True)
[ INFO : 2022-06-16 16:28:51,060 ] -       (conv2): Conv2d(256, 256, kernel_size=(3, 3), stride=(1, 1), padding=(1, 1), bias=False)
[ INFO : 2022-06-16 16:28:51,061 ] -       (bn2): BatchNorm2d(256, eps=1e-05, momentum=0.1, affine=True, track_running_stats=True)
[ INFO : 2022-06-16 16:28:51,061 ] -       (shortcut): Sequential(
[ INFO : 2022-06-16 16:28:51,061 ] -         (0): Conv2d(128, 256, kernel_size=(1, 1), stride=(2, 2), bias=False)
[ INFO : 2022-06-16 16:28:51,061 ] -         (1): BatchNorm2d(256, eps=1e-05, momentum=0.1, affine=True, track_running_stats=True)
[ INFO : 2022-06-16 16:28:51,061 ] -       )
[ INFO : 2022-06-16 16:28:51,061 ] -     )
[ INFO : 2022-06-16 16:28:51,061 ] -     (1): BasicBlock(
[ INFO : 2022-06-16 16:28:51,061 ] -       (conv1): Conv2d(256, 256, kernel_size=(3, 3), stride=(1, 1), padding=(1, 1), bias=False)
[ INFO : 2022-06-16 16:28:51,061 ] -       (bn1): BatchNorm2d(256, eps=1e-05, momentum=0.1, affine=True, track_running_stats=True)
[ INFO : 2022-06-16 16:28:51,061 ] -       (conv2): Conv2d(256, 256, kernel_size=(3, 3), stride=(1, 1), padding=(1, 1), bias=False)
[ INFO : 2022-06-16 16:28:51,062 ] -       (bn2): BatchNorm2d(256, eps=1e-05, momentum=0.1, affine=True, track_running_stats=True)
[ INFO : 2022-06-16 16:28:51,062 ] -       (shortcut): Sequential()
[ INFO : 2022-06-16 16:28:51,062 ] -     )
[ INFO : 2022-06-16 16:28:51,062 ] -     (2): BasicBlock(
[ INFO : 2022-06-16 16:28:51,062 ] -       (conv1): Conv2d(256, 256, kernel_size=(3, 3), stride=(1, 1), padding=(1, 1), bias=False)
[ INFO : 2022-06-16 16:28:51,062 ] -       (bn1): BatchNorm2d(256, eps=1e-05, momentum=0.1, affine=True, track_running_stats=True)
[ INFO : 2022-06-16 16:28:51,062 ] -       (conv2): Conv2d(256, 256, kernel_size=(3, 3), stride=(1, 1), padding=(1, 1), bias=False)
[ INFO : 2022-06-16 16:28:51,062 ] -       (bn2): BatchNorm2d(256, eps=1e-05, momentum=0.1, affine=True, track_running_stats=True)
[ INFO : 2022-06-16 16:28:51,062 ] -       (shortcut): Sequential()
[ INFO : 2022-06-16 16:28:51,063 ] -     )
[ INFO : 2022-06-16 16:28:51,063 ] -   )
[ INFO : 2022-06-16 16:28:51,063 ] -   (pool): TSTP()
[ INFO : 2022-06-16 16:28:51,063 ] -   (seg_1): Linear(in_features=5120, out_features=256, bias=True)
[ INFO : 2022-06-16 16:28:51,063 ] -   (seg_bn_1): BatchNorm1d(256, eps=1e-05, momentum=0.1, affine=False, track_running_stats=True)
[ INFO : 2022-06-16 16:28:51,063 ] -   (seg_2): Linear(in_features=256, out_features=256, bias=True)
[ INFO : 2022-06-16 16:28:51,063 ] -   (projection): ArcMarginProduct(
[ INFO : 2022-06-16 16:28:51,063 ] -     in_features=256, out_features=88503, scale=32.0,
[ INFO : 2022-06-16 16:28:51,063 ] -                       margin=0.0, easy_margin=False
[ INFO : 2022-06-16 16:28:51,063 ] -   )
[ INFO : 2022-06-16 16:28:51,063 ] - )
[ INFO : 2022-06-16 16:28:51,897 ] - start_epoch: 1
…
