…
[ INFO : 2022-06-16 12:24:19,886 ] - <== Data statistics ==>
[ INFO : 2022-06-16 12:24:19,886 ] - train data num: 1747308, spk num: 29501
[ INFO : 2022-06-16 12:24:19,896 ] - <== Dataloaders ==>
[ INFO : 2022-06-16 12:24:19,896 ] - train dataloaders created
[ INFO : 2022-06-16 12:24:19,896 ] - loader size: 2275
[ INFO : 2022-06-16 12:24:19,896 ] - <== Model ==>
[ INFO : 2022-06-16 12:24:19,959 ] - Load initial model from exp/ResNet101-TSTP-emb256-fbank80-num_frms200-aug0.6-spTrue-saFalse-ArcMargin-SGD-epoch150/models/model_45.pt
[ INFO : 2022-06-16 12:24:20,236 ] - ResNet(
[ INFO : 2022-06-16 12:24:20,236 ] -   (conv1): Conv2d(1, 32, kernel_size=(3, 3), stride=(1, 1), padding=(1, 1), bias=False)
[ INFO : 2022-06-16 12:24:20,236 ] -   (bn1): BatchNorm2d(32, eps=1e-05, momentum=0.1, affine=True, track_running_stats=True)
[ INFO : 2022-06-16 12:24:20,236 ] -   (layer1): Sequential(
[ INFO : 2022-06-16 12:24:20,237 ] -     (0): BasicBlock(
[ INFO : 2022-06-16 12:24:20,237 ] -       (conv1): Conv2d(32, 32, kernel_size=(3, 3), stride=(1, 1), padding=(1, 1), bias=False)
[ INFO : 2022-06-16 12:24:20,237 ] -       (bn1): BatchNorm2d(32, eps=1e-05, momentum=0.1, affine=True, track_running_stats=True)
[ INFO : 2022-06-16 12:24:20,237 ] -       (conv2): Conv2d(32, 32, kernel_size=(3, 3), stride=(1, 1), padding=(1, 1), bias=False)
[ INFO : 2022-06-16 12:24:20,237 ] -       (bn2): BatchNorm2d(32, eps=1e-05, momentum=0.1, affine=True, track_running_stats=True)
[ INFO : 2022-06-16 12:24:20,237 ] -       (shortcut): Sequential()
[ INFO : 2022-06-16 12:24:20,237 ] -     )
[ INFO : 2022-06-16 12:24:20,237 ] -     (1): BasicBlock(
[ INFO : 2022-06-16 12:24:20,237 ] -       (conv1): Conv2d(32, 32, kernel_size=(3, 3), stride=(1, 1), padding=(1, 1), bias=False)
[ INFO : 2022-06-16 12:24:20,237 ] -       (bn1): BatchNorm2d(32, eps=1e-05, momentum=0.1, affine=True, track_running_stats=True)
[ INFO : 2022-06-16 12:24:20,237 ] -       (conv2): Conv2d(32, 32, kernel_size=(3, 3), stride=(1, 1), padding=(1, 1), bias=False)
[ INFO : 2022-06-16 12:24:20,237 ] -       (bn2): BatchNorm2d(32, eps=1e-05, momentum=0.1, affine=True, track_running_stats=True)
[ INFO : 2022-06-16 12:24:20,238 ] -       (shortcut): Sequential()
[ INFO : 2022-06-16 12:24:20,238 ] -     )
[ INFO : 2022-06-16 12:24:20,238 ] -     (2): BasicBlock(
[ INFO : 2022-06-16 12:24:20,238 ] -       (conv1): Conv2d(32, 32, kernel_size=(3, 3), stride=(1, 1), padding=(1, 1), bias=False)
[ INFO : 2022-06-16 12:24:20,238 ] -       (bn1): BatchNorm2d(32, eps=1e-05, momentum=0.1, affine=True, track_running_stats=True)
[ INFO : 2022-06-16 12:24:20,238 ] -       (conv2): Conv2d(32, 32, kernel_size=(3, 3), stride=(1, 1), padding=(1, 1), bias=False)
[ INFO : 2022-06-16 12:24:20,238 ] -       (bn2): BatchNorm2d(32, eps=1e-05, momentum=0.1, affine=True, track_running_stats=True)
[ INFO : 2022-06-16 12:24:20,238 ] -       (shortcut): Sequential()
[ INFO : 2022-06-16 12:24:20,238 ] -     )
[ INFO : 2022-06-16 12:24:20,238 ] -   )
[ INFO : 2022-06-16 12:24:20,238 ] -   (layer2): Sequential(
[ INFO : 2022-06-16 12:24:20,238 ] -     (0): BasicBlock(
[ INFO : 2022-06-16 12:24:20,238 ] -       (conv1): Conv2d(32, 64, kernel_size=(3, 3), stride=(2, 2), padding=(1, 1), bias=False)
[ INFO : 2022-06-16 12:24:20,239 ] -       (bn1): BatchNorm2d(64, eps=1e-05, momentum=0.1, affine=True, track_running_stats=True)
[ INFO : 2022-06-16 12:24:20,239 ] -       (conv2): Conv2d(64, 64, kernel_size=(3, 3), stride=(1, 1), padding=(1, 1), bias=False)
[ INFO : 2022-06-16 12:24:20,239 ] -       (bn2): BatchNorm2d(64, eps=1e-05, momentum=0.1, affine=True, track_running_stats=True)
[ INFO : 2022-06-16 12:24:20,239 ] -       (shortcut): Sequential(
[ INFO : 2022-06-16 12:24:20,239 ] -         (0): Conv2d(32, 64, kernel_size=(1, 1), stride=(2, 2), bias=False)
[ INFO : 2022-06-16 12:24:20,239 ] -         (1): BatchNorm2d(64, eps=1e-05, momentum=0.1, affine=True, track_running_stats=True)
[ INFO : 2022-06-16 12:24:20,239 ] -       )
[ INFO : 2022-06-16 12:24:20,239 ] -     )
[ INFO : 2022-06-16 12:24:20,239 ] -     (1): BasicBlock(
[ INFO : 2022-06-16 12:24:20,239 ] -       (conv1): Conv2d(64, 64, kernel_size=(3, 3), stride=(1, 1), padding=(1, 1), bias=False)
[ INFO : 2022-06-16 12:24:20,239 ] -       (bn1): BatchNorm2d(64, eps=1e-05, momentum=0.1, affine=True, track_running_stats=True)
[ INFO : 2022-06-16 12:24:20,239 ] -       (conv2): Conv2d(64, 64, kernel_size=(3, 3), stride=(1, 1), padding=(1, 1), bias=False)
[ INFO : 2022-06-16 12:24:20,239 ] -       (bn2): BatchNorm2d(64, eps=1e-05, momentum=0.1, affine=True, track_running_stats=True)
[ INFO : 2022-06-16 12:24:20,240 ] -       (shortcut): Sequential()
[ INFO : 2022-06-16 12:24:20,240 ] -     )
[ INFO : 2022-06-16 12:24:20,240 ] -     (2): BasicBlock(
[ INFO : 2022-06-16 12:24:20,240 ] -       (conv1): Conv2d(64, 64, kernel_size=(3, 3), stride=(1, 1), padding=(1, 1), bias=False)
[ INFO : 2022-06-16 12:24:20,240 ] -       (bn1): BatchNorm2d(64, eps=1e-05, momentum=0.1, affine=True, track_running_stats=True)
[ INFO : 2022-06-16 12:24:20,240 ] -       (conv2): Conv2d(64, 64, kernel_size=(3, 3), stride=(1, 1), padding=(1, 1), bias=False)
[ INFO : 2022-06-16 12:24:20,240 ] -       (bn2): BatchNorm2d(64, eps=1e-05, momentum=0.1, affine=True, track_running_stats=True)
[ INFO : 2022-06-16 12:24:20,240 ] -       (shortcut): Sequential()
[ INFO : 2022-06-16 12:24:20,240 ] -     )
[ INFO : 2022-06-16 12:24:20,240 ] -     (3): BasicBlock(
[ INFO : 2022-06-16 12:24:20,240 ] -       (conv1): Conv2d(64, 64, kernel_size=(3, 3), stride=(1, 1), padding=(1, 1), bias=False)
[ INFO : 2022-06-16 12:24:20,241 ] -       (bn1): BatchNorm2d(64, eps=1e-05, momentum=0.1, affine=True, track_running_stats=True)
[ INFO : 2022-06-16 12:24:20,241 ] -       (conv2): Conv2d(64, 64, kernel_size=(3, 3), stride=(1, 1), padding=(1, 1), bias=False)
[ INFO : 2022-06-16 12:24:20,241 ] -       (bn2): BatchNorm2d(64, eps=1e-05, momentum=0.1, affine=True, track_running_stats=True)
[ INFO : 2022-06-16 12:24:20,241 ] -       (shortcut): Sequential()
[ INFO : 2022-06-16 12:24:20,241 ] -     )
[ INFO : 2022-06-16 12:24:20,241 ] -   )
[ INFO : 2022-06-16 12:24:20,241 ] -   (layer3): Sequential(
[ INFO : 2022-06-16 12:24:20,241 ] -     (0): BasicBlock(
[ INFO : 2022-06-16 12:24:20,241 ] -       (conv1): Conv2d(64, 128, kernel_size=(3, 3), stride=(2, 2), padding=(1, 1), bias=False)
[ INFO : 2022-06-16 12:24:20,241 ] -       (bn1): BatchNorm2d(128, eps=1e-05, momentum=0.1, affine=True, track_running_stats=True)
[ INFO : 2022-06-16 12:24:20,241 ] -       (conv2): Conv2d(128, 128, kernel_size=(3, 3), stride=(1, 1), padding=(1, 1), bias=False)
[ INFO : 2022-06-16 12:24:20,241 ] -       (bn2): BatchNorm2d(128, eps=1e-05, momentum=0.1, affine=True, track_running_stats=True)
[ INFO : 2022-06-16 12:24:20,242 ] -       (shortcut): Sequential(
[ INFO : 2022-06-16 12:24:20,242 ] -         (0): Conv2d(64, 128, kernel_size=(1, 1), stride=(2, 2), bias=False)
[ INFO : 2022-06-16 12:24:20,242 ] -         (1): BatchNorm2d(128, eps=1e-05, momentum=0.1, affine=True, track_running_stats=True)
[ INFO : 2022-06-16 12:24:20,242 ] -       )
[ INFO : 2022-06-16 12:24:20,242 ] -     )
[ INFO : 2022-06-16 12:24:20,242 ] -     (1): BasicBlock(
[ INFO : 2022-06-16 12:24:20,242 ] -       (conv1): Conv2d(128, 128, kernel_size=(3, 3), stride=(1, 1), padding=(1, 1), bias=False)
[ INFO : 2022-06-16 12:24:20,242 ] -       (bn1): BatchNorm2d(128, eps=1e-05, momentum=0.1, affine=True, track_running_stats=True)
[ INFO : 2022-06-16 12:24:20,242 ] -       (conv2): Conv2d(128, 128, kernel_size=(3, 3), stride=(1, 1), padding=(1, 1), bias=False)
[ INFO : 2022-06-16 12:24:20,242 ] -       (bn2): BatchNorm2d(128, eps=1e-05, momentum=0.1, affine=True, track_running_stats=True)
[ INFO : 2022-06-16 12:24:20,242 ] -       (shortcut): Sequential()
[ INFO : 2022-06-16 12:24:20,242 ] -     )
[ INFO : 2022-06-16 12:24:20,242 ] -     (2): BasicBlock(
[ INFO : 2022-06-16 12:24:20,243 ] -       (conv1): Conv2d(128, 128, kernel_size=(3, 3), stride=(1, 1), padding=(1, 1), bias=False)
[ INFO : 2022-06-16 12:24:20,243 ] -       (bn1): BatchNorm2d(128, eps=1e-05, momentum=0.1, affine=True, track_running_stats=True)
[ INFO : 2022-06-16 12:24:20,243 ] -       (conv2): Conv2d(128, 128, kernel_size=(3, 3), stride=(1, 1), padding=(1, 1), bias=False)
[ INFO : 2022-06-16 12:24:20,243 ] -       (bn2): BatchNorm2d(128, eps=1e-05, momentum=0.1, affine=True, track_running_stats=True)
[ INFO : 2022-06-16 12:24:20,243 ] -       (shortcut): Sequential()
[ INFO : 2022-06-16 12:24:20,243 ] -     )
[ INFO : 2022-06-16 12:24:20,243 ] -     (3): BasicBlock(
[ INFO : 2022-06-16 12:24:20,243 ] -       (conv1): Conv2d(128, 128, kernel_size=(3, 3), stride=(1, 1), padding=(1, 1), bias=False)
[ INFO : 2022-06-16 12:24:20,243 ] -       (bn1): BatchNorm2d(128, eps=1e-05, momentum=0.1, affine=True, track_running_stats=True)
[ INFO : 2022-06-16 12:24:20,243 ] -       (conv2): Conv2d(128, 128, kernel_size=(3, 3), stride=(1, 1), padding=(1, 1), bias=False)
[ INFO : 2022-06-16 12:24:20,243 ] -       (bn2): BatchNorm2d(128, eps=1e-05, momentum=0.1, affine=True, track_running_stats=True)
[ INFO : 2022-06-16 12:24:20,243 ] -       (shortcut): Sequential()
[ INFO : 2022-06-16 12:24:20,244 ] -     )
[ INFO : 2022-06-16 12:24:20,244 ] -     (4): BasicBlock(
[ INFO : 2022-06-16 12:24:20,244 ] -       (conv1): Conv2d(128, 128, kernel_size=(3, 3), stride=(1, 1), padding=(1, 1), bias=False)
[ INFO : 2022-06-16 12:24:20,244 ] -       (bn1): BatchNorm2d(128, eps=1e-05, momentum=0.1, affine=True, track_running_stats=True)
[ INFO : 2022-06-16 12:24:20,244 ] -       (conv2): Conv2d(128, 128, kernel_size=(3, 3), stride=(1, 1), padding=(1, 1), bias=False)
[ INFO : 2022-06-16 12:24:20,244 ] -       (bn2): BatchNorm2d(128, eps=1e-05, momentum=0.1, affine=True, track_running_stats=True)
[ INFO : 2022-06-16 12:24:20,244 ] -       (shortcut): Sequential()
[ INFO : 2022-06-16 12:24:20,244 ] -     )
[ INFO : 2022-06-16 12:24:20,244 ] -     (5): BasicBlock(
[ INFO : 2022-06-16 12:24:20,244 ] -       (conv1): Conv2d(128, 128, kernel_size=(3, 3), stride=(1, 1), padding=(1, 1), bias=False)
[ INFO : 2022-06-16 12:24:20,244 ] -       (bn1): BatchNorm2d(128, eps=1e-05, momentum=0.1, affine=True, track_running_stats=True)
[ INFO : 2022-06-16 12:24:20,244 ] -       (conv2): Conv2d(128, 128, kernel_size=(3, 3), stride=(1, 1), padding=(1, 1), bias=False)
[ INFO : 2022-06-16 12:24:20,245 ] -       (bn2): BatchNorm2d(128, eps=1e-05, momentum=0.1, affine=True, track_running_stats=True)
[ INFO : 2022-06-16 12:24:20,245 ] -       (shortcut): Sequential()
[ INFO : 2022-06-16 12:24:20,245 ] -     )
[ INFO : 2022-06-16 12:24:20,245 ] -   )
[ INFO : 2022-06-16 12:24:20,245 ] -   (layer4): Sequential(
[ INFO : 2022-06-16 12:24:20,245 ] -     (0): BasicBlock(
[ INFO : 2022-06-16 12:24:20,245 ] -       (conv1): Conv2d(128, 256, kernel_size=(3, 3), stride=(2, 2), padding=(1, 1), bias=False)
[ INFO : 2022-06-16 12:24:20,245 ] -       (bn1): BatchNorm2d(256, eps=1e-05, momentum=0.1, affine=True, track_running_stats=True)
[ INFO : 2022-06-16 12:24:20,245 ] -       (conv2): Conv2d(256, 256, kernel_size=(3, 3), stride=(1, 1), padding=(1, 1), bias=False)
[ INFO : 2022-06-16 12:24:20,245 ] -       (bn2): BatchNorm2d(256, eps=1e-05, momentum=0.1, affine=True, track_running_stats=True)
[ INFO : 2022-06-16 12:24:20,245 ] -       (shortcut): Sequential(
[ INFO : 2022-06-16 12:24:20,245 ] -         (0): Conv2d(128, 256, kernel_size=(1, 1), stride=(2, 2), bias=False)
[ INFO : 2022-06-16 12:24:20,245 ] -         (1): BatchNorm2d(256, eps=1e-05, momentum=0.1, affine=True, track_running_stats=True)
[ INFO : 2022-06-16 12:24:20,246 ] -       )
[ INFO : 2022-06-16 12:24:20,246 ] -     )
[ INFO : 2022-06-16 12:24:20,246 ] -     (1): BasicBlock(
[ INFO : 2022-06-16 12:24:20,246 ] -       (conv1): Conv2d(256, 256, kernel_size=(3, 3), stride=(1, 1), padding=(1, 1), bias=False)
[ INFO : 2022-06-16 12:24:20,246 ] -       (bn1): BatchNorm2d(256, eps=1e-05, momentum=0.1, affine=True, track_running_stats=True)
[ INFO : 2022-06-16 12:24:20,246 ] -       (conv2): Conv2d(256, 256, kernel_size=(3, 3), stride=(1, 1), padding=(1, 1), bias=False)
[ INFO : 2022-06-16 12:24:20,246 ] -       (bn2): BatchNorm2d(256, eps=1e-05, momentum=0.1, affine=True, track_running_stats=True)
[ INFO : 2022-06-16 12:24:20,246 ] -       (shortcut): Sequential()
[ INFO : 2022-06-16 12:24:20,246 ] -     )
[ INFO : 2022-06-16 12:24:20,246 ] -     (2): BasicBlock(
[ INFO : 2022-06-16 12:24:20,246 ] -       (conv1): Conv2d(256, 256, kernel_size=(3, 3), stride=(1, 1), padding=(1, 1), bias=False)
[ INFO : 2022-06-16 12:24:20,246 ] -       (bn1): BatchNorm2d(256, eps=1e-05, momentum=0.1, affine=True, track_running_stats=True)
[ INFO : 2022-06-16 12:24:20,247 ] -       (conv2): Conv2d(256, 256, kernel_size=(3, 3), stride=(1, 1), padding=(1, 1), bias=False)
[ INFO : 2022-06-16 12:24:20,247 ] -       (bn2): BatchNorm2d(256, eps=1e-05, momentum=0.1, affine=True, track_running_stats=True)
[ INFO : 2022-06-16 12:24:20,247 ] -       (shortcut): Sequential()
[ INFO : 2022-06-16 12:24:20,247 ] -     )
[ INFO : 2022-06-16 12:24:20,247 ] -   )
[ INFO : 2022-06-16 12:24:20,247 ] -   (pool): TSTP()
[ INFO : 2022-06-16 12:24:20,247 ] -   (seg_1): Linear(in_features=5120, out_features=256, bias=True)
[ INFO : 2022-06-16 12:24:20,247 ] -   (seg_bn_1): BatchNorm1d(256, eps=1e-05, momentum=0.1, affine=False, track_running_stats=True)
[ INFO : 2022-06-16 12:24:20,247 ] -   (seg_2): Linear(in_features=256, out_features=256, bias=True)
[ INFO : 2022-06-16 12:24:20,247 ] -   (projection): ArcMarginProduct(
[ INFO : 2022-06-16 12:24:20,247 ] -     in_features=256, out_features=88503, scale=32.0,
[ INFO : 2022-06-16 12:24:20,247 ] -                       margin=0.0, easy_margin=False
[ INFO : 2022-06-16 12:24:20,248 ] -   )
[ INFO : 2022-06-16 12:24:20,248 ] - )
[ INFO : 2022-06-16 12:24:21,058 ] - start_epoch: 1
…
