…
[ INFO : 2022-06-08 16:54:59,669 ] - <== Data statistics ==>
[ INFO : 2022-06-08 16:54:59,669 ] - train data num: 1092009, spk num: 5994
[ INFO : 2022-06-08 16:54:59,679 ] - <== Dataloaders ==>
[ INFO : 2022-06-08 16:54:59,679 ] - train dataloaders created
[ INFO : 2022-06-08 16:54:59,679 ] - loader size: 2132
[ INFO : 2022-06-08 16:54:59,679 ] - <== Model ==>
[ INFO : 2022-06-08 16:54:59,739 ] - Load initial model from exp/ResNet101-TSTP-emb256-fbank80-num_frms200-aug0.6-spTrue-saFalse-ArcMargin-SGD-epoch150/models/model_45.pt
[ INFO : 2022-06-08 16:54:59,846 ] - ResNet(
[ INFO : 2022-06-08 16:54:59,846 ] -   (conv1): Conv2d(1, 32, kernel_size=(3, 3), stride=(1, 1), padding=(1, 1), bias=False)
[ INFO : 2022-06-08 16:54:59,846 ] -   (bn1): BatchNorm2d(32, eps=1e-05, momentum=0.1, affine=True, track_running_stats=True)
[ INFO : 2022-06-08 16:54:59,846 ] -   (layer1): Sequential(
[ INFO : 2022-06-08 16:54:59,846 ] -     (0): BasicBlock(
[ INFO : 2022-06-08 16:54:59,846 ] -       (conv1): Conv2d(32, 32, kernel_size=(3, 3), stride=(1, 1), padding=(1, 1), bias=False)
[ INFO : 2022-06-08 16:54:59,846 ] -       (bn1): BatchNorm2d(32, eps=1e-05, momentum=0.1, affine=True, track_running_stats=True)
[ INFO : 2022-06-08 16:54:59,846 ] -       (conv2): Conv2d(32, 32, kernel_size=(3, 3), stride=(1, 1), padding=(1, 1), bias=False)
[ INFO : 2022-06-08 16:54:59,846 ] -       (bn2): BatchNorm2d(32, eps=1e-05, momentum=0.1, affine=True, track_running_stats=True)
[ INFO : 2022-06-08 16:54:59,846 ] -       (shortcut): Sequential()
[ INFO : 2022-06-08 16:54:59,846 ] -     )
[ INFO : 2022-06-08 16:54:59,847 ] -     (1): BasicBlock(
[ INFO : 2022-06-08 16:54:59,847 ] -       (conv1): Conv2d(32, 32, kernel_size=(3, 3), stride=(1, 1), padding=(1, 1), bias=False)
[ INFO : 2022-06-08 16:54:59,847 ] -       (bn1): BatchNorm2d(32, eps=1e-05, momentum=0.1, affine=True, track_running_stats=True)
[ INFO : 2022-06-08 16:54:59,847 ] -       (conv2): Conv2d(32, 32, kernel_size=(3, 3), stride=(1, 1), padding=(1, 1), bias=False)
[ INFO : 2022-06-08 16:54:59,847 ] -       (bn2): BatchNorm2d(32, eps=1e-05, momentum=0.1, affine=True, track_running_stats=True)
[ INFO : 2022-06-08 16:54:59,847 ] -       (shortcut): Sequential()
[ INFO : 2022-06-08 16:54:59,847 ] -     )
[ INFO : 2022-06-08 16:54:59,847 ] -     (2): BasicBlock(
[ INFO : 2022-06-08 16:54:59,847 ] -       (conv1): Conv2d(32, 32, kernel_size=(3, 3), stride=(1, 1), padding=(1, 1), bias=False)
[ INFO : 2022-06-08 16:54:59,847 ] -       (bn1): BatchNorm2d(32, eps=1e-05, momentum=0.1, affine=True, track_running_stats=True)
[ INFO : 2022-06-08 16:54:59,847 ] -       (conv2): Conv2d(32, 32, kernel_size=(3, 3), stride=(1, 1), padding=(1, 1), bias=False)
[ INFO : 2022-06-08 16:54:59,847 ] -       (bn2): BatchNorm2d(32, eps=1e-05, momentum=0.1, affine=True, track_running_stats=True)
[ INFO : 2022-06-08 16:54:59,848 ] -       (shortcut): Sequential()
[ INFO : 2022-06-08 16:54:59,848 ] -     )
[ INFO : 2022-06-08 16:54:59,848 ] -   )
[ INFO : 2022-06-08 16:54:59,848 ] -   (layer2): Sequential(
[ INFO : 2022-06-08 16:54:59,848 ] -     (0): BasicBlock(
[ INFO : 2022-06-08 16:54:59,848 ] -       (conv1): Conv2d(32, 64, kernel_size=(3, 3), stride=(2, 2), padding=(1, 1), bias=False)
[ INFO : 2022-06-08 16:54:59,848 ] -       (bn1): BatchNorm2d(64, eps=1e-05, momentum=0.1, affine=True, track_running_stats=True)
[ INFO : 2022-06-08 16:54:59,848 ] -       (conv2): Conv2d(64, 64, kernel_size=(3, 3), stride=(1, 1), padding=(1, 1), bias=False)
[ INFO : 2022-06-08 16:54:59,848 ] -       (bn2): BatchNorm2d(64, eps=1e-05, momentum=0.1, affine=True, track_running_stats=True)
[ INFO : 2022-06-08 16:54:59,848 ] -       (shortcut): Sequential(
[ INFO : 2022-06-08 16:54:59,848 ] -         (0): Conv2d(32, 64, kernel_size=(1, 1), stride=(2, 2), bias=False)
[ INFO : 2022-06-08 16:54:59,849 ] -         (1): BatchNorm2d(64, eps=1e-05, momentum=0.1, affine=True, track_running_stats=True)
[ INFO : 2022-06-08 16:54:59,849 ] -       )
[ INFO : 2022-06-08 16:54:59,849 ] -     )
[ INFO : 2022-06-08 16:54:59,849 ] -     (1): BasicBlock(
[ INFO : 2022-06-08 16:54:59,849 ] -       (conv1): Conv2d(64, 64, kernel_size=(3, 3), stride=(1, 1), padding=(1, 1), bias=False)
[ INFO : 2022-06-08 16:54:59,849 ] -       (bn1): BatchNorm2d(64, eps=1e-05, momentum=0.1, affine=True, track_running_stats=True)
[ INFO : 2022-06-08 16:54:59,849 ] -       (conv2): Conv2d(64, 64, kernel_size=(3, 3), stride=(1, 1), padding=(1, 1), bias=False)
[ INFO : 2022-06-08 16:54:59,849 ] -       (bn2): BatchNorm2d(64, eps=1e-05, momentum=0.1, affine=True, track_running_stats=True)
[ INFO : 2022-06-08 16:54:59,849 ] -       (shortcut): Sequential()
[ INFO : 2022-06-08 16:54:59,849 ] -     )
[ INFO : 2022-06-08 16:54:59,849 ] -     (2): BasicBlock(
[ INFO : 2022-06-08 16:54:59,849 ] -       (conv1): Conv2d(64, 64, kernel_size=(3, 3), stride=(1, 1), padding=(1, 1), bias=False)
[ INFO : 2022-06-08 16:54:59,850 ] -       (bn1): BatchNorm2d(64, eps=1e-05, momentum=0.1, affine=True, track_running_stats=True)
[ INFO : 2022-06-08 16:54:59,850 ] -       (conv2): Conv2d(64, 64, kernel_size=(3, 3), stride=(1, 1), padding=(1, 1), bias=False)
[ INFO : 2022-06-08 16:54:59,850 ] -       (bn2): BatchNorm2d(64, eps=1e-05, momentum=0.1, affine=True, track_running_stats=True)
[ INFO : 2022-06-08 16:54:59,850 ] -       (shortcut): Sequential()
[ INFO : 2022-06-08 16:54:59,850 ] -     )
[ INFO : 2022-06-08 16:54:59,850 ] -     (3): BasicBlock(
[ INFO : 2022-06-08 16:54:59,850 ] -       (conv1): Conv2d(64, 64, kernel_size=(3, 3), stride=(1, 1), padding=(1, 1), bias=False)
[ INFO : 2022-06-08 16:54:59,850 ] -       (bn1): BatchNorm2d(64, eps=1e-05, momentum=0.1, affine=True, track_running_stats=True)
[ INFO : 2022-06-08 16:54:59,850 ] -       (conv2): Conv2d(64, 64, kernel_size=(3, 3), stride=(1, 1), padding=(1, 1), bias=False)
[ INFO : 2022-06-08 16:54:59,850 ] -       (bn2): BatchNorm2d(64, eps=1e-05, momentum=0.1, affine=True, track_running_stats=True)
[ INFO : 2022-06-08 16:54:59,850 ] -       (shortcut): Sequential()
[ INFO : 2022-06-08 16:54:59,850 ] -     )
[ INFO : 2022-06-08 16:54:59,851 ] -   )
[ INFO : 2022-06-08 16:54:59,851 ] -   (layer3): Sequential(
[ INFO : 2022-06-08 16:54:59,851 ] -     (0): BasicBlock(
[ INFO : 2022-06-08 16:54:59,851 ] -       (conv1): Conv2d(64, 128, kernel_size=(3, 3), stride=(2, 2), padding=(1, 1), bias=False)
[ INFO : 2022-06-08 16:54:59,851 ] -       (bn1): BatchNorm2d(128, eps=1e-05, momentum=0.1, affine=True, track_running_stats=True)
[ INFO : 2022-06-08 16:54:59,851 ] -       (conv2): Conv2d(128, 128, kernel_size=(3, 3), stride=(1, 1), padding=(1, 1), bias=False)
[ INFO : 2022-06-08 16:54:59,851 ] -       (bn2): BatchNorm2d(128, eps=1e-05, momentum=0.1, affine=True, track_running_stats=True)
[ INFO : 2022-06-08 16:54:59,851 ] -       (shortcut): Sequential(
[ INFO : 2022-06-08 16:54:59,851 ] -         (0): Conv2d(64, 128, kernel_size=(1, 1), stride=(2, 2), bias=False)
[ INFO : 2022-06-08 16:54:59,851 ] -         (1): BatchNorm2d(128, eps=1e-05, momentum=0.1, affine=True, track_running_stats=True)
[ INFO : 2022-06-08 16:54:59,851 ] -       )
[ INFO : 2022-06-08 16:54:59,852 ] -     )
[ INFO : 2022-06-08 16:54:59,852 ] -     (1): BasicBlock(
[ INFO : 2022-06-08 16:54:59,852 ] -       (conv1): Conv2d(128, 128, kernel_size=(3, 3), stride=(1, 1), padding=(1, 1), bias=False)
[ INFO : 2022-06-08 16:54:59,852 ] -       (bn1): BatchNorm2d(128, eps=1e-05, momentum=0.1, affine=True, track_running_stats=True)
[ INFO : 2022-06-08 16:54:59,852 ] -       (conv2): Conv2d(128, 128, kernel_size=(3, 3), stride=(1, 1), padding=(1, 1), bias=False)
[ INFO : 2022-06-08 16:54:59,852 ] -       (bn2): BatchNorm2d(128, eps=1e-05, momentum=0.1, affine=True, track_running_stats=True)
[ INFO : 2022-06-08 16:54:59,852 ] -       (shortcut): Sequential()
[ INFO : 2022-06-08 16:54:59,852 ] -     )
[ INFO : 2022-06-08 16:54:59,852 ] -     (2): BasicBlock(
[ INFO : 2022-06-08 16:54:59,852 ] -       (conv1): Conv2d(128, 128, kernel_size=(3, 3), stride=(1, 1), padding=(1, 1), bias=False)
[ INFO : 2022-06-08 16:54:59,852 ] -       (bn1): BatchNorm2d(128, eps=1e-05, momentum=0.1, affine=True, track_running_stats=True)
[ INFO : 2022-06-08 16:54:59,853 ] -       (conv2): Conv2d(128, 128, kernel_size=(3, 3), stride=(1, 1), padding=(1, 1), bias=False)
[ INFO : 2022-06-08 16:54:59,853 ] -       (bn2): BatchNorm2d(128, eps=1e-05, momentum=0.1, affine=True, track_running_stats=True)
[ INFO : 2022-06-08 16:54:59,853 ] -       (shortcut): Sequential()
[ INFO : 2022-06-08 16:54:59,853 ] -     )
[ INFO : 2022-06-08 16:54:59,853 ] -     (3): BasicBlock(
[ INFO : 2022-06-08 16:54:59,853 ] -       (conv1): Conv2d(128, 128, kernel_size=(3, 3), stride=(1, 1), padding=(1, 1), bias=False)
[ INFO : 2022-06-08 16:54:59,853 ] -       (bn1): BatchNorm2d(128, eps=1e-05, momentum=0.1, affine=True, track_running_stats=True)
[ INFO : 2022-06-08 16:54:59,853 ] -       (conv2): Conv2d(128, 128, kernel_size=(3, 3), stride=(1, 1), padding=(1, 1), bias=False)
[ INFO : 2022-06-08 16:54:59,853 ] -       (bn2): BatchNorm2d(128, eps=1e-05, momentum=0.1, affine=True, track_running_stats=True)
[ INFO : 2022-06-08 16:54:59,853 ] -       (shortcut): Sequential()
[ INFO : 2022-06-08 16:54:59,853 ] -     )
[ INFO : 2022-06-08 16:54:59,853 ] -     (4): BasicBlock(
[ INFO : 2022-06-08 16:54:59,854 ] -       (conv1): Conv2d(128, 128, kernel_size=(3, 3), stride=(1, 1), padding=(1, 1), bias=False)
[ INFO : 2022-06-08 16:54:59,854 ] -       (bn1): BatchNorm2d(128, eps=1e-05, momentum=0.1, affine=True, track_running_stats=True)
[ INFO : 2022-06-08 16:54:59,854 ] -       (conv2): Conv2d(128, 128, kernel_size=(3, 3), stride=(1, 1), padding=(1, 1), bias=False)
[ INFO : 2022-06-08 16:54:59,854 ] -       (bn2): BatchNorm2d(128, eps=1e-05, momentum=0.1, affine=True, track_running_stats=True)
[ INFO : 2022-06-08 16:54:59,854 ] -       (shortcut): Sequential()
[ INFO : 2022-06-08 16:54:59,854 ] -     )
[ INFO : 2022-06-08 16:54:59,854 ] -     (5): BasicBlock(
[ INFO : 2022-06-08 16:54:59,854 ] -       (conv1): Conv2d(128, 128, kernel_size=(3, 3), stride=(1, 1), padding=(1, 1), bias=False)
[ INFO : 2022-06-08 16:54:59,854 ] -       (bn1): BatchNorm2d(128, eps=1e-05, momentum=0.1, affine=True, track_running_stats=True)
[ INFO : 2022-06-08 16:54:59,854 ] -       (conv2): Conv2d(128, 128, kernel_size=(3, 3), stride=(1, 1), padding=(1, 1), bias=False)
[ INFO : 2022-06-08 16:54:59,854 ] -       (bn2): BatchNorm2d(128, eps=1e-05, momentum=0.1, affine=True, track_running_stats=True)
[ INFO : 2022-06-08 16:54:59,854 ] -       (shortcut): Sequential()
[ INFO : 2022-06-08 16:54:59,855 ] -     )
[ INFO : 2022-06-08 16:54:59,855 ] -   )
[ INFO : 2022-06-08 16:54:59,855 ] -   (layer4): Sequential(
[ INFO : 2022-06-08 16:54:59,855 ] -     (0): BasicBlock(
[ INFO : 2022-06-08 16:54:59,855 ] -       (conv1): Conv2d(128, 256, kernel_size=(3, 3), stride=(2, 2), padding=(1, 1), bias=False)
[ INFO : 2022-06-08 16:54:59,855 ] -       (bn1): BatchNorm2d(256, eps=1e-05, momentum=0.1, affine=True, track_running_stats=True)
[ INFO : 2022-06-08 16:54:59,855 ] -       (conv2): Conv2d(256, 256, kernel_size=(3, 3), stride=(1, 1), padding=(1, 1), bias=False)
[ INFO : 2022-06-08 16:54:59,855 ] -       (bn2): BatchNorm2d(256, eps=1e-05, momentum=0.1, affine=True, track_running_stats=True)
[ INFO : 2022-06-08 16:54:59,855 ] -       (shortcut): Sequential(
[ INFO : 2022-06-08 16:54:59,855 ] -         (0): Conv2d(128, 256, kernel_size=(1, 1), stride=(2, 2), bias=False)
[ INFO : 2022-06-08 16:54:59,855 ] -         (1): BatchNorm2d(256, eps=1e-05, momentum=0.1, affine=True, track_running_stats=True)
[ INFO : 2022-06-08 16:54:59,855 ] -       )
[ INFO : 2022-06-08 16:54:59,856 ] -     )
[ INFO : 2022-06-08 16:54:59,856 ] -     (1): BasicBlock(
[ INFO : 2022-06-08 16:54:59,856 ] -       (conv1): Conv2d(256, 256, kernel_size=(3, 3), stride=(1, 1), padding=(1, 1), bias=False)
[ INFO : 2022-06-08 16:54:59,856 ] -       (bn1): BatchNorm2d(256, eps=1e-05, momentum=0.1, affine=True, track_running_stats=True)
[ INFO : 2022-06-08 16:54:59,856 ] -       (conv2): Conv2d(256, 256, kernel_size=(3, 3), stride=(1, 1), padding=(1, 1), bias=False)
[ INFO : 2022-06-08 16:54:59,856 ] -       (bn2): BatchNorm2d(256, eps=1e-05, momentum=0.1, affine=True, track_running_stats=True)
[ INFO : 2022-06-08 16:54:59,856 ] -       (shortcut): Sequential()
[ INFO : 2022-06-08 16:54:59,856 ] -     )
[ INFO : 2022-06-08 16:54:59,856 ] -     (2): BasicBlock(
[ INFO : 2022-06-08 16:54:59,856 ] -       (conv1): Conv2d(256, 256, kernel_size=(3, 3), stride=(1, 1), padding=(1, 1), bias=False)
[ INFO : 2022-06-08 16:54:59,856 ] -       (bn1): BatchNorm2d(256, eps=1e-05, momentum=0.1, affine=True, track_running_stats=True)
[ INFO : 2022-06-08 16:54:59,856 ] -       (conv2): Conv2d(256, 256, kernel_size=(3, 3), stride=(1, 1), padding=(1, 1), bias=False)
[ INFO : 2022-06-08 16:54:59,857 ] -       (bn2): BatchNorm2d(256, eps=1e-05, momentum=0.1, affine=True, track_running_stats=True)
[ INFO : 2022-06-08 16:54:59,857 ] -       (shortcut): Sequential()
[ INFO : 2022-06-08 16:54:59,857 ] -     )
[ INFO : 2022-06-08 16:54:59,857 ] -   )
[ INFO : 2022-06-08 16:54:59,857 ] -   (pool): TSTP()
[ INFO : 2022-06-08 16:54:59,857 ] -   (seg_1): Linear(in_features=5120, out_features=256, bias=True)
[ INFO : 2022-06-08 16:54:59,857 ] -   (seg_bn_1): BatchNorm1d(256, eps=1e-05, momentum=0.1, affine=False, track_running_stats=True)
[ INFO : 2022-06-08 16:54:59,857 ] -   (seg_2): Linear(in_features=256, out_features=256, bias=True)
[ INFO : 2022-06-08 16:54:59,857 ] -   (projection): ArcMarginProduct(
[ INFO : 2022-06-08 16:54:59,857 ] -     in_features=256, out_features=17982, scale=32.0,
[ INFO : 2022-06-08 16:54:59,857 ] -                       margin=0.0, easy_margin=False
[ INFO : 2022-06-08 16:54:59,857 ] -   )
[ INFO : 2022-06-08 16:54:59,858 ] - )
[ INFO : 2022-06-08 16:55:00,575 ] - checkpoint: exp/ResNet101-TSTP-emb256-fbank80-num_frms200-aug0.6-spTrue-saFalse-ArcMargin-SGD-epoch150/models/model_45.pt
…
