…
[ INFO : 2022-06-08 18:53:52,001 ] - <== Data statistics ==>
[ INFO : 2022-06-08 18:53:52,001 ] - train data num: 1092009, spk num: 5994
[ INFO : 2022-06-08 18:53:52,011 ] - <== Dataloaders ==>
[ INFO : 2022-06-08 18:53:52,011 ] - train dataloaders created
[ INFO : 2022-06-08 18:53:52,011 ] - loader size: 1421
[ INFO : 2022-06-08 18:53:52,011 ] - <== Model ==>
[ INFO : 2022-06-08 18:53:52,072 ] - Load initial model from exp/ResNet101-TSTP-emb256-fbank80-num_frms200-aug0.6-spTrue-saFalse-ArcMargin-SGD-epoch150/models/model_45.pt
[ INFO : 2022-06-08 18:53:52,176 ] - ResNet(
[ INFO : 2022-06-08 18:53:52,176 ] -   (conv1): Conv2d(1, 32, kernel_size=(3, 3), stride=(1, 1), padding=(1, 1), bias=False)
[ INFO : 2022-06-08 18:53:52,176 ] -   (bn1): BatchNorm2d(32, eps=1e-05, momentum=0.1, affine=True, track_running_stats=True)
[ INFO : 2022-06-08 18:53:52,176 ] -   (layer1): Sequential(
[ INFO : 2022-06-08 18:53:52,176 ] -     (0): BasicBlock(
[ INFO : 2022-06-08 18:53:52,176 ] -       (conv1): Conv2d(32, 32, kernel_size=(3, 3), stride=(1, 1), padding=(1, 1), bias=False)
[ INFO : 2022-06-08 18:53:52,176 ] -       (bn1): BatchNorm2d(32, eps=1e-05, momentum=0.1, affine=True, track_running_stats=True)
[ INFO : 2022-06-08 18:53:52,176 ] -       (conv2): Conv2d(32, 32, kernel_size=(3, 3), stride=(1, 1), padding=(1, 1), bias=False)
[ INFO : 2022-06-08 18:53:52,177 ] -       (bn2): BatchNorm2d(32, eps=1e-05, momentum=0.1, affine=True, track_running_stats=True)
[ INFO : 2022-06-08 18:53:52,177 ] -       (shortcut): Sequential()
[ INFO : 2022-06-08 18:53:52,177 ] -     )
[ INFO : 2022-06-08 18:53:52,177 ] -     (1): BasicBlock(
[ INFO : 2022-06-08 18:53:52,177 ] -       (conv1): Conv2d(32, 32, kernel_size=(3, 3), stride=(1, 1), padding=(1, 1), bias=False)
[ INFO : 2022-06-08 18:53:52,177 ] -       (bn1): BatchNorm2d(32, eps=1e-05, momentum=0.1, affine=True, track_running_stats=True)
[ INFO : 2022-06-08 18:53:52,177 ] -       (conv2): Conv2d(32, 32, kernel_size=(3, 3), stride=(1, 1), padding=(1, 1), bias=False)
[ INFO : 2022-06-08 18:53:52,177 ] -       (bn2): BatchNorm2d(32, eps=1e-05, momentum=0.1, affine=True, track_running_stats=True)
[ INFO : 2022-06-08 18:53:52,177 ] -       (shortcut): Sequential()
[ INFO : 2022-06-08 18:53:52,177 ] -     )
[ INFO : 2022-06-08 18:53:52,177 ] -     (2): BasicBlock(
[ INFO : 2022-06-08 18:53:52,177 ] -       (conv1): Conv2d(32, 32, kernel_size=(3, 3), stride=(1, 1), padding=(1, 1), bias=False)
[ INFO : 2022-06-08 18:53:52,177 ] -       (bn1): BatchNorm2d(32, eps=1e-05, momentum=0.1, affine=True, track_running_stats=True)
[ INFO : 2022-06-08 18:53:52,178 ] -       (conv2): Conv2d(32, 32, kernel_size=(3, 3), stride=(1, 1), padding=(1, 1), bias=False)
[ INFO : 2022-06-08 18:53:52,178 ] -       (bn2): BatchNorm2d(32, eps=1e-05, momentum=0.1, affine=True, track_running_stats=True)
[ INFO : 2022-06-08 18:53:52,178 ] -       (shortcut): Sequential()
[ INFO : 2022-06-08 18:53:52,178 ] -     )
[ INFO : 2022-06-08 18:53:52,178 ] -   )
[ INFO : 2022-06-08 18:53:52,178 ] -   (layer2): Sequential(
[ INFO : 2022-06-08 18:53:52,178 ] -     (0): BasicBlock(
[ INFO : 2022-06-08 18:53:52,178 ] -       (conv1): Conv2d(32, 64, kernel_size=(3, 3), stride=(2, 2), padding=(1, 1), bias=False)
[ INFO : 2022-06-08 18:53:52,178 ] -       (bn1): BatchNorm2d(64, eps=1e-05, momentum=0.1, affine=True, track_running_stats=True)
[ INFO : 2022-06-08 18:53:52,178 ] -       (conv2): Conv2d(64, 64, kernel_size=(3, 3), stride=(1, 1), padding=(1, 1), bias=False)
[ INFO : 2022-06-08 18:53:52,178 ] -       (bn2): BatchNorm2d(64, eps=1e-05, momentum=0.1, affine=True, track_running_stats=True)
[ INFO : 2022-06-08 18:53:52,178 ] -       (shortcut): Sequential(
[ INFO : 2022-06-08 18:53:52,179 ] -         (0): Conv2d(32, 64, kernel_size=(1, 1), stride=(2, 2), bias=False)
[ INFO : 2022-06-08 18:53:52,179 ] -         (1): BatchNorm2d(64, eps=1e-05, momentum=0.1, affine=True, track_running_stats=True)
[ INFO : 2022-06-08 18:53:52,179 ] -       )
[ INFO : 2022-06-08 18:53:52,179 ] -     )
[ INFO : 2022-06-08 18:53:52,179 ] -     (1): BasicBlock(
[ INFO : 2022-06-08 18:53:52,179 ] -       (conv1): Conv2d(64, 64, kernel_size=(3, 3), stride=(1, 1), padding=(1, 1), bias=False)
[ INFO : 2022-06-08 18:53:52,179 ] -       (bn1): BatchNorm2d(64, eps=1e-05, momentum=0.1, affine=True, track_running_stats=True)
[ INFO : 2022-06-08 18:53:52,179 ] -       (conv2): Conv2d(64, 64, kernel_size=(3, 3), stride=(1, 1), padding=(1, 1), bias=False)
[ INFO : 2022-06-08 18:53:52,179 ] -       (bn2): BatchNorm2d(64, eps=1e-05, momentum=0.1, affine=True, track_running_stats=True)
[ INFO : 2022-06-08 18:53:52,179 ] -       (shortcut): Sequential()
[ INFO : 2022-06-08 18:53:52,179 ] -     )
[ INFO : 2022-06-08 18:53:52,179 ] -     (2): BasicBlock(
[ INFO : 2022-06-08 18:53:52,179 ] -       (conv1): Conv2d(64, 64, kernel_size=(3, 3), stride=(1, 1), padding=(1, 1), bias=False)
[ INFO : 2022-06-08 18:53:52,180 ] -       (bn1): BatchNorm2d(64, eps=1e-05, momentum=0.1, affine=True, track_running_stats=True)
[ INFO : 2022-06-08 18:53:52,180 ] -       (conv2): Conv2d(64, 64, kernel_size=(3, 3), stride=(1, 1), padding=(1, 1), bias=False)
[ INFO : 2022-06-08 18:53:52,180 ] -       (bn2): BatchNorm2d(64, eps=1e-05, momentum=0.1, affine=True, track_running_stats=True)
[ INFO : 2022-06-08 18:53:52,180 ] -       (shortcut): Sequential()
[ INFO : 2022-06-08 18:53:52,180 ] -     )
[ INFO : 2022-06-08 18:53:52,180 ] -     (3): BasicBlock(
[ INFO : 2022-06-08 18:53:52,180 ] -       (conv1): Conv2d(64, 64, kernel_size=(3, 3), stride=(1, 1), padding=(1, 1), bias=False)
[ INFO : 2022-06-08 18:53:52,180 ] -       (bn1): BatchNorm2d(64, eps=1e-05, momentum=0.1, affine=True, track_running_stats=True)
[ INFO : 2022-06-08 18:53:52,180 ] -       (conv2): Conv2d(64, 64, kernel_size=(3, 3), stride=(1, 1), padding=(1, 1), bias=False)
[ INFO : 2022-06-08 18:53:52,180 ] -       (bn2): BatchNorm2d(64, eps=1e-05, momentum=0.1, affine=True, track_running_stats=True)
[ INFO : 2022-06-08 18:53:52,180 ] -       (shortcut): Sequential()
[ INFO : 2022-06-08 18:53:52,180 ] -     )
[ INFO : 2022-06-08 18:53:52,181 ] -   )
[ INFO : 2022-06-08 18:53:52,181 ] -   (layer3): Sequential(
[ INFO : 2022-06-08 18:53:52,181 ] -     (0): BasicBlock(
[ INFO : 2022-06-08 18:53:52,181 ] -       (conv1): Conv2d(64, 128, kernel_size=(3, 3), stride=(2, 2), padding=(1, 1), bias=False)
[ INFO : 2022-06-08 18:53:52,181 ] -       (bn1): BatchNorm2d(128, eps=1e-05, momentum=0.1, affine=True, track_running_stats=True)
[ INFO : 2022-06-08 18:53:52,181 ] -       (conv2): Conv2d(128, 128, kernel_size=(3, 3), stride=(1, 1), padding=(1, 1), bias=False)
[ INFO : 2022-06-08 18:53:52,181 ] -       (bn2): BatchNorm2d(128, eps=1e-05, momentum=0.1, affine=True, track_running_stats=True)
[ INFO : 2022-06-08 18:53:52,181 ] -       (shortcut): Sequential(
[ INFO : 2022-06-08 18:53:52,181 ] -         (0): Conv2d(64, 128, kernel_size=(1, 1), stride=(2, 2), bias=False)
[ INFO : 2022-06-08 18:53:52,181 ] -         (1): BatchNorm2d(128, eps=1e-05, momentum=0.1, affine=True, track_running_stats=True)
[ INFO : 2022-06-08 18:53:52,181 ] -       )
[ INFO : 2022-06-08 18:53:52,181 ] -     )
[ INFO : 2022-06-08 18:53:52,181 ] -     (1): BasicBlock(
[ INFO : 2022-06-08 18:53:52,182 ] -       (conv1): Conv2d(128, 128, kernel_size=(3, 3), stride=(1, 1), padding=(1, 1), bias=False)
[ INFO : 2022-06-08 18:53:52,182 ] -       (bn1): BatchNorm2d(128, eps=1e-05, momentum=0.1, affine=True, track_running_stats=True)
[ INFO : 2022-06-08 18:53:52,182 ] -       (conv2): Conv2d(128, 128, kernel_size=(3, 3), stride=(1, 1), padding=(1, 1), bias=False)
[ INFO : 2022-06-08 18:53:52,182 ] -       (bn2): BatchNorm2d(128, eps=1e-05, momentum=0.1, affine=True, track_running_stats=True)
[ INFO : 2022-06-08 18:53:52,182 ] -       (shortcut): Sequential()
[ INFO : 2022-06-08 18:53:52,182 ] -     )
[ INFO : 2022-06-08 18:53:52,182 ] -     (2): BasicBlock(
[ INFO : 2022-06-08 18:53:52,182 ] -       (conv1): Conv2d(128, 128, kernel_size=(3, 3), stride=(1, 1), padding=(1, 1), bias=False)
[ INFO : 2022-06-08 18:53:52,182 ] -       (bn1): BatchNorm2d(128, eps=1e-05, momentum=0.1, affine=True, track_running_stats=True)
[ INFO : 2022-06-08 18:53:52,182 ] -       (conv2): Conv2d(128, 128, kernel_size=(3, 3), stride=(1, 1), padding=(1, 1), bias=False)
[ INFO : 2022-06-08 18:53:52,182 ] -       (bn2): BatchNorm2d(128, eps=1e-05, momentum=0.1, affine=True, track_running_stats=True)
[ INFO : 2022-06-08 18:53:52,182 ] -       (shortcut): Sequential()
[ INFO : 2022-06-08 18:53:52,183 ] -     )
[ INFO : 2022-06-08 18:53:52,183 ] -     (3): BasicBlock(
[ INFO : 2022-06-08 18:53:52,183 ] -       (conv1): Conv2d(128, 128, kernel_size=(3, 3), stride=(1, 1), padding=(1, 1), bias=False)
[ INFO : 2022-06-08 18:53:52,183 ] -       (bn1): BatchNorm2d(128, eps=1e-05, momentum=0.1, affine=True, track_running_stats=True)
[ INFO : 2022-06-08 18:53:52,183 ] -       (conv2): Conv2d(128, 128, kernel_size=(3, 3), stride=(1, 1), padding=(1, 1), bias=False)
[ INFO : 2022-06-08 18:53:52,183 ] -       (bn2): BatchNorm2d(128, eps=1e-05, momentum=0.1, affine=True, track_running_stats=True)
[ INFO : 2022-06-08 18:53:52,183 ] -       (shortcut): Sequential()
[ INFO : 2022-06-08 18:53:52,183 ] -     )
[ INFO : 2022-06-08 18:53:52,183 ] -     (4): BasicBlock(
[ INFO : 2022-06-08 18:53:52,183 ] -       (conv1): Conv2d(128, 128, kernel_size=(3, 3), stride=(1, 1), padding=(1, 1), bias=False)
[ INFO : 2022-06-08 18:53:52,183 ] -       (bn1): BatchNorm2d(128, eps=1e-05, momentum=0.1, affine=True, track_running_stats=True)
[ INFO : 2022-06-08 18:53:52,183 ] -       (conv2): Conv2d(128, 128, kernel_size=(3, 3), stride=(1, 1), padding=(1, 1), bias=False)
[ INFO : 2022-06-08 18:53:52,183 ] -       (bn2): BatchNorm2d(128, eps=1e-05, momentum=0.1, affine=True, track_running_stats=True)
[ INFO : 2022-06-08 18:53:52,184 ] -       (shortcut): Sequential()
[ INFO : 2022-06-08 18:53:52,184 ] -     )
[ INFO : 2022-06-08 18:53:52,184 ] -     (5): BasicBlock(
[ INFO : 2022-06-08 18:53:52,184 ] -       (conv1): Conv2d(128, 128, kernel_size=(3, 3), stride=(1, 1), padding=(1, 1), bias=False)
[ INFO : 2022-06-08 18:53:52,184 ] -       (bn1): BatchNorm2d(128, eps=1e-05, momentum=0.1, affine=True, track_running_stats=True)
[ INFO : 2022-06-08 18:53:52,184 ] -       (conv2): Conv2d(128, 128, kernel_size=(3, 3), stride=(1, 1), padding=(1, 1), bias=False)
[ INFO : 2022-06-08 18:53:52,184 ] -       (bn2): BatchNorm2d(128, eps=1e-05, momentum=0.1, affine=True, track_running_stats=True)
[ INFO : 2022-06-08 18:53:52,184 ] -       (shortcut): Sequential()
[ INFO : 2022-06-08 18:53:52,184 ] -     )
[ INFO : 2022-06-08 18:53:52,184 ] -   )
[ INFO : 2022-06-08 18:53:52,184 ] -   (layer4): Sequential(
[ INFO : 2022-06-08 18:53:52,184 ] -     (0): BasicBlock(
[ INFO : 2022-06-08 18:53:52,185 ] -       (conv1): Conv2d(128, 256, kernel_size=(3, 3), stride=(2, 2), padding=(1, 1), bias=False)
[ INFO : 2022-06-08 18:53:52,185 ] -       (bn1): BatchNorm2d(256, eps=1e-05, momentum=0.1, affine=True, track_running_stats=True)
[ INFO : 2022-06-08 18:53:52,185 ] -       (conv2): Conv2d(256, 256, kernel_size=(3, 3), stride=(1, 1), padding=(1, 1), bias=False)
[ INFO : 2022-06-08 18:53:52,185 ] -       (bn2): BatchNorm2d(256, eps=1e-05, momentum=0.1, affine=True, track_running_stats=True)
[ INFO : 2022-06-08 18:53:52,185 ] -       (shortcut): Sequential(
[ INFO : 2022-06-08 18:53:52,185 ] -         (0): Conv2d(128, 256, kernel_size=(1, 1), stride=(2, 2), bias=False)
[ INFO : 2022-06-08 18:53:52,185 ] -         (1): BatchNorm2d(256, eps=1e-05, momentum=0.1, affine=True, track_running_stats=True)
[ INFO : 2022-06-08 18:53:52,185 ] -       )
[ INFO : 2022-06-08 18:53:52,185 ] -     )
[ INFO : 2022-06-08 18:53:52,185 ] -     (1): BasicBlock(
[ INFO : 2022-06-08 18:53:52,185 ] -       (conv1): Conv2d(256, 256, kernel_size=(3, 3), stride=(1, 1), padding=(1, 1), bias=False)
[ INFO : 2022-06-08 18:53:52,185 ] -       (bn1): BatchNorm2d(256, eps=1e-05, momentum=0.1, affine=True, track_running_stats=True)
[ INFO : 2022-06-08 18:53:52,185 ] -       (conv2): Conv2d(256, 256, kernel_size=(3, 3), stride=(1, 1), padding=(1, 1), bias=False)
[ INFO : 2022-06-08 18:53:52,186 ] -       (bn2): BatchNorm2d(256, eps=1e-05, momentum=0.1, affine=True, track_running_stats=True)
[ INFO : 2022-06-08 18:53:52,186 ] -       (shortcut): Sequential()
[ INFO : 2022-06-08 18:53:52,186 ] -     )
[ INFO : 2022-06-08 18:53:52,186 ] -     (2): BasicBlock(
[ INFO : 2022-06-08 18:53:52,186 ] -       (conv1): Conv2d(256, 256, kernel_size=(3, 3), stride=(1, 1), padding=(1, 1), bias=False)
[ INFO : 2022-06-08 18:53:52,186 ] -       (bn1): BatchNorm2d(256, eps=1e-05, momentum=0.1, affine=True, track_running_stats=True)
[ INFO : 2022-06-08 18:53:52,186 ] -       (conv2): Conv2d(256, 256, kernel_size=(3, 3), stride=(1, 1), padding=(1, 1), bias=False)
[ INFO : 2022-06-08 18:53:52,186 ] -       (bn2): BatchNorm2d(256, eps=1e-05, momentum=0.1, affine=True, track_running_stats=True)
[ INFO : 2022-06-08 18:53:52,186 ] -       (shortcut): Sequential()
[ INFO : 2022-06-08 18:53:52,186 ] -     )
[ INFO : 2022-06-08 18:53:52,186 ] -   )
[ INFO : 2022-06-08 18:53:52,186 ] -   (pool): TSTP()
[ INFO : 2022-06-08 18:53:52,187 ] -   (seg_1): Linear(in_features=5120, out_features=256, bias=True)
[ INFO : 2022-06-08 18:53:52,187 ] -   (seg_bn_1): BatchNorm1d(256, eps=1e-05, momentum=0.1, affine=False, track_running_stats=True)
[ INFO : 2022-06-08 18:53:52,187 ] -   (seg_2): Linear(in_features=256, out_features=256, bias=True)
[ INFO : 2022-06-08 18:53:52,187 ] -   (projection): ArcMarginProduct(
[ INFO : 2022-06-08 18:53:52,187 ] -     in_features=256, out_features=17982, scale=32.0,
[ INFO : 2022-06-08 18:53:52,187 ] -                       margin=0.0, easy_margin=False
[ INFO : 2022-06-08 18:53:52,187 ] -   )
[ INFO : 2022-06-08 18:53:52,187 ] - )
[ INFO : 2022-06-08 18:53:52,900 ] - checkpoint: exp/ResNet101-TSTP-emb256-fbank80-num_frms200-aug0.6-spTrue-saFalse-ArcMargin-SGD-epoch150/models/model_45.pt
…
