…
[ INFO : 2022-06-16 12:22:01,714 ] - <== Data statistics ==>
[ INFO : 2022-06-16 12:22:01,714 ] - train data num: 1747308, spk num: 29501
[ INFO : 2022-06-16 12:22:01,724 ] - <== Dataloaders ==>
[ INFO : 2022-06-16 12:22:01,724 ] - train dataloaders created
[ INFO : 2022-06-16 12:22:01,724 ] - loader size: 2275
[ INFO : 2022-06-16 12:22:01,724 ] - <== Model ==>
[ INFO : 2022-06-16 12:22:01,785 ] - Load initial model from exp/ResNet101-TSTP-emb256-fbank80-num_frms200-aug0.6-spTrue-saFalse-ArcMargin-SGD-epoch150/models/model_45.pt
[ INFO : 2022-06-16 12:22:02,065 ] - ResNet(
[ INFO : 2022-06-16 12:22:02,065 ] -   (conv1): Conv2d(1, 32, kernel_size=(3, 3), stride=(1, 1), padding=(1, 1), bias=False)
[ INFO : 2022-06-16 12:22:02,066 ] -   (bn1): BatchNorm2d(32, eps=1e-05, momentum=0.1, affine=True, track_running_stats=True)
[ INFO : 2022-06-16 12:22:02,066 ] -   (layer1): Sequential(
[ INFO : 2022-06-16 12:22:02,066 ] -     (0): BasicBlock(
[ INFO : 2022-06-16 12:22:02,066 ] -       (conv1): Conv2d(32, 32, kernel_size=(3, 3), stride=(1, 1), padding=(1, 1), bias=False)
[ INFO : 2022-06-16 12:22:02,066 ] -       (bn1): BatchNorm2d(32, eps=1e-05, momentum=0.1, affine=True, track_running_stats=True)
[ INFO : 2022-06-16 12:22:02,066 ] -       (conv2): Conv2d(32, 32, kernel_size=(3, 3), stride=(1, 1), padding=(1, 1), bias=False)
[ INFO : 2022-06-16 12:22:02,066 ] -       (bn2): BatchNorm2d(32, eps=1e-05, momentum=0.1, affine=True, track_running_stats=True)
[ INFO : 2022-06-16 12:22:02,066 ] -       (shortcut): Sequential()
[ INFO : 2022-06-16 12:22:02,066 ] -     )
[ INFO : 2022-06-16 12:22:02,066 ] -     (1): BasicBlock(
[ INFO : 2022-06-16 12:22:02,066 ] -       (conv1): Conv2d(32, 32, kernel_size=(3, 3), stride=(1, 1), padding=(1, 1), bias=False)
[ INFO : 2022-06-16 12:22:02,067 ] -       (bn1): BatchNorm2d(32, eps=1e-05, momentum=0.1, affine=True, track_running_stats=True)
[ INFO : 2022-06-16 12:22:02,067 ] -       (conv2): Conv2d(32, 32, kernel_size=(3, 3), stride=(1, 1), padding=(1, 1), bias=False)
[ INFO : 2022-06-16 12:22:02,067 ] -       (bn2): BatchNorm2d(32, eps=1e-05, momentum=0.1, affine=True, track_running_stats=True)
[ INFO : 2022-06-16 12:22:02,067 ] -       (shortcut): Sequential()
[ INFO : 2022-06-16 12:22:02,067 ] -     )
[ INFO : 2022-06-16 12:22:02,067 ] -     (2): BasicBlock(
[ INFO : 2022-06-16 12:22:02,067 ] -       (conv1): Conv2d(32, 32, kernel_size=(3, 3), stride=(1, 1), padding=(1, 1), bias=False)
[ INFO : 2022-06-16 12:22:02,067 ] -       (bn1): BatchNorm2d(32, eps=1e-05, momentum=0.1, affine=True, track_running_stats=True)
[ INFO : 2022-06-16 12:22:02,067 ] -       (conv2): Conv2d(32, 32, kernel_size=(3, 3), stride=(1, 1), padding=(1, 1), bias=False)
[ INFO : 2022-06-16 12:22:02,067 ] -       (bn2): BatchNorm2d(32, eps=1e-05, momentum=0.1, affine=True, track_running_stats=True)
[ INFO : 2022-06-16 12:22:02,067 ] -       (shortcut): Sequential()
[ INFO : 2022-06-16 12:22:02,067 ] -     )
[ INFO : 2022-06-16 12:22:02,068 ] -   )
[ INFO : 2022-06-16 12:22:02,068 ] -   (layer2): Sequential(
[ INFO : 2022-06-16 12:22:02,068 ] -     (0): BasicBlock(
[ INFO : 2022-06-16 12:22:02,068 ] -       (conv1): Conv2d(32, 64, kernel_size=(3, 3), stride=(2, 2), padding=(1, 1), bias=False)
[ INFO : 2022-06-16 12:22:02,068 ] -       (bn1): BatchNorm2d(64, eps=1e-05, momentum=0.1, affine=True, track_running_stats=True)
[ INFO : 2022-06-16 12:22:02,068 ] -       (conv2): Conv2d(64, 64, kernel_size=(3, 3), stride=(1, 1), padding=(1, 1), bias=False)
[ INFO : 2022-06-16 12:22:02,068 ] -       (bn2): BatchNorm2d(64, eps=1e-05, momentum=0.1, affine=True, track_running_stats=True)
[ INFO : 2022-06-16 12:22:02,068 ] -       (shortcut): Sequential(
[ INFO : 2022-06-16 12:22:02,068 ] -         (0): Conv2d(32, 64, kernel_size=(1, 1), stride=(2, 2), bias=False)
[ INFO : 2022-06-16 12:22:02,068 ] -         (1): BatchNorm2d(64, eps=1e-05, momentum=0.1, affine=True, track_running_stats=True)
[ INFO : 2022-06-16 12:22:02,068 ] -       )
[ INFO : 2022-06-16 12:22:02,068 ] -     )
[ INFO : 2022-06-16 12:22:02,069 ] -     (1): BasicBlock(
[ INFO : 2022-06-16 12:22:02,069 ] -       (conv1): Conv2d(64, 64, kernel_size=(3, 3), stride=(1, 1), padding=(1, 1), bias=False)
[ INFO : 2022-06-16 12:22:02,069 ] -       (bn1): BatchNorm2d(64, eps=1e-05, momentum=0.1, affine=True, track_running_stats=True)
[ INFO : 2022-06-16 12:22:02,069 ] -       (conv2): Conv2d(64, 64, kernel_size=(3, 3), stride=(1, 1), padding=(1, 1), bias=False)
[ INFO : 2022-06-16 12:22:02,069 ] -       (bn2): BatchNorm2d(64, eps=1e-05, momentum=0.1, affine=True, track_running_stats=True)
[ INFO : 2022-06-16 12:22:02,069 ] -       (shortcut): Sequential()
[ INFO : 2022-06-16 12:22:02,069 ] -     )
[ INFO : 2022-06-16 12:22:02,069 ] -     (2): BasicBlock(
[ INFO : 2022-06-16 12:22:02,069 ] -       (conv1): Conv2d(64, 64, kernel_size=(3, 3), stride=(1, 1), padding=(1, 1), bias=False)
[ INFO : 2022-06-16 12:22:02,069 ] -       (bn1): BatchNorm2d(64, eps=1e-05, momentum=0.1, affine=True, track_running_stats=True)
[ INFO : 2022-06-16 12:22:02,069 ] -       (conv2): Conv2d(64, 64, kernel_size=(3, 3), stride=(1, 1), padding=(1, 1), bias=False)
[ INFO : 2022-06-16 12:22:02,069 ] -       (bn2): BatchNorm2d(64, eps=1e-05, momentum=0.1, affine=True, track_running_stats=True)
[ INFO : 2022-06-16 12:22:02,069 ] -       (shortcut): Sequential()
[ INFO : 2022-06-16 12:22:02,070 ] -     )
[ INFO : 2022-06-16 12:22:02,070 ] -     (3): BasicBlock(
[ INFO : 2022-06-16 12:22:02,070 ] -       (conv1): Conv2d(64, 64, kernel_size=(3, 3), stride=(1, 1), padding=(1, 1), bias=False)
[ INFO : 2022-06-16 12:22:02,070 ] -       (bn1): BatchNorm2d(64, eps=1e-05, momentum=0.1, affine=True, track_running_stats=True)
[ INFO : 2022-06-16 12:22:02,070 ] -       (conv2): Conv2d(64, 64, kernel_size=(3, 3), stride=(1, 1), padding=(1, 1), bias=False)
[ INFO : 2022-06-16 12:22:02,070 ] -       (bn2): BatchNorm2d(64, eps=1e-05, momentum=0.1, affine=True, track_running_stats=True)
[ INFO : 2022-06-16 12:22:02,070 ] -       (shortcut): Sequential()
[ INFO : 2022-06-16 12:22:02,070 ] -     )
[ INFO : 2022-06-16 12:22:02,070 ] -   )
[ INFO : 2022-06-16 12:22:02,070 ] -   (layer3): Sequential(
[ INFO : 2022-06-16 12:22:02,070 ] -     (0): BasicBlock(
[ INFO : 2022-06-16 12:22:02,070 ] -       (conv1): Conv2d(64, 128, kernel_size=(3, 3), stride=(2, 2), padding=(1, 1), bias=False)
[ INFO : 2022-06-16 12:22:02,071 ] -       (bn1): BatchNorm2d(128, eps=1e-05, momentum=0.1, affine=True, track_running_stats=True)
[ INFO : 2022-06-16 12:22:02,071 ] -       (conv2): Conv2d(128, 128, kernel_size=(3, 3), stride=(1, 1), padding=(1, 1), bias=False)
[ INFO : 2022-06-16 12:22:02,071 ] -       (bn2): BatchNorm2d(128, eps=1e-05, momentum=0.1, affine=True, track_running_stats=True)
[ INFO : 2022-06-16 12:22:02,071 ] -       (shortcut): Sequential(
[ INFO : 2022-06-16 12:22:02,071 ] -         (0): Conv2d(64, 128, kernel_size=(1, 1), stride=(2, 2), bias=False)
[ INFO : 2022-06-16 12:22:02,071 ] -         (1): BatchNorm2d(128, eps=1e-05, momentum=0.1, affine=True, track_running_stats=True)
[ INFO : 2022-06-16 12:22:02,071 ] -       )
[ INFO : 2022-06-16 12:22:02,071 ] -     )
[ INFO : 2022-06-16 12:22:02,071 ] -     (1): BasicBlock(
[ INFO : 2022-06-16 12:22:02,071 ] -       (conv1): Conv2d(128, 128, kernel_size=(3, 3), stride=(1, 1), padding=(1, 1), bias=False)
[ INFO : 2022-06-16 12:22:02,071 ] -       (bn1): BatchNorm2d(128, eps=1e-05, momentum=0.1, affine=True, track_running_stats=True)
[ INFO : 2022-06-16 12:22:02,071 ] -       (conv2): Conv2d(128, 128, kernel_size=(3, 3), stride=(1, 1), padding=(1, 1), bias=False)
[ INFO : 2022-06-16 12:22:02,072 ] -       (bn2): BatchNorm2d(128, eps=1e-05, momentum=0.1, affine=True, track_running_stats=True)
[ INFO : 2022-06-16 12:22:02,072 ] -       (shortcut): Sequential()
[ INFO : 2022-06-16 12:22:02,072 ] -     )
[ INFO : 2022-06-16 12:22:02,072 ] -     (2): BasicBlock(
[ INFO : 2022-06-16 12:22:02,072 ] -       (conv1): Conv2d(128, 128, kernel_size=(3, 3), stride=(1, 1), padding=(1, 1), bias=False)
[ INFO : 2022-06-16 12:22:02,072 ] -       (bn1): BatchNorm2d(128, eps=1e-05, momentum=0.1, affine=True, track_running_stats=True)
[ INFO : 2022-06-16 12:22:02,072 ] -       (conv2): Conv2d(128, 128, kernel_size=(3, 3), stride=(1, 1), padding=(1, 1), bias=False)
[ INFO : 2022-06-16 12:22:02,072 ] -       (bn2): BatchNorm2d(128, eps=1e-05, momentum=0.1, affine=True, track_running_stats=True)
[ INFO : 2022-06-16 12:22:02,072 ] -       (shortcut): Sequential()
[ INFO : 2022-06-16 12:22:02,072 ] -     )
[ INFO : 2022-06-16 12:22:02,072 ] -     (3): BasicBlock(
[ INFO : 2022-06-16 12:22:02,072 ] -       (conv1): Conv2d(128, 128, kernel_size=(3, 3), stride=(1, 1), padding=(1, 1), bias=False)
[ INFO : 2022-06-16 12:22:02,072 ] -       (bn1): BatchNorm2d(128, eps=1e-05, momentum=0.1, affine=True, track_running_stats=True)
[ INFO : 2022-06-16 12:22:02,073 ] -       (conv2): Conv2d(128, 128, kernel_size=(3, 3), stride=(1, 1), padding=(1, 1), bias=False)
[ INFO : 2022-06-16 12:22:02,073 ] -       (bn2): BatchNorm2d(128, eps=1e-05, momentum=0.1, affine=True, track_running_stats=True)
[ INFO : 2022-06-16 12:22:02,073 ] -       (shortcut): Sequential()
[ INFO : 2022-06-16 12:22:02,073 ] -     )
[ INFO : 2022-06-16 12:22:02,073 ] -     (4): BasicBlock(
[ INFO : 2022-06-16 12:22:02,073 ] -       (conv1): Conv2d(128, 128, kernel_size=(3, 3), stride=(1, 1), padding=(1, 1), bias=False)
[ INFO : 2022-06-16 12:22:02,073 ] -       (bn1): BatchNorm2d(128, eps=1e-05, momentum=0.1, affine=True, track_running_stats=True)
[ INFO : 2022-06-16 12:22:02,073 ] -       (conv2): Conv2d(128, 128, kernel_size=(3, 3), stride=(1, 1), padding=(1, 1), bias=False)
[ INFO : 2022-06-16 12:22:02,073 ] -       (bn2): BatchNorm2d(128, eps=1e-05, momentum=0.1, affine=True, track_running_stats=True)
[ INFO : 2022-06-16 12:22:02,073 ] -       (shortcut): Sequential()
[ INFO : 2022-06-16 12:22:02,073 ] -     )
[ INFO : 2022-06-16 12:22:02,073 ] -     (5): BasicBlock(
[ INFO : 2022-06-16 12:22:02,074 ] -       (conv1): Conv2d(128, 128, kernel_size=(3, 3), stride=(1, 1), padding=(1, 1), bias=False)
[ INFO : 2022-06-16 12:22:02,074 ] -       (bn1): BatchNorm2d(128, eps=1e-05, momentum=0.1, affine=True, track_running_stats=True)
[ INFO : 2022-06-16 12:22:02,074 ] -       (conv2): Conv2d(128, 128, kernel_size=(3, 3), stride=(1, 1), padding=(1, 1), bias=False)
[ INFO : 2022-06-16 12:22:02,074 ] -       (bn2): BatchNorm2d(128, eps=1e-05, momentum=0.1, affine=True, track_running_stats=True)
[ INFO : 2022-06-16 12:22:02,074 ] -       (shortcut): Sequential()
[ INFO : 2022-06-16 12:22:02,074 ] -     )
[ INFO : 2022-06-16 12:22:02,074 ] -   )
[ INFO : 2022-06-16 12:22:02,074 ] -   (layer4): Sequential(
[ INFO : 2022-06-16 12:22:02,074 ] -     (0): BasicBlock(
[ INFO : 2022-06-16 12:22:02,074 ] -       (conv1): Conv2d(128, 256, kernel_size=(3, 3), stride=(2, 2), padding=(1, 1), bias=False)
[ INFO : 2022-06-16 12:22:02,074 ] -       (bn1): BatchNorm2d(256, eps=1e-05, momentum=0.1, affine=True, track_running_stats=True)
[ INFO : 2022-06-16 12:22:02,074 ] -       (conv2): Conv2d(256, 256, kernel_size=(3, 3), stride=(1, 1), padding=(1, 1), bias=False)
[ INFO : 2022-06-16 12:22:02,074 ] -       (bn2): BatchNorm2d(256, eps=1e-05, momentum=0.1, affine=True, track_running_stats=True)
[ INFO : 2022-06-16 12:22:02,075 ] -       (shortcut): Sequential(
[ INFO : 2022-06-16 12:22:02,075 ] -         (0): Conv2d(128, 256, kernel_size=(1, 1), stride=(2, 2), bias=False)
[ INFO : 2022-06-16 12:22:02,075 ] -         (1): BatchNorm2d(256, eps=1e-05, momentum=0.1, affine=True, track_running_stats=True)
[ INFO : 2022-06-16 12:22:02,075 ] -       )
[ INFO : 2022-06-16 12:22:02,075 ] -     )
[ INFO : 2022-06-16 12:22:02,075 ] -     (1): BasicBlock(
[ INFO : 2022-06-16 12:22:02,075 ] -       (conv1): Conv2d(256, 256, kernel_size=(3, 3), stride=(1, 1), padding=(1, 1), bias=False)
[ INFO : 2022-06-16 12:22:02,075 ] -       (bn1): BatchNorm2d(256, eps=1e-05, momentum=0.1, affine=True, track_running_stats=True)
[ INFO : 2022-06-16 12:22:02,075 ] -       (conv2): Conv2d(256, 256, kernel_size=(3, 3), stride=(1, 1), padding=(1, 1), bias=False)
[ INFO : 2022-06-16 12:22:02,075 ] -       (bn2): BatchNorm2d(256, eps=1e-05, momentum=0.1, affine=True, track_running_stats=True)
[ INFO : 2022-06-16 12:22:02,075 ] -       (shortcut): Sequential()
[ INFO : 2022-06-16 12:22:02,075 ] -     )
[ INFO : 2022-06-16 12:22:02,076 ] -     (2): BasicBlock(
[ INFO : 2022-06-16 12:22:02,076 ] -       (conv1): Conv2d(256, 256, kernel_size=(3, 3), stride=(1, 1), padding=(1, 1), bias=False)
[ INFO : 2022-06-16 12:22:02,076 ] -       (bn1): BatchNorm2d(256, eps=1e-05, momentum=0.1, affine=True, track_running_stats=True)
[ INFO : 2022-06-16 12:22:02,076 ] -       (conv2): Conv2d(256, 256, kernel_size=(3, 3), stride=(1, 1), padding=(1, 1), bias=False)
[ INFO : 2022-06-16 12:22:02,076 ] -       (bn2): BatchNorm2d(256, eps=1e-05, momentum=0.1, affine=True, track_running_stats=True)
[ INFO : 2022-06-16 12:22:02,076 ] -       (shortcut): Sequential()
[ INFO : 2022-06-16 12:22:02,076 ] -     )
[ INFO : 2022-06-16 12:22:02,076 ] -   )
[ INFO : 2022-06-16 12:22:02,076 ] -   (pool): TSTP()
[ INFO : 2022-06-16 12:22:02,076 ] -   (seg_1): Linear(in_features=5120, out_features=256, bias=True)
[ INFO : 2022-06-16 12:22:02,076 ] -   (seg_bn_1): BatchNorm1d(256, eps=1e-05, momentum=0.1, affine=False, track_running_stats=True)
[ INFO : 2022-06-16 12:22:02,076 ] -   (seg_2): Linear(in_features=256, out_features=256, bias=True)
[ INFO : 2022-06-16 12:22:02,077 ] -   (projection): ArcMarginProduct(
[ INFO : 2022-06-16 12:22:02,077 ] -     in_features=256, out_features=88503, scale=32.0,
[ INFO : 2022-06-16 12:22:02,077 ] -                       margin=0.0, easy_margin=False
[ INFO : 2022-06-16 12:22:02,077 ] -   )
[ INFO : 2022-06-16 12:22:02,077 ] - )
[ INFO : 2022-06-16 12:22:02,914 ] - start_epoch: 1
…
