…
[ INFO : 2022-06-16 16:24:34,880 ] - train data num: 1747308, spk num: 29501
[ INFO : 2022-06-16 16:24:34,892 ] - <== Dataloaders ==>
[ INFO : 2022-06-16 16:24:34,892 ] - train dataloaders created
[ INFO : 2022-06-16 16:24:34,892 ] - loader size: 2275
[ INFO : 2022-06-16 16:24:34,892 ] - <== Model ==>
[ INFO : 2022-06-16 16:24:34,973 ] - Load initial model from exp/ResNet34-TSTP-emb256-fbank80-num_frms200-aug0.6-spTrue-saFalse-ArcMargin-SGD-epoch150/models/model_150.pt
[ INFO : 2022-06-16 16:24:35,334 ] - Dropping parameter projection.weight
[ INFO : 2022-06-16 16:24:35,539 ] - ResNet(
[ INFO : 2022-06-16 16:24:35,539 ] -   (conv1): Conv2d(1, 32, kernel_size=(3, 3), stride=(1, 1), padding=(1, 1), bias=False)
[ INFO : 2022-06-16 16:24:35,540 ] -   (bn1): BatchNorm2d(32, eps=1e-05, momentum=0.1, affine=True, track_running_stats=True)
[ INFO : 2022-06-16 16:24:35,540 ] -   (layer1): Sequential(
[ INFO : 2022-06-16 16:24:35,540 ] -     (0): BasicBlock(
[ INFO : 2022-06-16 16:24:35,540 ] -       (conv1): Conv2d(32, 32, kernel_size=(3, 3), stride=(1, 1), padding=(1, 1), bias=False)
[ INFO : 2022-06-16 16:24:35,540 ] -       (bn1): BatchNorm2d(32, eps=1e-05, momentum=0.1, affine=True, track_running_stats=True)
[ INFO : 2022-06-16 16:24:35,540 ] -       (conv2): Conv2d(32, 32, kernel_size=(3, 3), stride=(1, 1), padding=(1, 1), bias=False)
[ INFO : 2022-06-16 16:24:35,540 ] -       (bn2): BatchNorm2d(32, eps=1e-05, momentum=0.1, affine=True, track_running_stats=True)
[ INFO : 2022-06-16 16:24:35,540 ] -       (shortcut): Sequential()
[ INFO : 2022-06-16 16:24:35,540 ] -     )
[ INFO : 2022-06-16 16:24:35,540 ] -     (1): BasicBlock(
[ INFO : 2022-06-16 16:24:35,541 ] -       (conv1): Conv2d(32, 32, kernel_size=(3, 3), stride=(1, 1), padding=(1, 1), bias=False)
[ INFO : 2022-06-16 16:24:35,541 ] -       (bn1): BatchNorm2d(32, eps=1e-05, momentum=0.1, affine=True, track_running_stats=True)
[ INFO : 2022-06-16 16:24:35,541 ] -       (conv2): Conv2d(32, 32, kernel_size=(3, 3), stride=(1, 1), padding=(1, 1), bias=False)
[ INFO : 2022-06-16 16:24:35,541 ] -       (bn2): BatchNorm2d(32, eps=1e-05, momentum=0.1, affine=True, track_running_stats=True)
[ INFO : 2022-06-16 16:24:35,541 ] -       (shortcut): Sequential()
[ INFO : 2022-06-16 16:24:35,541 ] -     )
[ INFO : 2022-06-16 16:24:35,541 ] -     (2): BasicBlock(
[ INFO : 2022-06-16 16:24:35,541 ] -       (conv1): Conv2d(32, 32, kernel_size=(3, 3), stride=(1, 1), padding=(1, 1), bias=False)
[ INFO : 2022-06-16 16:24:35,541 ] -       (bn1): BatchNorm2d(32, eps=1e-05, momentum=0.1, affine=True, track_running_stats=True)
[ INFO : 2022-06-16 16:24:35,541 ] -       (conv2): Conv2d(32, 32, kernel_size=(3, 3), stride=(1, 1), padding=(1, 1), bias=False)
[ INFO : 2022-06-16 16:24:35,541 ] -       (bn2): BatchNorm2d(32, eps=1e-05, momentum=0.1, affine=True, track_running_stats=True)
[ INFO : 2022-06-16 16:24:35,542 ] -       (shortcut): Sequential()
[ INFO : 2022-06-16 16:24:35,542 ] -     )
[ INFO : 2022-06-16 16:24:35,542 ] -   )
[ INFO : 2022-06-16 16:24:35,542 ] -   (layer2): Sequential(
[ INFO : 2022-06-16 16:24:35,542 ] -     (0): BasicBlock(
[ INFO : 2022-06-16 16:24:35,542 ] -       (conv1): Conv2d(32, 64, kernel_size=(3, 3), stride=(2, 2), padding=(1, 1), bias=False)
[ INFO : 2022-06-16 16:24:35,542 ] -       (bn1): BatchNorm2d(64, eps=1e-05, momentum=0.1, affine=True, track_running_stats=True)
[ INFO : 2022-06-16 16:24:35,542 ] -       (conv2): Conv2d(64, 64, kernel_size=(3, 3), stride=(1, 1), padding=(1, 1), bias=False)
[ INFO : 2022-06-16 16:24:35,542 ] -       (bn2): BatchNorm2d(64, eps=1e-05, momentum=0.1, affine=True, track_running_stats=True)
[ INFO : 2022-06-16 16:24:35,542 ] -       (shortcut): Sequential(
[ INFO : 2022-06-16 16:24:35,543 ] -         (0): Conv2d(32, 64, kernel_size=(1, 1), stride=(2, 2), bias=False)
[ INFO : 2022-06-16 16:24:35,543 ] -         (1): BatchNorm2d(64, eps=1e-05, momentum=0.1, affine=True, track_running_stats=True)
[ INFO : 2022-06-16 16:24:35,543 ] -       )
[ INFO : 2022-06-16 16:24:35,543 ] -     )
[ INFO : 2022-06-16 16:24:35,543 ] -     (1): BasicBlock(
[ INFO : 2022-06-16 16:24:35,543 ] -       (conv1): Conv2d(64, 64, kernel_size=(3, 3), stride=(1, 1), padding=(1, 1), bias=False)
[ INFO : 2022-06-16 16:24:35,543 ] -       (bn1): BatchNorm2d(64, eps=1e-05, momentum=0.1, affine=True, track_running_stats=True)
[ INFO : 2022-06-16 16:24:35,543 ] -       (conv2): Conv2d(64, 64, kernel_size=(3, 3), stride=(1, 1), padding=(1, 1), bias=False)
[ INFO : 2022-06-16 16:24:35,543 ] -       (bn2): BatchNorm2d(64, eps=1e-05, momentum=0.1, affine=True, track_running_stats=True)
[ INFO : 2022-06-16 16:24:35,543 ] -       (shortcut): Sequential()
[ INFO : 2022-06-16 16:24:35,544 ] -     )
[ INFO : 2022-06-16 16:24:35,544 ] -     (2): BasicBlock(
[ INFO : 2022-06-16 16:24:35,544 ] -       (conv1): Conv2d(64, 64, kernel_size=(3, 3), stride=(1, 1), padding=(1, 1), bias=False)
[ INFO : 2022-06-16 16:24:35,544 ] -       (bn1): BatchNorm2d(64, eps=1e-05, momentum=0.1, affine=True, track_running_stats=True)
[ INFO : 2022-06-16 16:24:35,544 ] -       (conv2): Conv2d(64, 64, kernel_size=(3, 3), stride=(1, 1), padding=(1, 1), bias=False)
[ INFO : 2022-06-16 16:24:35,544 ] -       (bn2): BatchNorm2d(64, eps=1e-05, momentum=0.1, affine=True, track_running_stats=True)
[ INFO : 2022-06-16 16:24:35,544 ] -       (shortcut): Sequential()
[ INFO : 2022-06-16 16:24:35,544 ] -     )
[ INFO : 2022-06-16 16:24:35,544 ] -     (3): BasicBlock(
[ INFO : 2022-06-16 16:24:35,544 ] -       (conv1): Conv2d(64, 64, kernel_size=(3, 3), stride=(1, 1), padding=(1, 1), bias=False)
[ INFO : 2022-06-16 16:24:35,544 ] -       (bn1): BatchNorm2d(64, eps=1e-05, momentum=0.1, affine=True, track_running_stats=True)
[ INFO : 2022-06-16 16:24:35,545 ] -       (conv2): Conv2d(64, 64, kernel_size=(3, 3), stride=(1, 1), padding=(1, 1), bias=False)
[ INFO : 2022-06-16 16:24:35,545 ] -       (bn2): BatchNorm2d(64, eps=1e-05, momentum=0.1, affine=True, track_running_stats=True)
[ INFO : 2022-06-16 16:24:35,545 ] -       (shortcut): Sequential()
[ INFO : 2022-06-16 16:24:35,545 ] -     )
[ INFO : 2022-06-16 16:24:35,545 ] -   )
[ INFO : 2022-06-16 16:24:35,545 ] -   (layer3): Sequential(
[ INFO : 2022-06-16 16:24:35,545 ] -     (0): BasicBlock(
[ INFO : 2022-06-16 16:24:35,545 ] -       (conv1): Conv2d(64, 128, kernel_size=(3, 3), stride=(2, 2), padding=(1, 1), bias=False)
[ INFO : 2022-06-16 16:24:35,545 ] -       (bn1): BatchNorm2d(128, eps=1e-05, momentum=0.1, affine=True, track_running_stats=True)
[ INFO : 2022-06-16 16:24:35,546 ] -       (conv2): Conv2d(128, 128, kernel_size=(3, 3), stride=(1, 1), padding=(1, 1), bias=False)
[ INFO : 2022-06-16 16:24:35,546 ] -       (bn2): BatchNorm2d(128, eps=1e-05, momentum=0.1, affine=True, track_running_stats=True)
[ INFO : 2022-06-16 16:24:35,546 ] -       (shortcut): Sequential(
[ INFO : 2022-06-16 16:24:35,546 ] -         (0): Conv2d(64, 128, kernel_size=(1, 1), stride=(2, 2), bias=False)
[ INFO : 2022-06-16 16:24:35,546 ] -         (1): BatchNorm2d(128, eps=1e-05, momentum=0.1, affine=True, track_running_stats=True)
[ INFO : 2022-06-16 16:24:35,546 ] -       )
[ INFO : 2022-06-16 16:24:35,546 ] -     )
[ INFO : 2022-06-16 16:24:35,546 ] -     (1): BasicBlock(
[ INFO : 2022-06-16 16:24:35,546 ] -       (conv1): Conv2d(128, 128, kernel_size=(3, 3), stride=(1, 1), padding=(1, 1), bias=False)
[ INFO : 2022-06-16 16:24:35,546 ] -       (bn1): BatchNorm2d(128, eps=1e-05, momentum=0.1, affine=True, track_running_stats=True)
[ INFO : 2022-06-16 16:24:35,547 ] -       (conv2): Conv2d(128, 128, kernel_size=(3, 3), stride=(1, 1), padding=(1, 1), bias=False)
[ INFO : 2022-06-16 16:24:35,547 ] -       (bn2): BatchNorm2d(128, eps=1e-05, momentum=0.1, affine=True, track_running_stats=True)
[ INFO : 2022-06-16 16:24:35,547 ] -       (shortcut): Sequential()
[ INFO : 2022-06-16 16:24:35,547 ] -     )
[ INFO : 2022-06-16 16:24:35,547 ] -     (2): BasicBlock(
[ INFO : 2022-06-16 16:24:35,547 ] -       (conv1): Conv2d(128, 128, kernel_size=(3, 3), stride=(1, 1), padding=(1, 1), bias=False)
[ INFO : 2022-06-16 16:24:35,547 ] -       (bn1): BatchNorm2d(128, eps=1e-05, momentum=0.1, affine=True, track_running_stats=True)
[ INFO : 2022-06-16 16:24:35,547 ] -       (conv2): Conv2d(128, 128, kernel_size=(3, 3), stride=(1, 1), padding=(1, 1), bias=False)
[ INFO : 2022-06-16 16:24:35,547 ] -       (bn2): BatchNorm2d(128, eps=1e-05, momentum=0.1, affine=True, track_running_stats=True)
[ INFO : 2022-06-16 16:24:35,548 ] -       (shortcut): Sequential()
[ INFO : 2022-06-16 16:24:35,548 ] -     )
[ INFO : 2022-06-16 16:24:35,548 ] -     (3): BasicBlock(
[ INFO : 2022-06-16 16:24:35,548 ] -       (conv1): Conv2d(128, 128, kernel_size=(3, 3), stride=(1, 1), padding=(1, 1), bias=False)
[ INFO : 2022-06-16 16:24:35,548 ] -       (bn1): BatchNorm2d(128, eps=1e-05, momentum=0.1, affine=True, track_running_stats=True)
[ INFO : 2022-06-16 16:24:35,548 ] -       (conv2): Conv2d(128, 128, kernel_size=(3, 3), stride=(1, 1), padding=(1, 1), bias=False)
[ INFO : 2022-06-16 16:24:35,548 ] -       (bn2): BatchNorm2d(128, eps=1e-05, momentum=0.1, affine=True, track_running_stats=True)
[ INFO : 2022-06-16 16:24:35,548 ] -       (shortcut): Sequential()
[ INFO : 2022-06-16 16:24:35,548 ] -     )
[ INFO : 2022-06-16 16:24:35,548 ] -     (4): BasicBlock(
[ INFO : 2022-06-16 16:24:35,549 ] -       (conv1): Conv2d(128, 128, kernel_size=(3, 3), stride=(1, 1), padding=(1, 1), bias=False)
[ INFO : 2022-06-16 16:24:35,549 ] -       (bn1): BatchNorm2d(128, eps=1e-05, momentum=0.1, affine=True, track_running_stats=True)
[ INFO : 2022-06-16 16:24:35,549 ] -       (conv2): Conv2d(128, 128, kernel_size=(3, 3), stride=(1, 1), padding=(1, 1), bias=False)
[ INFO : 2022-06-16 16:24:35,549 ] -       (bn2): BatchNorm2d(128, eps=1e-05, momentum=0.1, affine=True, track_running_stats=True)
[ INFO : 2022-06-16 16:24:35,549 ] -       (shortcut): Sequential()
[ INFO : 2022-06-16 16:24:35,549 ] -     )
[ INFO : 2022-06-16 16:24:35,549 ] -     (5): BasicBlock(
[ INFO : 2022-06-16 16:24:35,549 ] -       (conv1): Conv2d(128, 128, kernel_size=(3, 3), stride=(1, 1), padding=(1, 1), bias=False)
[ INFO : 2022-06-16 16:24:35,549 ] -       (bn1): BatchNorm2d(128, eps=1e-05, momentum=0.1, affine=True, track_running_stats=True)
[ INFO : 2022-06-16 16:24:35,549 ] -       (conv2): Conv2d(128, 128, kernel_size=(3, 3), stride=(1, 1), padding=(1, 1), bias=False)
[ INFO : 2022-06-16 16:24:35,550 ] -       (bn2): BatchNorm2d(128, eps=1e-05, momentum=0.1, affine=True, track_running_stats=True)
[ INFO : 2022-06-16 16:24:35,550 ] -       (shortcut): Sequential()
[ INFO : 2022-06-16 16:24:35,550 ] -     )
[ INFO : 2022-06-16 16:24:35,550 ] -   )
[ INFO : 2022-06-16 16:24:35,550 ] -   (layer4): Sequential(
[ INFO : 2022-06-16 16:24:35,550 ] -     (0): BasicBlock(
[ INFO : 2022-06-16 16:24:35,550 ] -       (conv1): Conv2d(128, 256, kernel_size=(3, 3), stride=(2, 2), padding=(1, 1), bias=False)
[ INFO : 2022-06-16 16:24:35,550 ] -       (bn1): BatchNorm2d(256, eps=1e-05, momentum=0.1, affine=True, track_running_stats=True)
[ INFO : 2022-06-16 16:24:35,550 ] -       (conv2): Conv2d(256, 256, kernel_size=(3, 3), stride=(1, 1), padding=(1, 1), bias=False)
[ INFO : 2022-06-16 16:24:35,550 ] -       (bn2): BatchNorm2d(256, eps=1e-05, momentum=0.1, affine=True, track_running_stats=True)
[ INFO : 2022-06-16 16:24:35,551 ] -       (shortcut): Sequential(
[ INFO : 2022-06-16 16:24:35,551 ] -         (0): Conv2d(128, 256, kernel_size=(1, 1), stride=(2, 2), bias=False)
[ INFO : 2022-06-16 16:24:35,551 ] -         (1): BatchNorm2d(256, eps=1e-05, momentum=0.1, affine=True, track_running_stats=True)
[ INFO : 2022-06-16 16:24:35,551 ] -       )
[ INFO : 2022-06-16 16:24:35,551 ] -     )
[ INFO : 2022-06-16 16:24:35,551 ] -     (1): BasicBlock(
[ INFO : 2022-06-16 16:24:35,551 ] -       (conv1): Conv2d(256, 256, kernel_size=(3, 3), stride=(1, 1), padding=(1, 1), bias=False)
[ INFO : 2022-06-16 16:24:35,551 ] -       (bn1): BatchNorm2d(256, eps=1e-05, momentum=0.1, affine=True, track_running_stats=True)
[ INFO : 2022-06-16 16:24:35,551 ] -       (conv2): Conv2d(256, 256, kernel_size=(3, 3), stride=(1, 1), padding=(1, 1), bias=False)
[ INFO : 2022-06-16 16:24:35,551 ] -       (bn2): BatchNorm2d(256, eps=1e-05, momentum=0.1, affine=True, track_running_stats=True)
[ INFO : 2022-06-16 16:24:35,551 ] -       (shortcut): Sequential()
[ INFO : 2022-06-16 16:24:35,552 ] -     )
[ INFO : 2022-06-16 16:24:35,552 ] -     (2): BasicBlock(
[ INFO : 2022-06-16 16:24:35,552 ] -       (conv1): Conv2d(256, 256, kernel_size=(3, 3), stride=(1, 1), padding=(1, 1), bias=False)
[ INFO : 2022-06-16 16:24:35,552 ] -       (bn1): BatchNorm2d(256, eps=1e-05, momentum=0.1, affine=True, track_running_stats=True)
[ INFO : 2022-06-16 16:24:35,552 ] -       (conv2): Conv2d(256, 256, kernel_size=(3, 3), stride=(1, 1), padding=(1, 1), bias=False)
[ INFO : 2022-06-16 16:24:35,552 ] -       (bn2): BatchNorm2d(256, eps=1e-05, momentum=0.1, affine=True, track_running_stats=True)
[ INFO : 2022-06-16 16:24:35,552 ] -       (shortcut): Sequential()
[ INFO : 2022-06-16 16:24:35,552 ] -     )
[ INFO : 2022-06-16 16:24:35,552 ] -   )
[ INFO : 2022-06-16 16:24:35,552 ] -   (pool): TSTP()
[ INFO : 2022-06-16 16:24:35,553 ] -   (seg_1): Linear(in_features=5120, out_features=256, bias=True)
[ INFO : 2022-06-16 16:24:35,553 ] -   (seg_bn_1): BatchNorm1d(256, eps=1e-05, momentum=0.1, affine=False, track_running_stats=True)
[ INFO : 2022-06-16 16:24:35,553 ] -   (seg_2): Linear(in_features=256, out_features=256, bias=True)
[ INFO : 2022-06-16 16:24:35,553 ] -   (projection): ArcMarginProduct(
[ INFO : 2022-06-16 16:24:35,553 ] -     in_features=256, out_features=88503, scale=32.0,
[ INFO : 2022-06-16 16:24:35,553 ] -                       margin=0.0, easy_margin=False
[ INFO : 2022-06-16 16:24:35,553 ] -   )
[ INFO : 2022-06-16 16:24:35,553 ] - )
[ INFO : 2022-06-16 16:24:36,443 ] - Skip loading parameter: projection.weight, required shape: torch.Size([88503, 256]), loaded shape: torch.Size([17982, 256])
…
