…
[ INFO : 2022-06-08 16:21:50,658 ] - <== Data statistics ==>
[ INFO : 2022-06-08 16:21:50,659 ] - train data num: 1092009, spk num: 5994
[ INFO : 2022-06-08 16:21:50,783 ] - <== Dataloaders ==>
[ INFO : 2022-06-08 16:21:50,783 ] - train dataloaders created
[ INFO : 2022-06-08 16:21:50,783 ] - loader size: 2132
[ INFO : 2022-06-08 16:21:50,784 ] - <== Model ==>
[ INFO : 2022-06-08 16:21:50,869 ] - Load initial model from exp/ResNet101-TSTP-emb256-fbank80-num_frms200-aug0.6-spTrue-saFalse-ArcMargin-SGD-epoch150/models/model_45.pt
[ INFO : 2022-06-08 16:21:51,257 ] - ResNet(
[ INFO : 2022-06-08 16:21:51,257 ] -   (conv1): Conv2d(1, 32, kernel_size=(3, 3), stride=(1, 1), padding=(1, 1), bias=False)
[ INFO : 2022-06-08 16:21:51,257 ] -   (bn1): BatchNorm2d(32, eps=1e-05, momentum=0.1, affine=True, track_running_stats=True)
[ INFO : 2022-06-08 16:21:51,257 ] -   (layer1): Sequential(
[ INFO : 2022-06-08 16:21:51,257 ] -     (0): BasicBlock(
[ INFO : 2022-06-08 16:21:51,257 ] -       (conv1): Conv2d(32, 32, kernel_size=(3, 3), stride=(1, 1), padding=(1, 1), bias=False)
[ INFO : 2022-06-08 16:21:51,257 ] -       (bn1): BatchNorm2d(32, eps=1e-05, momentum=0.1, affine=True, track_running_stats=True)
[ INFO : 2022-06-08 16:21:51,257 ] -       (conv2): Conv2d(32, 32, kernel_size=(3, 3), stride=(1, 1), padding=(1, 1), bias=False)
[ INFO : 2022-06-08 16:21:51,257 ] -       (bn2): BatchNorm2d(32, eps=1e-05, momentum=0.1, affine=True, track_running_stats=True)
[ INFO : 2022-06-08 16:21:51,257 ] -       (shortcut): Sequential()
[ INFO : 2022-06-08 16:21:51,258 ] -     )
[ INFO : 2022-06-08 16:21:51,258 ] -     (1): BasicBlock(
[ INFO : 2022-06-08 16:21:51,258 ] -       (conv1): Conv2d(32, 32, kernel_size=(3, 3), stride=(1, 1), padding=(1, 1), bias=False)
[ INFO : 2022-06-08 16:21:51,258 ] -       (bn1): BatchNorm2d(32, eps=1e-05, momentum=0.1, affine=True, track_running_stats=True)
[ INFO : 2022-06-08 16:21:51,258 ] -       (conv2): Conv2d(32, 32, kernel_size=(3, 3), stride=(1, 1), padding=(1, 1), bias=False)
[ INFO : 2022-06-08 16:21:51,258 ] -       (bn2): BatchNorm2d(32, eps=1e-05, momentum=0.1, affine=True, track_running_stats=True)
[ INFO : 2022-06-08 16:21:51,258 ] -       (shortcut): Sequential()
[ INFO : 2022-06-08 16:21:51,258 ] -     )
[ INFO : 2022-06-08 16:21:51,258 ] -     (2): BasicBlock(
[ INFO : 2022-06-08 16:21:51,259 ] -       (conv1): Conv2d(32, 32, kernel_size=(3, 3), stride=(1, 1), padding=(1, 1), bias=False)
[ INFO : 2022-06-08 16:21:51,259 ] -       (bn1): BatchNorm2d(32, eps=1e-05, momentum=0.1, affine=True, track_running_stats=True)
[ INFO : 2022-06-08 16:21:51,259 ] -       (conv2): Conv2d(32, 32, kernel_size=(3, 3), stride=(1, 1), padding=(1, 1), bias=False)
[ INFO : 2022-06-08 16:21:51,259 ] -       (bn2): BatchNorm2d(32, eps=1e-05, momentum=0.1, affine=True, track_running_stats=True)
[ INFO : 2022-06-08 16:21:51,259 ] -       (shortcut): Sequential()
[ INFO : 2022-06-08 16:21:51,259 ] -     )
[ INFO : 2022-06-08 16:21:51,259 ] -   )
[ INFO : 2022-06-08 16:21:51,259 ] -   (layer2): Sequential(
[ INFO : 2022-06-08 16:21:51,259 ] -     (0): BasicBlock(
[ INFO : 2022-06-08 16:21:51,259 ] -       (conv1): Conv2d(32, 64, kernel_size=(3, 3), stride=(2, 2), padding=(1, 1), bias=False)
[ INFO : 2022-06-08 16:21:51,259 ] -       (bn1): BatchNorm2d(64, eps=1e-05, momentum=0.1, affine=True, track_running_stats=True)
[ INFO : 2022-06-08 16:21:51,260 ] -       (conv2): Conv2d(64, 64, kernel_size=(3, 3), stride=(1, 1), padding=(1, 1), bias=False)
[ INFO : 2022-06-08 16:21:51,260 ] -       (bn2): BatchNorm2d(64, eps=1e-05, momentum=0.1, affine=True, track_running_stats=True)
[ INFO : 2022-06-08 16:21:51,260 ] -       (shortcut): Sequential(
[ INFO : 2022-06-08 16:21:51,260 ] -         (0): Conv2d(32, 64, kernel_size=(1, 1), stride=(2, 2), bias=False)
[ INFO : 2022-06-08 16:21:51,260 ] -         (1): BatchNorm2d(64, eps=1e-05, momentum=0.1, affine=True, track_running_stats=True)
[ INFO : 2022-06-08 16:21:51,260 ] -       )
[ INFO : 2022-06-08 16:21:51,260 ] -     )
[ INFO : 2022-06-08 16:21:51,260 ] -     (1): BasicBlock(
[ INFO : 2022-06-08 16:21:51,260 ] -       (conv1): Conv2d(64, 64, kernel_size=(3, 3), stride=(1, 1), padding=(1, 1), bias=False)
[ INFO : 2022-06-08 16:21:51,260 ] -       (bn1): BatchNorm2d(64, eps=1e-05, momentum=0.1, affine=True, track_running_stats=True)
[ INFO : 2022-06-08 16:21:51,260 ] -       (conv2): Conv2d(64, 64, kernel_size=(3, 3), stride=(1, 1), padding=(1, 1), bias=False)
[ INFO : 2022-06-08 16:21:51,260 ] -       (bn2): BatchNorm2d(64, eps=1e-05, momentum=0.1, affine=True, track_running_stats=True)
[ INFO : 2022-06-08 16:21:51,261 ] -       (shortcut): Sequential()
[ INFO : 2022-06-08 16:21:51,261 ] -     )
[ INFO : 2022-06-08 16:21:51,261 ] -     (2): BasicBlock(
[ INFO : 2022-06-08 16:21:51,261 ] -       (conv1): Conv2d(64, 64, kernel_size=(3, 3), stride=(1, 1), padding=(1, 1), bias=False)
[ INFO : 2022-06-08 16:21:51,261 ] -       (bn1): BatchNorm2d(64, eps=1e-05, momentum=0.1, affine=True, track_running_stats=True)
[ INFO : 2022-06-08 16:21:51,261 ] -       (conv2): Conv2d(64, 64, kernel_size=(3, 3), stride=(1, 1), padding=(1, 1), bias=False)
[ INFO : 2022-06-08 16:21:51,261 ] -       (bn2): BatchNorm2d(64, eps=1e-05, momentum=0.1, affine=True, track_running_stats=True)
[ INFO : 2022-06-08 16:21:51,261 ] -       (shortcut): Sequential()
[ INFO : 2022-06-08 16:21:51,261 ] -     )
[ INFO : 2022-06-08 16:21:51,261 ] -     (3): BasicBlock(
[ INFO : 2022-06-08 16:21:51,261 ] -       (conv1): Conv2d(64, 64, kernel_size=(3, 3), stride=(1, 1), padding=(1, 1), bias=False)
[ INFO : 2022-06-08 16:21:51,261 ] -       (bn1): BatchNorm2d(64, eps=1e-05, momentum=0.1, affine=True, track_running_stats=True)
[ INFO : 2022-06-08 16:21:51,261 ] -       (conv2): Conv2d(64, 64, kernel_size=(3, 3), stride=(1, 1), padding=(1, 1), bias=False)
[ INFO : 2022-06-08 16:21:51,262 ] -       (bn2): BatchNorm2d(64, eps=1e-05, momentum=0.1, affine=True, track_running_stats=True)
[ INFO : 2022-06-08 16:21:51,262 ] -       (shortcut): Sequential()
[ INFO : 2022-06-08 16:21:51,262 ] -     )
[ INFO : 2022-06-08 16:21:51,262 ] -   )
[ INFO : 2022-06-08 16:21:51,262 ] -   (layer3): Sequential(
[ INFO : 2022-06-08 16:21:51,262 ] -     (0): BasicBlock(
[ INFO : 2022-06-08 16:21:51,262 ] -       (conv1): Conv2d(64, 128, kernel_size=(3, 3), stride=(2, 2), padding=(1, 1), bias=False)
[ INFO : 2022-06-08 16:21:51,262 ] -       (bn1): BatchNorm2d(128, eps=1e-05, momentum=0.1, affine=True, track_running_stats=True)
[ INFO : 2022-06-08 16:21:51,262 ] -       (conv2): Conv2d(128, 128, kernel_size=(3, 3), stride=(1, 1), padding=(1, 1), bias=False)
[ INFO : 2022-06-08 16:21:51,262 ] -       (bn2): BatchNorm2d(128, eps=1e-05, momentum=0.1, affine=True, track_running_stats=True)
[ INFO : 2022-06-08 16:21:51,262 ] -       (shortcut): Sequential(
[ INFO : 2022-06-08 16:21:51,262 ] -         (0): Conv2d(64, 128, kernel_size=(1, 1), stride=(2, 2), bias=False)
[ INFO : 2022-06-08 16:21:51,263 ] -         (1): BatchNorm2d(128, eps=1e-05, momentum=0.1, affine=True, track_running_stats=True)
[ INFO : 2022-06-08 16:21:51,263 ] -       )
[ INFO : 2022-06-08 16:21:51,263 ] -     )
[ INFO : 2022-06-08 16:21:51,263 ] -     (1): BasicBlock(
[ INFO : 2022-06-08 16:21:51,263 ] -       (conv1): Conv2d(128, 128, kernel_size=(3, 3), stride=(1, 1), padding=(1, 1), bias=False)
[ INFO : 2022-06-08 16:21:51,263 ] -       (bn1): BatchNorm2d(128, eps=1e-05, momentum=0.1, affine=True, track_running_stats=True)
[ INFO : 2022-06-08 16:21:51,263 ] -       (conv2): Conv2d(128, 128, kernel_size=(3, 3), stride=(1, 1), padding=(1, 1), bias=False)
[ INFO : 2022-06-08 16:21:51,263 ] -       (bn2): BatchNorm2d(128, eps=1e-05, momentum=0.1, affine=True, track_running_stats=True)
[ INFO : 2022-06-08 16:21:51,263 ] -       (shortcut): Sequential()
[ INFO : 2022-06-08 16:21:51,263 ] -     )
[ INFO : 2022-06-08 16:21:51,263 ] -     (2): BasicBlock(
[ INFO : 2022-06-08 16:21:51,263 ] -       (conv1): Conv2d(128, 128, kernel_size=(3, 3), stride=(1, 1), padding=(1, 1), bias=False)
[ INFO : 2022-06-08 16:21:51,264 ] -       (bn1): BatchNorm2d(128, eps=1e-05, momentum=0.1, affine=True, track_running_stats=True)
[ INFO : 2022-06-08 16:21:51,264 ] -       (conv2): Conv2d(128, 128, kernel_size=(3, 3), stride=(1, 1), padding=(1, 1), bias=False)
[ INFO : 2022-06-08 16:21:51,264 ] -       (bn2): BatchNorm2d(128, eps=1e-05, momentum=0.1, affine=True, track_running_stats=True)
[ INFO : 2022-06-08 16:21:51,264 ] -       (shortcut): Sequential()
[ INFO : 2022-06-08 16:21:51,264 ] -     )
[ INFO : 2022-06-08 16:21:51,264 ] -     (3): BasicBlock(
[ INFO : 2022-06-08 16:21:51,264 ] -       (conv1): Conv2d(128, 128, kernel_size=(3, 3), stride=(1, 1), padding=(1, 1), bias=False)
[ INFO : 2022-06-08 16:21:51,264 ] -       (bn1): BatchNorm2d(128, eps=1e-05, momentum=0.1, affine=True, track_running_stats=True)
[ INFO : 2022-06-08 16:21:51,264 ] -       (conv2): Conv2d(128, 128, kernel_size=(3, 3), stride=(1, 1), padding=(1, 1), bias=False)
[ INFO : 2022-06-08 16:21:51,264 ] -       (bn2): BatchNorm2d(128, eps=1e-05, momentum=0.1, affine=True, track_running_stats=True)
[ INFO : 2022-06-08 16:21:51,264 ] -       (shortcut): Sequential()
[ INFO : 2022-06-08 16:21:51,264 ] -     )
[ INFO : 2022-06-08 16:21:51,264 ] -     (4): BasicBlock(
[ INFO : 2022-06-08 16:21:51,265 ] -       (conv1): Conv2d(128, 128, kernel_size=(3, 3), stride=(1, 1), padding=(1, 1), bias=False)
[ INFO : 2022-06-08 16:21:51,265 ] -       (bn1): BatchNorm2d(128, eps=1e-05, momentum=0.1, affine=True, track_running_stats=True)
[ INFO : 2022-06-08 16:21:51,265 ] -       (conv2): Conv2d(128, 128, kernel_size=(3, 3), stride=(1, 1), padding=(1, 1), bias=False)
[ INFO : 2022-06-08 16:21:51,265 ] -       (bn2): BatchNorm2d(128, eps=1e-05, momentum=0.1, affine=True, track_running_stats=True)
[ INFO : 2022-06-08 16:21:51,265 ] -       (shortcut): Sequential()
[ INFO : 2022-06-08 16:21:51,265 ] -     )
[ INFO : 2022-06-08 16:21:51,265 ] -     (5): BasicBlock(
[ INFO : 2022-06-08 16:21:51,265 ] -       (conv1): Conv2d(128, 128, kernel_size=(3, 3), stride=(1, 1), padding=(1, 1), bias=False)
[ INFO : 2022-06-08 16:21:51,265 ] -       (bn1): BatchNorm2d(128, eps=1e-05, momentum=0.1, affine=True, track_running_stats=True)
[ INFO : 2022-06-08 16:21:51,265 ] -       (conv2): Conv2d(128, 128, kernel_size=(3, 3), stride=(1, 1), padding=(1, 1), bias=False)
[ INFO : 2022-06-08 16:21:51,265 ] -       (bn2): BatchNorm2d(128, eps=1e-05, momentum=0.1, affine=True, track_running_stats=True)
[ INFO : 2022-06-08 16:21:51,265 ] -       (shortcut): Sequential()
[ INFO : 2022-06-08 16:21:51,266 ] -     )
[ INFO : 2022-06-08 16:21:51,266 ] -   )
[ INFO : 2022-06-08 16:21:51,266 ] -   (layer4): Sequential(
[ INFO : 2022-06-08 16:21:51,266 ] -     (0): BasicBlock(
[ INFO : 2022-06-08 16:21:51,266 ] -       (conv1): Conv2d(128, 256, kernel_size=(3, 3), stride=(2, 2), padding=(1, 1), bias=False)
[ INFO : 2022-06-08 16:21:51,266 ] -       (bn1): BatchNorm2d(256, eps=1e-05, momentum=0.1, affine=True, track_running_stats=True)
[ INFO : 2022-06-08 16:21:51,266 ] -       (conv2): Conv2d(256, 256, kernel_size=(3, 3), stride=(1, 1), padding=(1, 1), bias=False)
[ INFO : 2022-06-08 16:21:51,266 ] -       (bn2): BatchNorm2d(256, eps=1e-05, momentum=0.1, affine=True, track_running_stats=True)
[ INFO : 2022-06-08 16:21:51,266 ] -       (shortcut): Sequential(
[ INFO : 2022-06-08 16:21:51,266 ] -         (0): Conv2d(128, 256, kernel_size=(1, 1), stride=(2, 2), bias=False)
[ INFO : 2022-06-08 16:21:51,266 ] -         (1): BatchNorm2d(256, eps=1e-05, momentum=0.1, affine=True, track_running_stats=True)
[ INFO : 2022-06-08 16:21:51,266 ] -       )
[ INFO : 2022-06-08 16:21:51,266 ] -     )
[ INFO : 2022-06-08 16:21:51,267 ] -     (1): BasicBlock(
[ INFO : 2022-06-08 16:21:51,267 ] -       (conv1): Conv2d(256, 256, kernel_size=(3, 3), stride=(1, 1), padding=(1, 1), bias=False)
[ INFO : 2022-06-08 16:21:51,267 ] -       (bn1): BatchNorm2d(256, eps=1e-05, momentum=0.1, affine=True, track_running_stats=True)
[ INFO : 2022-06-08 16:21:51,267 ] -       (conv2): Conv2d(256, 256, kernel_size=(3, 3), stride=(1, 1), padding=(1, 1), bias=False)
[ INFO : 2022-06-08 16:21:51,267 ] -       (bn2): BatchNorm2d(256, eps=1e-05, momentum=0.1, affine=True, track_running_stats=True)
[ INFO : 2022-06-08 16:21:51,267 ] -       (shortcut): Sequential()
[ INFO : 2022-06-08 16:21:51,267 ] -     )
[ INFO : 2022-06-08 16:21:51,267 ] -     (2): BasicBlock(
[ INFO : 2022-06-08 16:21:51,267 ] -       (conv1): Conv2d(256, 256, kernel_size=(3, 3), stride=(1, 1), padding=(1, 1), bias=False)
[ INFO : 2022-06-08 16:21:51,267 ] -       (bn1): BatchNorm2d(256, eps=1e-05, momentum=0.1, affine=True, track_running_stats=True)
[ INFO : 2022-06-08 16:21:51,267 ] -       (conv2): Conv2d(256, 256, kernel_size=(3, 3), stride=(1, 1), padding=(1, 1), bias=False)
[ INFO : 2022-06-08 16:21:51,267 ] -       (bn2): BatchNorm2d(256, eps=1e-05, momentum=0.1, affine=True, track_running_stats=True)
[ INFO : 2022-06-08 16:21:51,267 ] -       (shortcut): Sequential()
[ INFO : 2022-06-08 16:21:51,268 ] -     )
[ INFO : 2022-06-08 16:21:51,268 ] -   )
[ INFO : 2022-06-08 16:21:51,268 ] -   (pool): TSTP()
[ INFO : 2022-06-08 16:21:51,268 ] -   (seg_1): Linear(in_features=5120, out_features=256, bias=True)
[ INFO : 2022-06-08 16:21:51,268 ] -   (seg_bn_1): BatchNorm1d(256, eps=1e-05, momentum=0.1, affine=False, track_running_stats=True)
[ INFO : 2022-06-08 16:21:51,268 ] -   (seg_2): Linear(in_features=256, out_features=256, bias=True)
[ INFO : 2022-06-08 16:21:51,268 ] -   (projection): ArcMarginProduct(
[ INFO : 2022-06-08 16:21:51,268 ] -     in_features=256, out_features=17982, scale=32.0,
[ INFO : 2022-06-08 16:21:51,268 ] -                       margin=0.0, easy_margin=False
[ INFO : 2022-06-08 16:21:51,268 ] -   )
[ INFO : 2022-06-08 16:21:51,268 ] - )
[ INFO : 2022-06-08 16:21:51,927 ] - start_epoch: 1
…
