…
[ INFO : 2022-06-16 14:57:09,275 ] - <== Data statistics ==>
[ INFO : 2022-06-16 14:57:09,275 ] - train data num: 1747308, spk num: 29501
[ INFO : 2022-06-16 14:57:09,285 ] - <== Dataloaders ==>
[ INFO : 2022-06-16 14:57:09,285 ] - train dataloaders created
[ INFO : 2022-06-16 14:57:09,285 ] - loader size: 2275
[ INFO : 2022-06-16 14:57:09,285 ] - <== Model ==>
[ INFO : 2022-06-16 14:57:09,346 ] - Load initial model from exp/ResNet101-TSTP-emb256-fbank80-num_frms200-aug0.6-spTrue-saFalse-ArcMargin-SGD-epoch150/models/model_45.pt
[ INFO : 2022-06-16 14:57:09,621 ] - ResNet(
[ INFO : 2022-06-16 14:57:09,621 ] -   (conv1): Conv2d(1, 32, kernel_size=(3, 3), stride=(1, 1), padding=(1, 1), bias=False)
[ INFO : 2022-06-16 14:57:09,621 ] -   (bn1): BatchNorm2d(32, eps=1e-05, momentum=0.1, affine=True, track_running_stats=True)
[ INFO : 2022-06-16 14:57:09,622 ] -   (layer1): Sequential(
[ INFO : 2022-06-16 14:57:09,622 ] -     (0): BasicBlock(
[ INFO : 2022-06-16 14:57:09,622 ] -       (conv1): Conv2d(32, 32, kernel_size=(3, 3), stride=(1, 1), padding=(1, 1), bias=False)
[ INFO : 2022-06-16 14:57:09,622 ] -       (bn1): BatchNorm2d(32, eps=1e-05, momentum=0.1, affine=True, track_running_stats=True)
[ INFO : 2022-06-16 14:57:09,622 ] -       (conv2): Conv2d(32, 32, kernel_size=(3, 3), stride=(1, 1), padding=(1, 1), bias=False)
[ INFO : 2022-06-16 14:57:09,622 ] -       (bn2): BatchNorm2d(32, eps=1e-05, momentum=0.1, affine=True, track_running_stats=True)
[ INFO : 2022-06-16 14:57:09,622 ] -       (shortcut): Sequential()
[ INFO : 2022-06-16 14:57:09,622 ] -     )
[ INFO : 2022-06-16 14:57:09,622 ] -     (1): BasicBlock(
[ INFO : 2022-06-16 14:57:09,622 ] -       (conv1): Conv2d(32, 32, kernel_size=(3, 3), stride=(1, 1), padding=(1, 1), bias=False)
[ INFO : 2022-06-16 14:57:09,622 ] -       (bn1): BatchNorm2d(32, eps=1e-05, momentum=0.1, affine=True, track_running_stats=True)
[ INFO : 2022-06-16 14:57:09,622 ] -       (conv2): Conv2d(32, 32, kernel_size=(3, 3), stride=(1, 1), padding=(1, 1), bias=False)
[ INFO : 2022-06-16 14:57:09,623 ] -       (bn2): BatchNorm2d(32, eps=1e-05, momentum=0.1, affine=True, track_running_stats=True)
[ INFO : 2022-06-16 14:57:09,623 ] -       (shortcut): Sequential()
[ INFO : 2022-06-16 14:57:09,623 ] -     )
[ INFO : 2022-06-16 14:57:09,623 ] -     (2): BasicBlock(
[ INFO : 2022-06-16 14:57:09,623 ] -       (conv1): Conv2d(32, 32, kernel_size=(3, 3), stride=(1, 1), padding=(1, 1), bias=False)
[ INFO : 2022-06-16 14:57:09,623 ] -       (bn1): BatchNorm2d(32, eps=1e-05, momentum=0.1, affine=True, track_running_stats=True)
[ INFO : 2022-06-16 14:57:09,623 ] -       (conv2): Conv2d(32, 32, kernel_size=(3, 3), stride=(1, 1), padding=(1, 1), bias=False)
[ INFO : 2022-06-16 14:57:09,623 ] -       (bn2): BatchNorm2d(32, eps=1e-05, momentum=0.1, affine=True, track_running_stats=True)
[ INFO : 2022-06-16 14:57:09,623 ] -       (shortcut): Sequential()
[ INFO : 2022-06-16 14:57:09,623 ] -     )
[ INFO : 2022-06-16 14:57:09,623 ] -   )
[ INFO : 2022-06-16 14:57:09,623 ] -   (layer2): Sequential(
[ INFO : 2022-06-16 14:57:09,623 ] -     (0): BasicBlock(
[ INFO : 2022-06-16 14:57:09,624 ] -       (conv1): Conv2d(32, 64, kernel_size=(3, 3), stride=(2, 2), padding=(1, 1), bias=False)
[ INFO : 2022-06-16 14:57:09,624 ] -       (bn1): BatchNorm2d(64, eps=1e-05, momentum=0.1, affine=True, track_running_stats=True)
[ INFO : 2022-06-16 14:57:09,624 ] -       (conv2): Conv2d(64, 64, kernel_size=(3, 3), stride=(1, 1), padding=(1, 1), bias=False)
[ INFO : 2022-06-16 14:57:09,624 ] -       (bn2): BatchNorm2d(64, eps=1e-05, momentum=0.1, affine=True, track_running_stats=True)
[ INFO : 2022-06-16 14:57:09,624 ] -       (shortcut): Sequential(
[ INFO : 2022-06-16 14:57:09,624 ] -         (0): Conv2d(32, 64, kernel_size=(1, 1), stride=(2, 2), bias=False)
[ INFO : 2022-06-16 14:57:09,624 ] -         (1): BatchNorm2d(64, eps=1e-05, momentum=0.1, affine=True, track_running_stats=True)
[ INFO : 2022-06-16 14:57:09,624 ] -       )
[ INFO : 2022-06-16 14:57:09,624 ] -     )
[ INFO : 2022-06-16 14:57:09,624 ] -     (1): BasicBlock(
[ INFO : 2022-06-16 14:57:09,624 ] -       (conv1): Conv2d(64, 64, kernel_size=(3, 3), stride=(1, 1), padding=(1, 1), bias=False)
[ INFO : 2022-06-16 14:57:09,624 ] -       (bn1): BatchNorm2d(64, eps=1e-05, momentum=0.1, affine=True, track_running_stats=True)
[ INFO : 2022-06-16 14:57:09,624 ] -       (conv2): Conv2d(64, 64, kernel_size=(3, 3), stride=(1, 1), padding=(1, 1), bias=False)
[ INFO : 2022-06-16 14:57:09,625 ] -       (bn2): BatchNorm2d(64, eps=1e-05, momentum=0.1, affine=True, track_running_stats=True)
[ INFO : 2022-06-16 14:57:09,625 ] -       (shortcut): Sequential()
[ INFO : 2022-06-16 14:57:09,625 ] -     )
[ INFO : 2022-06-16 14:57:09,625 ] -     (2): BasicBlock(
[ INFO : 2022-06-16 14:57:09,625 ] -       (conv1): Conv2d(64, 64, kernel_size=(3, 3), stride=(1, 1), padding=(1, 1), bias=False)
[ INFO : 2022-06-16 14:57:09,625 ] -       (bn1): BatchNorm2d(64, eps=1e-05, momentum=0.1, affine=True, track_running_stats=True)
[ INFO : 2022-06-16 14:57:09,625 ] -       (conv2): Conv2d(64, 64, kernel_size=(3, 3), stride=(1, 1), padding=(1, 1), bias=False)
[ INFO : 2022-06-16 14:57:09,625 ] -       (bn2): BatchNorm2d(64, eps=1e-05, momentum=0.1, affine=True, track_running_stats=True)
[ INFO : 2022-06-16 14:57:09,625 ] -       (shortcut): Sequential()
[ INFO : 2022-06-16 14:57:09,626 ] -     )
[ INFO : 2022-06-16 14:57:09,626 ] -     (3): BasicBlock(
[ INFO : 2022-06-16 14:57:09,626 ] -       (conv1): Conv2d(64, 64, kernel_size=(3, 3), stride=(1, 1), padding=(1, 1), bias=False)
[ INFO : 2022-06-16 14:57:09,626 ] -       (bn1): BatchNorm2d(64, eps=1e-05, momentum=0.1, affine=True, track_running_stats=True)
[ INFO : 2022-06-16 14:57:09,626 ] -       (conv2): Conv2d(64, 64, kernel_size=(3, 3), stride=(1, 1), padding=(1, 1), bias=False)
[ INFO : 2022-06-16 14:57:09,626 ] -       (bn2): BatchNorm2d(64, eps=1e-05, momentum=0.1, affine=True, track_running_stats=True)
[ INFO : 2022-06-16 14:57:09,626 ] -       (shortcut): Sequential()
[ INFO : 2022-06-16 14:57:09,626 ] -     )
[ INFO : 2022-06-16 14:57:09,626 ] -   )
[ INFO : 2022-06-16 14:57:09,626 ] -   (layer3): Sequential(
[ INFO : 2022-06-16 14:57:09,626 ] -     (0): BasicBlock(
[ INFO : 2022-06-16 14:57:09,627 ] -       (conv1): Conv2d(64, 128, kernel_size=(3, 3), stride=(2, 2), padding=(1, 1), bias=False)
[ INFO : 2022-06-16 14:57:09,627 ] -       (bn1): BatchNorm2d(128, eps=1e-05, momentum=0.1, affine=True, track_running_stats=True)
[ INFO : 2022-06-16 14:57:09,627 ] -       (conv2): Conv2d(128, 128, kernel_size=(3, 3), stride=(1, 1), padding=(1, 1), bias=False)
[ INFO : 2022-06-16 14:57:09,627 ] -       (bn2): BatchNorm2d(128, eps=1e-05, momentum=0.1, affine=True, track_running_stats=True)
[ INFO : 2022-06-16 14:57:09,627 ] -       (shortcut): Sequential(
[ INFO : 2022-06-16 14:57:09,627 ] -         (0): Conv2d(64, 128, kernel_size=(1, 1), stride=(2, 2), bias=False)
[ INFO : 2022-06-16 14:57:09,627 ] -         (1): BatchNorm2d(128, eps=1e-05, momentum=0.1, affine=True, track_running_stats=True)
[ INFO : 2022-06-16 14:57:09,627 ] -       )
[ INFO : 2022-06-16 14:57:09,627 ] -     )
[ INFO : 2022-06-16 14:57:09,627 ] -     (1): BasicBlock(
[ INFO : 2022-06-16 14:57:09,628 ] -       (conv1): Conv2d(128, 128, kernel_size=(3, 3), stride=(1, 1), padding=(1, 1), bias=False)
[ INFO : 2022-06-16 14:57:09,628 ] -       (bn1): BatchNorm2d(128, eps=1e-05, momentum=0.1, affine=True, track_running_stats=True)
[ INFO : 2022-06-16 14:57:09,628 ] -       (conv2): Conv2d(128, 128, kernel_size=(3, 3), stride=(1, 1), padding=(1, 1), bias=False)
[ INFO : 2022-06-16 14:57:09,628 ] -       (bn2): BatchNorm2d(128, eps=1e-05, momentum=0.1, affine=True, track_running_stats=True)
[ INFO : 2022-06-16 14:57:09,628 ] -       (shortcut): Sequential()
[ INFO : 2022-06-16 14:57:09,628 ] -     )
[ INFO : 2022-06-16 14:57:09,628 ] -     (2): BasicBlock(
[ INFO : 2022-06-16 14:57:09,628 ] -       (conv1): Conv2d(128, 128, kernel_size=(3, 3), stride=(1, 1), padding=(1, 1), bias=False)
[ INFO : 2022-06-16 14:57:09,628 ] -       (bn1): BatchNorm2d(128, eps=1e-05, momentum=0.1, affine=True, track_running_stats=True)
[ INFO : 2022-06-16 14:57:09,628 ] -       (conv2): Conv2d(128, 128, kernel_size=(3, 3), stride=(1, 1), padding=(1, 1), bias=False)
[ INFO : 2022-06-16 14:57:09,629 ] -       (bn2): BatchNorm2d(128, eps=1e-05, momentum=0.1, affine=True, track_running_stats=True)
[ INFO : 2022-06-16 14:57:09,629 ] -       (shortcut): Sequential()
[ INFO : 2022-06-16 14:57:09,629 ] -     )
[ INFO : 2022-06-16 14:57:09,629 ] -     (3): BasicBlock(
[ INFO : 2022-06-16 14:57:09,629 ] -       (conv1): Conv2d(128, 128, kernel_size=(3, 3), stride=(1, 1), padding=(1, 1), bias=False)
[ INFO : 2022-06-16 14:57:09,629 ] -       (bn1): BatchNorm2d(128, eps=1e-05, momentum=0.1, affine=True, track_running_stats=True)
[ INFO : 2022-06-16 14:57:09,629 ] -       (conv2): Conv2d(128, 128, kernel_size=(3, 3), stride=(1, 1), padding=(1, 1), bias=False)
[ INFO : 2022-06-16 14:57:09,629 ] -       (bn2): BatchNorm2d(128, eps=1e-05, momentum=0.1, affine=True, track_running_stats=True)
[ INFO : 2022-06-16 14:57:09,629 ] -       (shortcut): Sequential()
[ INFO : 2022-06-16 14:57:09,629 ] -     )
[ INFO : 2022-06-16 14:57:09,630 ] -     (4): BasicBlock(
[ INFO : 2022-06-16 14:57:09,630 ] -       (conv1): Conv2d(128, 128, kernel_size=(3, 3), stride=(1, 1), padding=(1, 1), bias=False)
[ INFO : 2022-06-16 14:57:09,630 ] -       (bn1): BatchNorm2d(128, eps=1e-05, momentum=0.1, affine=True, track_running_stats=True)
[ INFO : 2022-06-16 14:57:09,630 ] -       (conv2): Conv2d(128, 128, kernel_size=(3, 3), stride=(1, 1), padding=(1, 1), bias=False)
[ INFO : 2022-06-16 14:57:09,630 ] -       (bn2): BatchNorm2d(128, eps=1e-05, momentum=0.1, affine=True, track_running_stats=True)
[ INFO : 2022-06-16 14:57:09,630 ] -       (shortcut): Sequential()
[ INFO : 2022-06-16 14:57:09,630 ] -     )
[ INFO : 2022-06-16 14:57:09,630 ] -     (5): BasicBlock(
[ INFO : 2022-06-16 14:57:09,630 ] -       (conv1): Conv2d(128, 128, kernel_size=(3, 3), stride=(1, 1), padding=(1, 1), bias=False)
[ INFO : 2022-06-16 14:57:09,630 ] -       (bn1): BatchNorm2d(128, eps=1e-05, momentum=0.1, affine=True, track_running_stats=True)
[ INFO : 2022-06-16 14:57:09,631 ] -       (conv2): Conv2d(128, 128, kernel_size=(3, 3), stride=(1, 1), padding=(1, 1), bias=False)
[ INFO : 2022-06-16 14:57:09,631 ] -       (bn2): BatchNorm2d(128, eps=1e-05, momentum=0.1, affine=True, track_running_stats=True)
[ INFO : 2022-06-16 14:57:09,631 ] -       (shortcut): Sequential()
[ INFO : 2022-06-16 14:57:09,631 ] -     )
[ INFO : 2022-06-16 14:57:09,631 ] -   )
[ INFO : 2022-06-16 14:57:09,631 ] -   (layer4): Sequential(
[ INFO : 2022-06-16 14:57:09,631 ] -     (0): BasicBlock(
[ INFO : 2022-06-16 14:57:09,631 ] -       (conv1): Conv2d(128, 256, kernel_size=(3, 3), stride=(2, 2), padding=(1, 1), bias=False)
[ INFO : 2022-06-16 14:57:09,631 ] -       (bn1): BatchNorm2d(256, eps=1e-05, momentum=0.1, affine=True, track_running_stats=True)
[ INFO : 2022-06-16 14:57:09,631 ] -       (conv2): Conv2d(256, 256, kernel_size=(3, 3), stride=(1, 1), padding=(1, 1), bias=False)
[ INFO : 2022-06-16 14:57:09,631 ] -       (bn2): BatchNorm2d(256, eps=1e-05, momentum=0.1, affine=True, track_running_stats=True)
[ INFO : 2022-06-16 14:57:09,632 ] -       (shortcut): Sequential(
[ INFO : 2022-06-16 14:57:09,632 ] -         (0): Conv2d(128, 256, kernel_size=(1, 1), stride=(2, 2), bias=False)
[ INFO : 2022-06-16 14:57:09,632 ] -         (1): BatchNorm2d(256, eps=1e-05, momentum=0.1, affine=True, track_running_stats=True)
[ INFO : 2022-06-16 14:57:09,632 ] -       )
[ INFO : 2022-06-16 14:57:09,632 ] -     )
[ INFO : 2022-06-16 14:57:09,632 ] -     (1): BasicBlock(
[ INFO : 2022-06-16 14:57:09,632 ] -       (conv1): Conv2d(256, 256, kernel_size=(3, 3), stride=(1, 1), padding=(1, 1), bias=False)
[ INFO : 2022-06-16 14:57:09,632 ] -       (bn1): BatchNorm2d(256, eps=1e-05, momentum=0.1, affine=True, track_running_stats=True)
[ INFO : 2022-06-16 14:57:09,632 ] -       (conv2): Conv2d(256, 256, kernel_size=(3, 3), stride=(1, 1), padding=(1, 1), bias=False)
[ INFO : 2022-06-16 14:57:09,632 ] -       (bn2): BatchNorm2d(256, eps=1e-05, momentum=0.1, affine=True, track_running_stats=True)
[ INFO : 2022-06-16 14:57:09,633 ] -       (shortcut): Sequential()
[ INFO : 2022-06-16 14:57:09,633 ] -     )
[ INFO : 2022-06-16 14:57:09,633 ] -     (2): BasicBlock(
[ INFO : 2022-06-16 14:57:09,633 ] -       (conv1): Conv2d(256, 256, kernel_size=(3, 3), stride=(1, 1), padding=(1, 1), bias=False)
[ INFO : 2022-06-16 14:57:09,633 ] -       (bn1): BatchNorm2d(256, eps=1e-05, momentum=0.1, affine=True, track_running_stats=True)
[ INFO : 2022-06-16 14:57:09,633 ] -       (conv2): Conv2d(256, 256, kernel_size=(3, 3), stride=(1, 1), padding=(1, 1), bias=False)
[ INFO : 2022-06-16 14:57:09,633 ] -       (bn2): BatchNorm2d(256, eps=1e-05, momentum=0.1, affine=True, track_running_stats=True)
[ INFO : 2022-06-16 14:57:09,633 ] -       (shortcut): Sequential()
[ INFO : 2022-06-16 14:57:09,633 ] -     )
[ INFO : 2022-06-16 14:57:09,634 ] -   )
[ INFO : 2022-06-16 14:57:09,634 ] -   (pool): TSTP()
[ INFO : 2022-06-16 14:57:09,634 ] -   (seg_1): Linear(in_features=5120, out_features=256, bias=True)
[ INFO : 2022-06-16 14:57:09,634 ] -   (seg_bn_1): BatchNorm1d(256, eps=1e-05, momentum=0.1, affine=False, track_running_stats=True)
[ INFO : 2022-06-16 14:57:09,634 ] -   (seg_2): Linear(in_features=256, out_features=256, bias=True)
[ INFO : 2022-06-16 14:57:09,634 ] -   (projection): ArcMarginProduct(
[ INFO : 2022-06-16 14:57:09,634 ] -     in_features=256, out_features=88503, scale=32.0,
[ INFO : 2022-06-16 14:57:09,634 ] -                       margin=0.0, easy_margin=False
[ INFO : 2022-06-16 14:57:09,634 ] -   )
[ INFO : 2022-06-16 14:57:09,634 ] - )
odict_keys(['conv1.weigh
…
