…
[ INFO : 2022-06-18 19:34:06,359 ] - train data num: 1747308, spk num: 29501
[ INFO : 2022-06-18 19:34:06,369 ] - <== Dataloaders ==>
[ INFO : 2022-06-18 19:34:06,370 ] - train dataloaders created
[ INFO : 2022-06-18 19:34:06,370 ] - loader size: 2275
[ INFO : 2022-06-18 19:34:06,370 ] - <== Model ==>
[ INFO : 2022-06-18 19:34:06,448 ] - Load initial model from exp/ResNet34-TSTP-emb256-fbank80-num_frms200-aug0.6-spTrue-saFalse-ArcMargin-SGD-epoch150/models/avg_model.pt
[ INFO : 2022-06-18 19:34:06,485 ] - Dropping parameter projection.weight
[ INFO : 2022-06-18 19:34:06,695 ] - ResNet(
[ INFO : 2022-06-18 19:34:06,696 ] -   (conv1): Conv2d(1, 32, kernel_size=(3, 3), stride=(1, 1), padding=(1, 1), bias=False)
[ INFO : 2022-06-18 19:34:06,696 ] -   (bn1): BatchNorm2d(32, eps=1e-05, momentum=0.1, affine=True, track_running_stats=True)
[ INFO : 2022-06-18 19:34:06,696 ] -   (layer1): Sequential(
[ INFO : 2022-06-18 19:34:06,696 ] -     (0): BasicBlock(
[ INFO : 2022-06-18 19:34:06,696 ] -       (conv1): Conv2d(32, 32, kernel_size=(3, 3), stride=(1, 1), padding=(1, 1), bias=False)
[ INFO : 2022-06-18 19:34:06,696 ] -       (bn1): BatchNorm2d(32, eps=1e-05, momentum=0.1, affine=True, track_running_stats=True)
[ INFO : 2022-06-18 19:34:06,696 ] -       (conv2): Conv2d(32, 32, kernel_size=(3, 3), stride=(1, 1), padding=(1, 1), bias=False)
[ INFO : 2022-06-18 19:34:06,696 ] -       (bn2): BatchNorm2d(32, eps=1e-05, momentum=0.1, affine=True, track_running_stats=True)
[ INFO : 2022-06-18 19:34:06,696 ] -       (shortcut): Sequential()
[ INFO : 2022-06-18 19:34:06,696 ] -     )
[ INFO : 2022-06-18 19:34:06,696 ] -     (1): BasicBlock(
[ INFO : 2022-06-18 19:34:06,697 ] -       (conv1): Conv2d(32, 32, kernel_size=(3, 3), stride=(1, 1), padding=(1, 1), bias=False)
[ INFO : 2022-06-18 19:34:06,697 ] -       (bn1): BatchNorm2d(32, eps=1e-05, momentum=0.1, affine=True, track_running_stats=True)
[ INFO : 2022-06-18 19:34:06,697 ] -       (conv2): Conv2d(32, 32, kernel_size=(3, 3), stride=(1, 1), padding=(1, 1), bias=False)
[ INFO : 2022-06-18 19:34:06,697 ] -       (bn2): BatchNorm2d(32, eps=1e-05, momentum=0.1, affine=True, track_running_stats=True)
[ INFO : 2022-06-18 19:34:06,697 ] -       (shortcut): Sequential()
[ INFO : 2022-06-18 19:34:06,697 ] -     )
[ INFO : 2022-06-18 19:34:06,697 ] -     (2): BasicBlock(
[ INFO : 2022-06-18 19:34:06,697 ] -       (conv1): Conv2d(32, 32, kernel_size=(3, 3), stride=(1, 1), padding=(1, 1), bias=False)
[ INFO : 2022-06-18 19:34:06,697 ] -       (bn1): BatchNorm2d(32, eps=1e-05, momentum=0.1, affine=True, track_running_stats=True)
[ INFO : 2022-06-18 19:34:06,697 ] -       (conv2): Conv2d(32, 32, kernel_size=(3, 3), stride=(1, 1), padding=(1, 1), bias=False)
[ INFO : 2022-06-18 19:34:06,697 ] -       (bn2): BatchNorm2d(32, eps=1e-05, momentum=0.1, affine=True, track_running_stats=True)
[ INFO : 2022-06-18 19:34:06,698 ] -       (shortcut): Sequential()
[ INFO : 2022-06-18 19:34:06,698 ] -     )
[ INFO : 2022-06-18 19:34:06,698 ] -   )
[ INFO : 2022-06-18 19:34:06,698 ] -   (layer2): Sequential(
[ INFO : 2022-06-18 19:34:06,698 ] -     (0): BasicBlock(
[ INFO : 2022-06-18 19:34:06,698 ] -       (conv1): Conv2d(32, 64, kernel_size=(3, 3), stride=(2, 2), padding=(1, 1), bias=False)
[ INFO : 2022-06-18 19:34:06,698 ] -       (bn1): BatchNorm2d(64, eps=1e-05, momentum=0.1, affine=True, track_running_stats=True)
[ INFO : 2022-06-18 19:34:06,698 ] -       (conv2): Conv2d(64, 64, kernel_size=(3, 3), stride=(1, 1), padding=(1, 1), bias=False)
[ INFO : 2022-06-18 19:34:06,698 ] -       (bn2): BatchNorm2d(64, eps=1e-05, momentum=0.1, affine=True, track_running_stats=True)
[ INFO : 2022-06-18 19:34:06,698 ] -       (shortcut): Sequential(
[ INFO : 2022-06-18 19:34:06,698 ] -         (0): Conv2d(32, 64, kernel_size=(1, 1), stride=(2, 2), bias=False)
[ INFO : 2022-06-18 19:34:06,698 ] -         (1): BatchNorm2d(64, eps=1e-05, momentum=0.1, affine=True, track_running_stats=True)
[ INFO : 2022-06-18 19:34:06,699 ] -       )
[ INFO : 2022-06-18 19:34:06,699 ] -     )
[ INFO : 2022-06-18 19:34:06,699 ] -     (1): BasicBlock(
[ INFO : 2022-06-18 19:34:06,699 ] -       (conv1): Conv2d(64, 64, kernel_size=(3, 3), stride=(1, 1), padding=(1, 1), bias=False)
[ INFO : 2022-06-18 19:34:06,699 ] -       (bn1): BatchNorm2d(64, eps=1e-05, momentum=0.1, affine=True, track_running_stats=True)
[ INFO : 2022-06-18 19:34:06,699 ] -       (conv2): Conv2d(64, 64, kernel_size=(3, 3), stride=(1, 1), padding=(1, 1), bias=False)
[ INFO : 2022-06-18 19:34:06,699 ] -       (bn2): BatchNorm2d(64, eps=1e-05, momentum=0.1, affine=True, track_running_stats=True)
[ INFO : 2022-06-18 19:34:06,699 ] -       (shortcut): Sequential()
[ INFO : 2022-06-18 19:34:06,699 ] -     )
[ INFO : 2022-06-18 19:34:06,699 ] -     (2): BasicBlock(
[ INFO : 2022-06-18 19:34:06,699 ] -       (conv1): Conv2d(64, 64, kernel_size=(3, 3), stride=(1, 1), padding=(1, 1), bias=False)
[ INFO : 2022-06-18 19:34:06,700 ] -       (bn1): BatchNorm2d(64, eps=1e-05, momentum=0.1, affine=True, track_running_stats=True)
[ INFO : 2022-06-18 19:34:06,700 ] -       (conv2): Conv2d(64, 64, kernel_size=(3, 3), stride=(1, 1), padding=(1, 1), bias=False)
[ INFO : 2022-06-18 19:34:06,700 ] -       (bn2): BatchNorm2d(64, eps=1e-05, momentum=0.1, affine=True, track_running_stats=True)
[ INFO : 2022-06-18 19:34:06,700 ] -       (shortcut): Sequential()
[ INFO : 2022-06-18 19:34:06,700 ] -     )
[ INFO : 2022-06-18 19:34:06,700 ] -     (3): BasicBlock(
[ INFO : 2022-06-18 19:34:06,700 ] -       (conv1): Conv2d(64, 64, kernel_size=(3, 3), stride=(1, 1), padding=(1, 1), bias=False)
[ INFO : 2022-06-18 19:34:06,700 ] -       (bn1): BatchNorm2d(64, eps=1e-05, momentum=0.1, affine=True, track_running_stats=True)
[ INFO : 2022-06-18 19:34:06,700 ] -       (conv2): Conv2d(64, 64, kernel_size=(3, 3), stride=(1, 1), padding=(1, 1), bias=False)
[ INFO : 2022-06-18 19:34:06,700 ] -       (bn2): BatchNorm2d(64, eps=1e-05, momentum=0.1, affine=True, track_running_stats=True)
[ INFO : 2022-06-18 19:34:06,700 ] -       (shortcut): Sequential()
[ INFO : 2022-06-18 19:34:06,701 ] -     )
[ INFO : 2022-06-18 19:34:06,701 ] -   )
[ INFO : 2022-06-18 19:34:06,701 ] -   (layer3): Sequential(
[ INFO : 2022-06-18 19:34:06,701 ] -     (0): BasicBlock(
[ INFO : 2022-06-18 19:34:06,701 ] -       (conv1): Conv2d(64, 128, kernel_size=(3, 3), stride=(2, 2), padding=(1, 1), bias=False)
[ INFO : 2022-06-18 19:34:06,701 ] -       (bn1): BatchNorm2d(128, eps=1e-05, momentum=0.1, affine=True, track_running_stats=True)
[ INFO : 2022-06-18 19:34:06,701 ] -       (conv2): Conv2d(128, 128, kernel_size=(3, 3), stride=(1, 1), padding=(1, 1), bias=False)
[ INFO : 2022-06-18 19:34:06,701 ] -       (bn2): BatchNorm2d(128, eps=1e-05, momentum=0.1, affine=True, track_running_stats=True)
[ INFO : 2022-06-18 19:34:06,701 ] -       (shortcut): Sequential(
[ INFO : 2022-06-18 19:34:06,701 ] -         (0): Conv2d(64, 128, kernel_size=(1, 1), stride=(2, 2), bias=False)
[ INFO : 2022-06-18 19:34:06,701 ] -         (1): BatchNorm2d(128, eps=1e-05, momentum=0.1, affine=True, track_running_stats=True)
[ INFO : 2022-06-18 19:34:06,701 ] -       )
[ INFO : 2022-06-18 19:34:06,702 ] -     )
[ INFO : 2022-06-18 19:34:06,702 ] -     (1): BasicBlock(
[ INFO : 2022-06-18 19:34:06,702 ] -       (conv1): Conv2d(128, 128, kernel_size=(3, 3), stride=(1, 1), padding=(1, 1), bias=False)
[ INFO : 2022-06-18 19:34:06,702 ] -       (bn1): BatchNorm2d(128, eps=1e-05, momentum=0.1, affine=True, track_running_stats=True)
[ INFO : 2022-06-18 19:34:06,702 ] -       (conv2): Conv2d(128, 128, kernel_size=(3, 3), stride=(1, 1), padding=(1, 1), bias=False)
[ INFO : 2022-06-18 19:34:06,702 ] -       (bn2): BatchNorm2d(128, eps=1e-05, momentum=0.1, affine=True, track_running_stats=True)
[ INFO : 2022-06-18 19:34:06,702 ] -       (shortcut): Sequential()
[ INFO : 2022-06-18 19:34:06,702 ] -     )
[ INFO : 2022-06-18 19:34:06,702 ] -     (2): BasicBlock(
[ INFO : 2022-06-18 19:34:06,702 ] -       (conv1): Conv2d(128, 128, kernel_size=(3, 3), stride=(1, 1), padding=(1, 1), bias=False)
[ INFO : 2022-06-18 19:34:06,702 ] -       (bn1): BatchNorm2d(128, eps=1e-05, momentum=0.1, affine=True, track_running_stats=True)
[ INFO : 2022-06-18 19:34:06,703 ] -       (conv2): Conv2d(128, 128, kernel_size=(3, 3), stride=(1, 1), padding=(1, 1), bias=False)
[ INFO : 2022-06-18 19:34:06,703 ] -       (bn2): BatchNorm2d(128, eps=1e-05, momentum=0.1, affine=True, track_running_stats=True)
[ INFO : 2022-06-18 19:34:06,703 ] -       (shortcut): Sequential()
[ INFO : 2022-06-18 19:34:06,703 ] -     )
[ INFO : 2022-06-18 19:34:06,703 ] -     (3): BasicBlock(
[ INFO : 2022-06-18 19:34:06,703 ] -       (conv1): Conv2d(128, 128, kernel_size=(3, 3), stride=(1, 1), padding=(1, 1), bias=False)
[ INFO : 2022-06-18 19:34:06,703 ] -       (bn1): BatchNorm2d(128, eps=1e-05, momentum=0.1, affine=True, track_running_stats=True)
[ INFO : 2022-06-18 19:34:06,703 ] -       (conv2): Conv2d(128, 128, kernel_size=(3, 3), stride=(1, 1), padding=(1, 1), bias=False)
[ INFO : 2022-06-18 19:34:06,703 ] -       (bn2): BatchNorm2d(128, eps=1e-05, momentum=0.1, affine=True, track_running_stats=True)
[ INFO : 2022-06-18 19:34:06,703 ] -       (shortcut): Sequential()
[ INFO : 2022-06-18 19:34:06,703 ] -     )
[ INFO : 2022-06-18 19:34:06,703 ] -     (4): BasicBlock(
[ INFO : 2022-06-18 19:34:06,704 ] -       (conv1): Conv2d(128, 128, kernel_size=(3, 3), stride=(1, 1), padding=(1, 1), bias=False)
[ INFO : 2022-06-18 19:34:06,704 ] -       (bn1): BatchNorm2d(128, eps=1e-05, momentum=0.1, affine=True, track_running_stats=True)
[ INFO : 2022-06-18 19:34:06,704 ] -       (conv2): Conv2d(128, 128, kernel_size=(3, 3), stride=(1, 1), padding=(1, 1), bias=False)
[ INFO : 2022-06-18 19:34:06,704 ] -       (bn2): BatchNorm2d(128, eps=1e-05, momentum=0.1, affine=True, track_running_stats=True)
[ INFO : 2022-06-18 19:34:06,704 ] -       (shortcut): Sequential()
[ INFO : 2022-06-18 19:34:06,704 ] -     )
[ INFO : 2022-06-18 19:34:06,704 ] -     (5): BasicBlock(
[ INFO : 2022-06-18 19:34:06,704 ] -       (conv1): Conv2d(128, 128, kernel_size=(3, 3), stride=(1, 1), padding=(1, 1), bias=False)
[ INFO : 2022-06-18 19:34:06,704 ] -       (bn1): BatchNorm2d(128, eps=1e-05, momentum=0.1, affine=True, track_running_stats=True)
[ INFO : 2022-06-18 19:34:06,704 ] -       (conv2): Conv2d(128, 128, kernel_size=(3, 3), stride=(1, 1), padding=(1, 1), bias=False)
[ INFO : 2022-06-18 19:34:06,704 ] -       (bn2): BatchNorm2d(128, eps=1e-05, momentum=0.1, affine=True, track_running_stats=True)
[ INFO : 2022-06-18 19:34:06,705 ] -       (shortcut): Sequential()
[ INFO : 2022-06-18 19:34:06,705 ] -     )
[ INFO : 2022-06-18 19:34:06,705 ] -   )
[ INFO : 2022-06-18 19:34:06,705 ] -   (layer4): Sequential(
[ INFO : 2022-06-18 19:34:06,705 ] -     (0): BasicBlock(
[ INFO : 2022-06-18 19:34:06,705 ] -       (conv1): Conv2d(128, 256, kernel_size=(3, 3), stride=(2, 2), padding=(1, 1), bias=False)
[ INFO : 2022-06-18 19:34:06,705 ] -       (bn1): BatchNorm2d(256, eps=1e-05, momentum=0.1, affine=True, track_running_stats=True)
[ INFO : 2022-06-18 19:34:06,705 ] -       (conv2): Conv2d(256, 256, kernel_size=(3, 3), stride=(1, 1), padding=(1, 1), bias=False)
[ INFO : 2022-06-18 19:34:06,705 ] -       (bn2): BatchNorm2d(256, eps=1e-05, momentum=0.1, affine=True, track_running_stats=True)
[ INFO : 2022-06-18 19:34:06,705 ] -       (shortcut): Sequential(
[ INFO : 2022-06-18 19:34:06,705 ] -         (0): Conv2d(128, 256, kernel_size=(1, 1), stride=(2, 2), bias=False)
[ INFO : 2022-06-18 19:34:06,705 ] -         (1): BatchNorm2d(256, eps=1e-05, momentum=0.1, affine=True, track_running_stats=True)
[ INFO : 2022-06-18 19:34:06,706 ] -       )
[ INFO : 2022-06-18 19:34:06,706 ] -     )
[ INFO : 2022-06-18 19:34:06,706 ] -     (1): BasicBlock(
[ INFO : 2022-06-18 19:34:06,706 ] -       (conv1): Conv2d(256, 256, kernel_size=(3, 3), stride=(1, 1), padding=(1, 1), bias=False)
[ INFO : 2022-06-18 19:34:06,706 ] -       (bn1): BatchNorm2d(256, eps=1e-05, momentum=0.1, affine=True, track_running_stats=True)
[ INFO : 2022-06-18 19:34:06,706 ] -       (conv2): Conv2d(256, 256, kernel_size=(3, 3), stride=(1, 1), padding=(1, 1), bias=False)
[ INFO : 2022-06-18 19:34:06,706 ] -       (bn2): BatchNorm2d(256, eps=1e-05, momentum=0.1, affine=True, track_running_stats=True)
[ INFO : 2022-06-18 19:34:06,706 ] -       (shortcut): Sequential()
[ INFO : 2022-06-18 19:34:06,706 ] -     )
[ INFO : 2022-06-18 19:34:06,706 ] -     (2): BasicBlock(
[ INFO : 2022-06-18 19:34:06,706 ] -       (conv1): Conv2d(256, 256, kernel_size=(3, 3), stride=(1, 1), padding=(1, 1), bias=False)
[ INFO : 2022-06-18 19:34:06,707 ] -       (bn1): BatchNorm2d(256, eps=1e-05, momentum=0.1, affine=True, track_running_stats=True)
[ INFO : 2022-06-18 19:34:06,707 ] -       (conv2): Conv2d(256, 256, kernel_size=(3, 3), stride=(1, 1), padding=(1, 1), bias=False)
[ INFO : 2022-06-18 19:34:06,707 ] -       (bn2): BatchNorm2d(256, eps=1e-05, momentum=0.1, affine=True, track_running_stats=True)
[ INFO : 2022-06-18 19:34:06,707 ] -       (shortcut): Sequential()
[ INFO : 2022-06-18 19:34:06,707 ] -     )
[ INFO : 2022-06-18 19:34:06,707 ] -   )
[ INFO : 2022-06-18 19:34:06,707 ] -   (pool): TSTP()
[ INFO : 2022-06-18 19:34:06,707 ] -   (seg_1): Linear(in_features=5120, out_features=256, bias=True)
[ INFO : 2022-06-18 19:34:06,707 ] -   (seg_bn_1): BatchNorm1d(256, eps=1e-05, momentum=0.1, affine=False, track_running_stats=True)
[ INFO : 2022-06-18 19:34:06,707 ] -   (seg_2): Linear(in_features=256, out_features=256, bias=True)
[ INFO : 2022-06-18 19:34:06,707 ] -   (projection): ArcMarginProduct(
[ INFO : 2022-06-18 19:34:06,707 ] -     in_features=256, out_features=88503, scale=32.0,
[ INFO : 2022-06-18 19:34:06,708 ] -                       margin=0.0, easy_margin=False
[ INFO : 2022-06-18 19:34:06,708 ] -   )
[ INFO : 2022-06-18 19:34:06,708 ] - )
[ INFO : 2022-06-18 19:34:07,704 ] - checkpoint: exp/ResNet34-TSTP-emb256-fbank80-num_frms200-aug0.6-spTrue-saFalse-ArcMargin-SGD-epoch150_rev-data/models/model_15.pt
…
