…
[ INFO : 2022-06-16 11:41:26,024 ] - <== Data statistics ==>
[ INFO : 2022-06-16 11:41:26,025 ] - train data num: 1747308, spk num: 29501
[ INFO : 2022-06-16 11:41:26,168 ] - <== Dataloaders ==>
[ INFO : 2022-06-16 11:41:26,168 ] - train dataloaders created
[ INFO : 2022-06-16 11:41:26,168 ] - loader size: 2275
[ INFO : 2022-06-16 11:41:26,168 ] - <== Model ==>
[ INFO : 2022-06-16 11:41:26,284 ] - Load initial model from exp/ResNet101-TSTP-emb256-fbank80-num_frms200-aug0.6-spTrue-saFalse-ArcMargin-SGD-epoch150/models/model_45.pt
[ INFO : 2022-06-16 11:41:26,809 ] - ResNet(
[ INFO : 2022-06-16 11:41:26,809 ] -   (conv1): Conv2d(1, 32, kernel_size=(3, 3), stride=(1, 1), padding=(1, 1), bias=False)
[ INFO : 2022-06-16 11:41:26,809 ] -   (bn1): BatchNorm2d(32, eps=1e-05, momentum=0.1, affine=True, track_running_stats=True)
[ INFO : 2022-06-16 11:41:26,809 ] -   (layer1): Sequential(
[ INFO : 2022-06-16 11:41:26,810 ] -     (0): BasicBlock(
[ INFO : 2022-06-16 11:41:26,810 ] -       (conv1): Conv2d(32, 32, kernel_size=(3, 3), stride=(1, 1), padding=(1, 1), bias=False)
[ INFO : 2022-06-16 11:41:26,810 ] -       (bn1): BatchNorm2d(32, eps=1e-05, momentum=0.1, affine=True, track_running_stats=True)
[ INFO : 2022-06-16 11:41:26,810 ] -       (conv2): Conv2d(32, 32, kernel_size=(3, 3), stride=(1, 1), padding=(1, 1), bias=False)
[ INFO : 2022-06-16 11:41:26,810 ] -       (bn2): BatchNorm2d(32, eps=1e-05, momentum=0.1, affine=True, track_running_stats=True)
[ INFO : 2022-06-16 11:41:26,810 ] -       (shortcut): Sequential()
[ INFO : 2022-06-16 11:41:26,810 ] -     )
[ INFO : 2022-06-16 11:41:26,810 ] -     (1): BasicBlock(
[ INFO : 2022-06-16 11:41:26,810 ] -       (conv1): Conv2d(32, 32, kernel_size=(3, 3), stride=(1, 1), padding=(1, 1), bias=False)
[ INFO : 2022-06-16 11:41:26,811 ] -       (bn1): BatchNorm2d(32, eps=1e-05, momentum=0.1, affine=True, track_running_stats=True)
[ INFO : 2022-06-16 11:41:26,811 ] -       (conv2): Conv2d(32, 32, kernel_size=(3, 3), stride=(1, 1), padding=(1, 1), bias=False)
[ INFO : 2022-06-16 11:41:26,811 ] -       (bn2): BatchNorm2d(32, eps=1e-05, momentum=0.1, affine=True, track_running_stats=True)
[ INFO : 2022-06-16 11:41:26,811 ] -       (shortcut): Sequential()
[ INFO : 2022-06-16 11:41:26,811 ] -     )
[ INFO : 2022-06-16 11:41:26,811 ] -     (2): BasicBlock(
[ INFO : 2022-06-16 11:41:26,811 ] -       (conv1): Conv2d(32, 32, kernel_size=(3, 3), stride=(1, 1), padding=(1, 1), bias=False)
[ INFO : 2022-06-16 11:41:26,811 ] -       (bn1): BatchNorm2d(32, eps=1e-05, momentum=0.1, affine=True, track_running_stats=True)
[ INFO : 2022-06-16 11:41:26,812 ] -       (conv2): Conv2d(32, 32, kernel_size=(3, 3), stride=(1, 1), padding=(1, 1), bias=False)
[ INFO : 2022-06-16 11:41:26,812 ] -       (bn2): BatchNorm2d(32, eps=1e-05, momentum=0.1, affine=True, track_running_stats=True)
[ INFO : 2022-06-16 11:41:26,812 ] -       (shortcut): Sequential()
[ INFO : 2022-06-16 11:41:26,812 ] -     )
[ INFO : 2022-06-16 11:41:26,812 ] -   )
[ INFO : 2022-06-16 11:41:26,812 ] -   (layer2): Sequential(
[ INFO : 2022-06-16 11:41:26,812 ] -     (0): BasicBlock(
[ INFO : 2022-06-16 11:41:26,812 ] -       (conv1): Conv2d(32, 64, kernel_size=(3, 3), stride=(2, 2), padding=(1, 1), bias=False)
[ INFO : 2022-06-16 11:41:26,812 ] -       (bn1): BatchNorm2d(64, eps=1e-05, momentum=0.1, affine=True, track_running_stats=True)
[ INFO : 2022-06-16 11:41:26,813 ] -       (conv2): Conv2d(64, 64, kernel_size=(3, 3), stride=(1, 1), padding=(1, 1), bias=False)
[ INFO : 2022-06-16 11:41:26,813 ] -       (bn2): BatchNorm2d(64, eps=1e-05, momentum=0.1, affine=True, track_running_stats=True)
[ INFO : 2022-06-16 11:41:26,813 ] -       (shortcut): Sequential(
[ INFO : 2022-06-16 11:41:26,813 ] -         (0): Conv2d(32, 64, kernel_size=(1, 1), stride=(2, 2), bias=False)
[ INFO : 2022-06-16 11:41:26,813 ] -         (1): BatchNorm2d(64, eps=1e-05, momentum=0.1, affine=True, track_running_stats=True)
[ INFO : 2022-06-16 11:41:26,813 ] -       )
[ INFO : 2022-06-16 11:41:26,813 ] -     )
[ INFO : 2022-06-16 11:41:26,813 ] -     (1): BasicBlock(
[ INFO : 2022-06-16 11:41:26,813 ] -       (conv1): Conv2d(64, 64, kernel_size=(3, 3), stride=(1, 1), padding=(1, 1), bias=False)
[ INFO : 2022-06-16 11:41:26,814 ] -       (bn1): BatchNorm2d(64, eps=1e-05, momentum=0.1, affine=True, track_running_stats=True)
[ INFO : 2022-06-16 11:41:26,814 ] -       (conv2): Conv2d(64, 64, kernel_size=(3, 3), stride=(1, 1), padding=(1, 1), bias=False)
[ INFO : 2022-06-16 11:41:26,814 ] -       (bn2): BatchNorm2d(64, eps=1e-05, momentum=0.1, affine=True, track_running_stats=True)
[ INFO : 2022-06-16 11:41:26,814 ] -       (shortcut): Sequential()
[ INFO : 2022-06-16 11:41:26,814 ] -     )
[ INFO : 2022-06-16 11:41:26,814 ] -     (2): BasicBlock(
[ INFO : 2022-06-16 11:41:26,814 ] -       (conv1): Conv2d(64, 64, kernel_size=(3, 3), stride=(1, 1), padding=(1, 1), bias=False)
[ INFO : 2022-06-16 11:41:26,814 ] -       (bn1): BatchNorm2d(64, eps=1e-05, momentum=0.1, affine=True, track_running_stats=True)
[ INFO : 2022-06-16 11:41:26,814 ] -       (conv2): Conv2d(64, 64, kernel_size=(3, 3), stride=(1, 1), padding=(1, 1), bias=False)
[ INFO : 2022-06-16 11:41:26,815 ] -       (bn2): BatchNorm2d(64, eps=1e-05, momentum=0.1, affine=True, track_running_stats=True)
[ INFO : 2022-06-16 11:41:26,815 ] -       (shortcut): Sequential()
[ INFO : 2022-06-16 11:41:26,815 ] -     )
[ INFO : 2022-06-16 11:41:26,815 ] -     (3): BasicBlock(
[ INFO : 2022-06-16 11:41:26,815 ] -       (conv1): Conv2d(64, 64, kernel_size=(3, 3), stride=(1, 1), padding=(1, 1), bias=False)
[ INFO : 2022-06-16 11:41:26,815 ] -       (bn1): BatchNorm2d(64, eps=1e-05, momentum=0.1, affine=True, track_running_stats=True)
[ INFO : 2022-06-16 11:41:26,815 ] -       (conv2): Conv2d(64, 64, kernel_size=(3, 3), stride=(1, 1), padding=(1, 1), bias=False)
[ INFO : 2022-06-16 11:41:26,815 ] -       (bn2): BatchNorm2d(64, eps=1e-05, momentum=0.1, affine=True, track_running_stats=True)
[ INFO : 2022-06-16 11:41:26,815 ] -       (shortcut): Sequential()
[ INFO : 2022-06-16 11:41:26,816 ] -     )
[ INFO : 2022-06-16 11:41:26,816 ] -   )
[ INFO : 2022-06-16 11:41:26,816 ] -   (layer3): Sequential(
[ INFO : 2022-06-16 11:41:26,816 ] -     (0): BasicBlock(
[ INFO : 2022-06-16 11:41:26,816 ] -       (conv1): Conv2d(64, 128, kernel_size=(3, 3), stride=(2, 2), padding=(1, 1), bias=False)
[ INFO : 2022-06-16 11:41:26,816 ] -       (bn1): BatchNorm2d(128, eps=1e-05, momentum=0.1, affine=True, track_running_stats=True)
[ INFO : 2022-06-16 11:41:26,816 ] -       (conv2): Conv2d(128, 128, kernel_size=(3, 3), stride=(1, 1), padding=(1, 1), bias=False)
[ INFO : 2022-06-16 11:41:26,816 ] -       (bn2): BatchNorm2d(128, eps=1e-05, momentum=0.1, affine=True, track_running_stats=True)
[ INFO : 2022-06-16 11:41:26,816 ] -       (shortcut): Sequential(
[ INFO : 2022-06-16 11:41:26,817 ] -         (0): Conv2d(64, 128, kernel_size=(1, 1), stride=(2, 2), bias=False)
[ INFO : 2022-06-16 11:41:26,817 ] -         (1): BatchNorm2d(128, eps=1e-05, momentum=0.1, affine=True, track_running_stats=True)
[ INFO : 2022-06-16 11:41:26,817 ] -       )
[ INFO : 2022-06-16 11:41:26,817 ] -     )
[ INFO : 2022-06-16 11:41:26,817 ] -     (1): BasicBlock(
[ INFO : 2022-06-16 11:41:26,817 ] -       (conv1): Conv2d(128, 128, kernel_size=(3, 3), stride=(1, 1), padding=(1, 1), bias=False)
[ INFO : 2022-06-16 11:41:26,817 ] -       (bn1): BatchNorm2d(128, eps=1e-05, momentum=0.1, affine=True, track_running_stats=True)
[ INFO : 2022-06-16 11:41:26,817 ] -       (conv2): Conv2d(128, 128, kernel_size=(3, 3), stride=(1, 1), padding=(1, 1), bias=False)
[ INFO : 2022-06-16 11:41:26,817 ] -       (bn2): BatchNorm2d(128, eps=1e-05, momentum=0.1, affine=True, track_running_stats=True)
[ INFO : 2022-06-16 11:41:26,818 ] -       (shortcut): Sequential()
[ INFO : 2022-06-16 11:41:26,818 ] -     )
[ INFO : 2022-06-16 11:41:26,818 ] -     (2): BasicBlock(
[ INFO : 2022-06-16 11:41:26,818 ] -       (conv1): Conv2d(128, 128, kernel_size=(3, 3), stride=(1, 1), padding=(1, 1), bias=False)
[ INFO : 2022-06-16 11:41:26,818 ] -       (bn1): BatchNorm2d(128, eps=1e-05, momentum=0.1, affine=True, track_running_stats=True)
[ INFO : 2022-06-16 11:41:26,818 ] -       (conv2): Conv2d(128, 128, kernel_size=(3, 3), stride=(1, 1), padding=(1, 1), bias=False)
[ INFO : 2022-06-16 11:41:26,818 ] -       (bn2): BatchNorm2d(128, eps=1e-05, momentum=0.1, affine=True, track_running_stats=True)
[ INFO : 2022-06-16 11:41:26,818 ] -       (shortcut): Sequential()
[ INFO : 2022-06-16 11:41:26,818 ] -     )
[ INFO : 2022-06-16 11:41:26,819 ] -     (3): BasicBlock(
[ INFO : 2022-06-16 11:41:26,819 ] -       (conv1): Conv2d(128, 128, kernel_size=(3, 3), stride=(1, 1), padding=(1, 1), bias=False)
[ INFO : 2022-06-16 11:41:26,819 ] -       (bn1): BatchNorm2d(128, eps=1e-05, momentum=0.1, affine=True, track_running_stats=True)
[ INFO : 2022-06-16 11:41:26,819 ] -       (conv2): Conv2d(128, 128, kernel_size=(3, 3), stride=(1, 1), padding=(1, 1), bias=False)
[ INFO : 2022-06-16 11:41:26,819 ] -       (bn2): BatchNorm2d(128, eps=1e-05, momentum=0.1, affine=True, track_running_stats=True)
[ INFO : 2022-06-16 11:41:26,819 ] -       (shortcut): Sequential()
[ INFO : 2022-06-16 11:41:26,819 ] -     )
[ INFO : 2022-06-16 11:41:26,819 ] -     (4): BasicBlock(
[ INFO : 2022-06-16 11:41:26,819 ] -       (conv1): Conv2d(128, 128, kernel_size=(3, 3), stride=(1, 1), padding=(1, 1), bias=False)
[ INFO : 2022-06-16 11:41:26,820 ] -       (bn1): BatchNorm2d(128, eps=1e-05, momentum=0.1, affine=True, track_running_stats=True)
[ INFO : 2022-06-16 11:41:26,820 ] -       (conv2): Conv2d(128, 128, kernel_size=(3, 3), stride=(1, 1), padding=(1, 1), bias=False)
[ INFO : 2022-06-16 11:41:26,820 ] -       (bn2): BatchNorm2d(128, eps=1e-05, momentum=0.1, affine=True, track_running_stats=True)
[ INFO : 2022-06-16 11:41:26,820 ] -       (shortcut): Sequential()
[ INFO : 2022-06-16 11:41:26,820 ] -     )
[ INFO : 2022-06-16 11:41:26,820 ] -     (5): BasicBlock(
[ INFO : 2022-06-16 11:41:26,820 ] -       (conv1): Conv2d(128, 128, kernel_size=(3, 3), stride=(1, 1), padding=(1, 1), bias=False)
[ INFO : 2022-06-16 11:41:26,820 ] -       (bn1): BatchNorm2d(128, eps=1e-05, momentum=0.1, affine=True, track_running_stats=True)
[ INFO : 2022-06-16 11:41:26,820 ] -       (conv2): Conv2d(128, 128, kernel_size=(3, 3), stride=(1, 1), padding=(1, 1), bias=False)
[ INFO : 2022-06-16 11:41:26,821 ] -       (bn2): BatchNorm2d(128, eps=1e-05, momentum=0.1, affine=True, track_running_stats=True)
[ INFO : 2022-06-16 11:41:26,821 ] -       (shortcut): Sequential()
[ INFO : 2022-06-16 11:41:26,821 ] -     )
[ INFO : 2022-06-16 11:41:26,821 ] -   )
[ INFO : 2022-06-16 11:41:26,821 ] -   (layer4): Sequential(
[ INFO : 2022-06-16 11:41:26,821 ] -     (0): BasicBlock(
[ INFO : 2022-06-16 11:41:26,821 ] -       (conv1): Conv2d(128, 256, kernel_size=(3, 3), stride=(2, 2), padding=(1, 1), bias=False)
[ INFO : 2022-06-16 11:41:26,821 ] -       (bn1): BatchNorm2d(256, eps=1e-05, momentum=0.1, affine=True, track_running_stats=True)
[ INFO : 2022-06-16 11:41:26,821 ] -       (conv2): Conv2d(256, 256, kernel_size=(3, 3), stride=(1, 1), padding=(1, 1), bias=False)
[ INFO : 2022-06-16 11:41:26,821 ] -       (bn2): BatchNorm2d(256, eps=1e-05, momentum=0.1, affine=True, track_running_stats=True)
[ INFO : 2022-06-16 11:41:26,822 ] -       (shortcut): Sequential(
[ INFO : 2022-06-16 11:41:26,822 ] -         (0): Conv2d(128, 256, kernel_size=(1, 1), stride=(2, 2), bias=False)
[ INFO : 2022-06-16 11:41:26,822 ] -         (1): BatchNorm2d(256, eps=1e-05, momentum=0.1, affine=True, track_running_stats=True)
[ INFO : 2022-06-16 11:41:26,822 ] -       )
[ INFO : 2022-06-16 11:41:26,822 ] -     )
[ INFO : 2022-06-16 11:41:26,822 ] -     (1): BasicBlock(
[ INFO : 2022-06-16 11:41:26,822 ] -       (conv1): Conv2d(256, 256, kernel_size=(3, 3), stride=(1, 1), padding=(1, 1), bias=False)
[ INFO : 2022-06-16 11:41:26,822 ] -       (bn1): BatchNorm2d(256, eps=1e-05, momentum=0.1, affine=True, track_running_stats=True)
[ INFO : 2022-06-16 11:41:26,822 ] -       (conv2): Conv2d(256, 256, kernel_size=(3, 3), stride=(1, 1), padding=(1, 1), bias=False)
[ INFO : 2022-06-16 11:41:26,823 ] -       (bn2): BatchNorm2d(256, eps=1e-05, momentum=0.1, affine=True, track_running_stats=True)
[ INFO : 2022-06-16 11:41:26,823 ] -       (shortcut): Sequential()
[ INFO : 2022-06-16 11:41:26,823 ] -     )
[ INFO : 2022-06-16 11:41:26,823 ] -     (2): BasicBlock(
[ INFO : 2022-06-16 11:41:26,823 ] -       (conv1): Conv2d(256, 256, kernel_size=(3, 3), stride=(1, 1), padding=(1, 1), bias=False)
[ INFO : 2022-06-16 11:41:26,823 ] -       (bn1): BatchNorm2d(256, eps=1e-05, momentum=0.1, affine=True, track_running_stats=True)
[ INFO : 2022-06-16 11:41:26,823 ] -       (conv2): Conv2d(256, 256, kernel_size=(3, 3), stride=(1, 1), padding=(1, 1), bias=False)
[ INFO : 2022-06-16 11:41:26,823 ] -       (bn2): BatchNorm2d(256, eps=1e-05, momentum=0.1, affine=True, track_running_stats=True)
[ INFO : 2022-06-16 11:41:26,824 ] -       (shortcut): Sequential()
[ INFO : 2022-06-16 11:41:26,824 ] -     )
[ INFO : 2022-06-16 11:41:26,824 ] -   )
[ INFO : 2022-06-16 11:41:26,824 ] -   (pool): TSTP()
[ INFO : 2022-06-16 11:41:26,824 ] -   (seg_1): Linear(in_features=5120, out_features=256, bias=True)
[ INFO : 2022-06-16 11:41:26,824 ] -   (seg_bn_1): BatchNorm1d(256, eps=1e-05, momentum=0.1, affine=False, track_running_stats=True)
[ INFO : 2022-06-16 11:41:26,824 ] -   (seg_2): Linear(in_features=256, out_features=256, bias=True)
[ INFO : 2022-06-16 11:41:26,824 ] -   (projection): ArcMarginProduct(
[ INFO : 2022-06-16 11:41:26,824 ] -     in_features=256, out_features=88503, scale=32.0,
[ INFO : 2022-06-16 11:41:26,825 ] -                       margin=0.0, easy_margin=False
[ INFO : 2022-06-16 11:41:26,825 ] -   )
[ INFO : 2022-06-16 11:41:26,825 ] - )
Traceback (most recent call last):
…
