…
[ INFO : 2022-06-08 16:24:56,691 ] - <== Data statistics ==>
[ INFO : 2022-06-08 16:24:56,691 ] - train data num: 1092009, spk num: 5994
[ INFO : 2022-06-08 16:24:56,701 ] - <== Dataloaders ==>
[ INFO : 2022-06-08 16:24:56,701 ] - train dataloaders created
[ INFO : 2022-06-08 16:24:56,701 ] - loader size: 2132
[ INFO : 2022-06-08 16:24:56,701 ] - <== Model ==>
[ INFO : 2022-06-08 16:24:56,762 ] - Load initial model from exp/ResNet101-TSTP-emb256-fbank80-num_frms200-aug0.6-spTrue-saFalse-ArcMargin-SGD-epoch150/models/model_45.pt
[ INFO : 2022-06-08 16:24:57,161 ] - ResNet(
[ INFO : 2022-06-08 16:24:57,161 ] -   (conv1): Conv2d(1, 32, kernel_size=(3, 3), stride=(1, 1), padding=(1, 1), bias=False)
[ INFO : 2022-06-08 16:24:57,161 ] -   (bn1): BatchNorm2d(32, eps=1e-05, momentum=0.1, affine=True, track_running_stats=True)
[ INFO : 2022-06-08 16:24:57,161 ] -   (layer1): Sequential(
[ INFO : 2022-06-08 16:24:57,161 ] -     (0): BasicBlock(
[ INFO : 2022-06-08 16:24:57,161 ] -       (conv1): Conv2d(32, 32, kernel_size=(3, 3), stride=(1, 1), padding=(1, 1), bias=False)
[ INFO : 2022-06-08 16:24:57,162 ] -       (bn1): BatchNorm2d(32, eps=1e-05, momentum=0.1, affine=True, track_running_stats=True)
[ INFO : 2022-06-08 16:24:57,162 ] -       (conv2): Conv2d(32, 32, kernel_size=(3, 3), stride=(1, 1), padding=(1, 1), bias=False)
[ INFO : 2022-06-08 16:24:57,162 ] -       (bn2): BatchNorm2d(32, eps=1e-05, momentum=0.1, affine=True, track_running_stats=True)
[ INFO : 2022-06-08 16:24:57,162 ] -       (shortcut): Sequential()
[ INFO : 2022-06-08 16:24:57,162 ] -     )
[ INFO : 2022-06-08 16:24:57,162 ] -     (1): BasicBlock(
[ INFO : 2022-06-08 16:24:57,162 ] -       (conv1): Conv2d(32, 32, kernel_size=(3, 3), stride=(1, 1), padding=(1, 1), bias=False)
[ INFO : 2022-06-08 16:24:57,162 ] -       (bn1): BatchNorm2d(32, eps=1e-05, momentum=0.1, affine=True, track_running_stats=True)
[ INFO : 2022-06-08 16:24:57,162 ] -       (conv2): Conv2d(32, 32, kernel_size=(3, 3), stride=(1, 1), padding=(1, 1), bias=False)
[ INFO : 2022-06-08 16:24:57,162 ] -       (bn2): BatchNorm2d(32, eps=1e-05, momentum=0.1, affine=True, track_running_stats=True)
[ INFO : 2022-06-08 16:24:57,162 ] -       (shortcut): Sequential()
[ INFO : 2022-06-08 16:24:57,162 ] -     )
[ INFO : 2022-06-08 16:24:57,163 ] -     (2): BasicBlock(
[ INFO : 2022-06-08 16:24:57,163 ] -       (conv1): Conv2d(32, 32, kernel_size=(3, 3), stride=(1, 1), padding=(1, 1), bias=False)
[ INFO : 2022-06-08 16:24:57,163 ] -       (bn1): BatchNorm2d(32, eps=1e-05, momentum=0.1, affine=True, track_running_stats=True)
[ INFO : 2022-06-08 16:24:57,163 ] -       (conv2): Conv2d(32, 32, kernel_size=(3, 3), stride=(1, 1), padding=(1, 1), bias=False)
[ INFO : 2022-06-08 16:24:57,163 ] -       (bn2): BatchNorm2d(32, eps=1e-05, momentum=0.1, affine=True, track_running_stats=True)
[ INFO : 2022-06-08 16:24:57,163 ] -       (shortcut): Sequential()
[ INFO : 2022-06-08 16:24:57,163 ] -     )
[ INFO : 2022-06-08 16:24:57,163 ] -   )
[ INFO : 2022-06-08 16:24:57,163 ] -   (layer2): Sequential(
[ INFO : 2022-06-08 16:24:57,163 ] -     (0): BasicBlock(
[ INFO : 2022-06-08 16:24:57,163 ] -       (conv1): Conv2d(32, 64, kernel_size=(3, 3), stride=(2, 2), padding=(1, 1), bias=False)
[ INFO : 2022-06-08 16:24:57,163 ] -       (bn1): BatchNorm2d(64, eps=1e-05, momentum=0.1, affine=True, track_running_stats=True)
[ INFO : 2022-06-08 16:24:57,164 ] -       (conv2): Conv2d(64, 64, kernel_size=(3, 3), stride=(1, 1), padding=(1, 1), bias=False)
[ INFO : 2022-06-08 16:24:57,164 ] -       (bn2): BatchNorm2d(64, eps=1e-05, momentum=0.1, affine=True, track_running_stats=True)
[ INFO : 2022-06-08 16:24:57,164 ] -       (shortcut): Sequential(
[ INFO : 2022-06-08 16:24:57,164 ] -         (0): Conv2d(32, 64, kernel_size=(1, 1), stride=(2, 2), bias=False)
[ INFO : 2022-06-08 16:24:57,164 ] -         (1): BatchNorm2d(64, eps=1e-05, momentum=0.1, affine=True, track_running_stats=True)
[ INFO : 2022-06-08 16:24:57,164 ] -       )
[ INFO : 2022-06-08 16:24:57,164 ] -     )
[ INFO : 2022-06-08 16:24:57,164 ] -     (1): BasicBlock(
[ INFO : 2022-06-08 16:24:57,164 ] -       (conv1): Conv2d(64, 64, kernel_size=(3, 3), stride=(1, 1), padding=(1, 1), bias=False)
[ INFO : 2022-06-08 16:24:57,164 ] -       (bn1): BatchNorm2d(64, eps=1e-05, momentum=0.1, affine=True, track_running_stats=True)
[ INFO : 2022-06-08 16:24:57,164 ] -       (conv2): Conv2d(64, 64, kernel_size=(3, 3), stride=(1, 1), padding=(1, 1), bias=False)
[ INFO : 2022-06-08 16:24:57,164 ] -       (bn2): BatchNorm2d(64, eps=1e-05, momentum=0.1, affine=True, track_running_stats=True)
[ INFO : 2022-06-08 16:24:57,165 ] -       (shortcut): Sequential()
[ INFO : 2022-06-08 16:24:57,165 ] -     )
[ INFO : 2022-06-08 16:24:57,165 ] -     (2): BasicBlock(
[ INFO : 2022-06-08 16:24:57,165 ] -       (conv1): Conv2d(64, 64, kernel_size=(3, 3), stride=(1, 1), padding=(1, 1), bias=False)
[ INFO : 2022-06-08 16:24:57,165 ] -       (bn1): BatchNorm2d(64, eps=1e-05, momentum=0.1, affine=True, track_running_stats=True)
[ INFO : 2022-06-08 16:24:57,165 ] -       (conv2): Conv2d(64, 64, kernel_size=(3, 3), stride=(1, 1), padding=(1, 1), bias=False)
[ INFO : 2022-06-08 16:24:57,165 ] -       (bn2): BatchNorm2d(64, eps=1e-05, momentum=0.1, affine=True, track_running_stats=True)
[ INFO : 2022-06-08 16:24:57,165 ] -       (shortcut): Sequential()
[ INFO : 2022-06-08 16:24:57,165 ] -     )
[ INFO : 2022-06-08 16:24:57,165 ] -     (3): BasicBlock(
[ INFO : 2022-06-08 16:24:57,165 ] -       (conv1): Conv2d(64, 64, kernel_size=(3, 3), stride=(1, 1), padding=(1, 1), bias=False)
[ INFO : 2022-06-08 16:24:57,165 ] -       (bn1): BatchNorm2d(64, eps=1e-05, momentum=0.1, affine=True, track_running_stats=True)
[ INFO : 2022-06-08 16:24:57,165 ] -       (conv2): Conv2d(64, 64, kernel_size=(3, 3), stride=(1, 1), padding=(1, 1), bias=False)
[ INFO : 2022-06-08 16:24:57,166 ] -       (bn2): BatchNorm2d(64, eps=1e-05, momentum=0.1, affine=True, track_running_stats=True)
[ INFO : 2022-06-08 16:24:57,166 ] -       (shortcut): Sequential()
[ INFO : 2022-06-08 16:24:57,166 ] -     )
[ INFO : 2022-06-08 16:24:57,166 ] -   )
[ INFO : 2022-06-08 16:24:57,166 ] -   (layer3): Sequential(
[ INFO : 2022-06-08 16:24:57,166 ] -     (0): BasicBlock(
[ INFO : 2022-06-08 16:24:57,166 ] -       (conv1): Conv2d(64, 128, kernel_size=(3, 3), stride=(2, 2), padding=(1, 1), bias=False)
[ INFO : 2022-06-08 16:24:57,166 ] -       (bn1): BatchNorm2d(128, eps=1e-05, momentum=0.1, affine=True, track_running_stats=True)
[ INFO : 2022-06-08 16:24:57,166 ] -       (conv2): Conv2d(128, 128, kernel_size=(3, 3), stride=(1, 1), padding=(1, 1), bias=False)
[ INFO : 2022-06-08 16:24:57,166 ] -       (bn2): BatchNorm2d(128, eps=1e-05, momentum=0.1, affine=True, track_running_stats=True)
[ INFO : 2022-06-08 16:24:57,166 ] -       (shortcut): Sequential(
[ INFO : 2022-06-08 16:24:57,166 ] -         (0): Conv2d(64, 128, kernel_size=(1, 1), stride=(2, 2), bias=False)
[ INFO : 2022-06-08 16:24:57,166 ] -         (1): BatchNorm2d(128, eps=1e-05, momentum=0.1, affine=True, track_running_stats=True)
[ INFO : 2022-06-08 16:24:57,167 ] -       )
[ INFO : 2022-06-08 16:24:57,167 ] -     )
[ INFO : 2022-06-08 16:24:57,167 ] -     (1): BasicBlock(
[ INFO : 2022-06-08 16:24:57,167 ] -       (conv1): Conv2d(128, 128, kernel_size=(3, 3), stride=(1, 1), padding=(1, 1), bias=False)
[ INFO : 2022-06-08 16:24:57,167 ] -       (bn1): BatchNorm2d(128, eps=1e-05, momentum=0.1, affine=True, track_running_stats=True)
[ INFO : 2022-06-08 16:24:57,167 ] -       (conv2): Conv2d(128, 128, kernel_size=(3, 3), stride=(1, 1), padding=(1, 1), bias=False)
[ INFO : 2022-06-08 16:24:57,167 ] -       (bn2): BatchNorm2d(128, eps=1e-05, momentum=0.1, affine=True, track_running_stats=True)
[ INFO : 2022-06-08 16:24:57,167 ] -       (shortcut): Sequential()
[ INFO : 2022-06-08 16:24:57,167 ] -     )
[ INFO : 2022-06-08 16:24:57,167 ] -     (2): BasicBlock(
[ INFO : 2022-06-08 16:24:57,167 ] -       (conv1): Conv2d(128, 128, kernel_size=(3, 3), stride=(1, 1), padding=(1, 1), bias=False)
[ INFO : 2022-06-08 16:24:57,167 ] -       (bn1): BatchNorm2d(128, eps=1e-05, momentum=0.1, affine=True, track_running_stats=True)
[ INFO : 2022-06-08 16:24:57,167 ] -       (conv2): Conv2d(128, 128, kernel_size=(3, 3), stride=(1, 1), padding=(1, 1), bias=False)
[ INFO : 2022-06-08 16:24:57,168 ] -       (bn2): BatchNorm2d(128, eps=1e-05, momentum=0.1, affine=True, track_running_stats=True)
[ INFO : 2022-06-08 16:24:57,168 ] -       (shortcut): Sequential()
[ INFO : 2022-06-08 16:24:57,168 ] -     )
[ INFO : 2022-06-08 16:24:57,168 ] -     (3): BasicBlock(
[ INFO : 2022-06-08 16:24:57,168 ] -       (conv1): Conv2d(128, 128, kernel_size=(3, 3), stride=(1, 1), padding=(1, 1), bias=False)
[ INFO : 2022-06-08 16:24:57,168 ] -       (bn1): BatchNorm2d(128, eps=1e-05, momentum=0.1, affine=True, track_running_stats=True)
[ INFO : 2022-06-08 16:24:57,168 ] -       (conv2): Conv2d(128, 128, kernel_size=(3, 3), stride=(1, 1), padding=(1, 1), bias=False)
[ INFO : 2022-06-08 16:24:57,168 ] -       (bn2): BatchNorm2d(128, eps=1e-05, momentum=0.1, affine=True, track_running_stats=True)
[ INFO : 2022-06-08 16:24:57,168 ] -       (shortcut): Sequential()
[ INFO : 2022-06-08 16:24:57,168 ] -     )
[ INFO : 2022-06-08 16:24:57,168 ] -     (4): BasicBlock(
[ INFO : 2022-06-08 16:24:57,168 ] -       (conv1): Conv2d(128, 128, kernel_size=(3, 3), stride=(1, 1), padding=(1, 1), bias=False)
[ INFO : 2022-06-08 16:24:57,169 ] -       (bn1): BatchNorm2d(128, eps=1e-05, momentum=0.1, affine=True, track_running_stats=True)
[ INFO : 2022-06-08 16:24:57,169 ] -       (conv2): Conv2d(128, 128, kernel_size=(3, 3), stride=(1, 1), padding=(1, 1), bias=False)
[ INFO : 2022-06-08 16:24:57,169 ] -       (bn2): BatchNorm2d(128, eps=1e-05, momentum=0.1, affine=True, track_running_stats=True)
[ INFO : 2022-06-08 16:24:57,169 ] -       (shortcut): Sequential()
[ INFO : 2022-06-08 16:24:57,169 ] -     )
[ INFO : 2022-06-08 16:24:57,169 ] -     (5): BasicBlock(
[ INFO : 2022-06-08 16:24:57,169 ] -       (conv1): Conv2d(128, 128, kernel_size=(3, 3), stride=(1, 1), padding=(1, 1), bias=False)
[ INFO : 2022-06-08 16:24:57,169 ] -       (bn1): BatchNorm2d(128, eps=1e-05, momentum=0.1, affine=True, track_running_stats=True)
[ INFO : 2022-06-08 16:24:57,169 ] -       (conv2): Conv2d(128, 128, kernel_size=(3, 3), stride=(1, 1), padding=(1, 1), bias=False)
[ INFO : 2022-06-08 16:24:57,169 ] -       (bn2): BatchNorm2d(128, eps=1e-05, momentum=0.1, affine=True, track_running_stats=True)
[ INFO : 2022-06-08 16:24:57,169 ] -       (shortcut): Sequential()
[ INFO : 2022-06-08 16:24:57,169 ] -     )
[ INFO : 2022-06-08 16:24:57,169 ] -   )
[ INFO : 2022-06-08 16:24:57,170 ] -   (layer4): Sequential(
[ INFO : 2022-06-08 16:24:57,170 ] -     (0): BasicBlock(
[ INFO : 2022-06-08 16:24:57,170 ] -       (conv1): Conv2d(128, 256, kernel_size=(3, 3), stride=(2, 2), padding=(1, 1), bias=False)
[ INFO : 2022-06-08 16:24:57,170 ] -       (bn1): BatchNorm2d(256, eps=1e-05, momentum=0.1, affine=True, track_running_stats=True)
[ INFO : 2022-06-08 16:24:57,170 ] -       (conv2): Conv2d(256, 256, kernel_size=(3, 3), stride=(1, 1), padding=(1, 1), bias=False)
[ INFO : 2022-06-08 16:24:57,170 ] -       (bn2): BatchNorm2d(256, eps=1e-05, momentum=0.1, affine=True, track_running_stats=True)
[ INFO : 2022-06-08 16:24:57,170 ] -       (shortcut): Sequential(
[ INFO : 2022-06-08 16:24:57,170 ] -         (0): Conv2d(128, 256, kernel_size=(1, 1), stride=(2, 2), bias=False)
[ INFO : 2022-06-08 16:24:57,170 ] -         (1): BatchNorm2d(256, eps=1e-05, momentum=0.1, affine=True, track_running_stats=True)
[ INFO : 2022-06-08 16:24:57,170 ] -       )
[ INFO : 2022-06-08 16:24:57,170 ] -     )
[ INFO : 2022-06-08 16:24:57,170 ] -     (1): BasicBlock(
[ INFO : 2022-06-08 16:24:57,170 ] -       (conv1): Conv2d(256, 256, kernel_size=(3, 3), stride=(1, 1), padding=(1, 1), bias=False)
[ INFO : 2022-06-08 16:24:57,171 ] -       (bn1): BatchNorm2d(256, eps=1e-05, momentum=0.1, affine=True, track_running_stats=True)
[ INFO : 2022-06-08 16:24:57,171 ] -       (conv2): Conv2d(256, 256, kernel_size=(3, 3), stride=(1, 1), padding=(1, 1), bias=False)
[ INFO : 2022-06-08 16:24:57,171 ] -       (bn2): BatchNorm2d(256, eps=1e-05, momentum=0.1, affine=True, track_running_stats=True)
[ INFO : 2022-06-08 16:24:57,171 ] -       (shortcut): Sequential()
[ INFO : 2022-06-08 16:24:57,171 ] -     )
[ INFO : 2022-06-08 16:24:57,171 ] -     (2): BasicBlock(
[ INFO : 2022-06-08 16:24:57,171 ] -       (conv1): Conv2d(256, 256, kernel_size=(3, 3), stride=(1, 1), padding=(1, 1), bias=False)
[ INFO : 2022-06-08 16:24:57,171 ] -       (bn1): BatchNorm2d(256, eps=1e-05, momentum=0.1, affine=True, track_running_stats=True)
[ INFO : 2022-06-08 16:24:57,171 ] -       (conv2): Conv2d(256, 256, kernel_size=(3, 3), stride=(1, 1), padding=(1, 1), bias=False)
[ INFO : 2022-06-08 16:24:57,171 ] -       (bn2): BatchNorm2d(256, eps=1e-05, momentum=0.1, affine=True, track_running_stats=True)
[ INFO : 2022-06-08 16:24:57,171 ] -       (shortcut): Sequential()
[ INFO : 2022-06-08 16:24:57,171 ] -     )
[ INFO : 2022-06-08 16:24:57,172 ] -   )
[ INFO : 2022-06-08 16:24:57,172 ] -   (pool): TSTP()
[ INFO : 2022-06-08 16:24:57,172 ] -   (seg_1): Linear(in_features=5120, out_features=256, bias=True)
[ INFO : 2022-06-08 16:24:57,172 ] -   (seg_bn_1): BatchNorm1d(256, eps=1e-05, momentum=0.1, affine=False, track_running_stats=True)
[ INFO : 2022-06-08 16:24:57,172 ] -   (seg_2): Linear(in_features=256, out_features=256, bias=True)
[ INFO : 2022-06-08 16:24:57,172 ] -   (projection): ArcMarginProduct(
[ INFO : 2022-06-08 16:24:57,172 ] -     in_features=256, out_features=17982, scale=32.0,
[ INFO : 2022-06-08 16:24:57,172 ] -                       margin=0.0, easy_margin=False
[ INFO : 2022-06-08 16:24:57,172 ] -   )
[ INFO : 2022-06-08 16:24:57,172 ] - )
[ INFO : 2022-06-08 16:24:57,876 ] - checkpoint: exp/ResNet101-TSTP-emb256-fbank80-num_frms200-aug0.6-spTrue-saFalse-ArcMargin-SGD-epoch150/models/model_45.pt
…
