…
[ INFO : 2022-06-08 18:52:16,198 ] - <== Data statistics ==>
[ INFO : 2022-06-08 18:52:16,198 ] - train data num: 1092009, spk num: 5994
[ INFO : 2022-06-08 18:52:16,208 ] - <== Dataloaders ==>
[ INFO : 2022-06-08 18:52:16,208 ] - train dataloaders created
[ INFO : 2022-06-08 18:52:16,208 ] - loader size: 1066
[ INFO : 2022-06-08 18:52:16,208 ] - <== Model ==>
[ INFO : 2022-06-08 18:52:16,270 ] - Load initial model from exp/ResNet101-TSTP-emb256-fbank80-num_frms200-aug0.6-spTrue-saFalse-ArcMargin-SGD-epoch150/models/model_45.pt
[ INFO : 2022-06-08 18:52:16,379 ] - ResNet(
[ INFO : 2022-06-08 18:52:16,379 ] -   (conv1): Conv2d(1, 32, kernel_size=(3, 3), stride=(1, 1), padding=(1, 1), bias=False)
[ INFO : 2022-06-08 18:52:16,379 ] -   (bn1): BatchNorm2d(32, eps=1e-05, momentum=0.1, affine=True, track_running_stats=True)
[ INFO : 2022-06-08 18:52:16,379 ] -   (layer1): Sequential(
[ INFO : 2022-06-08 18:52:16,379 ] -     (0): BasicBlock(
[ INFO : 2022-06-08 18:52:16,379 ] -       (conv1): Conv2d(32, 32, kernel_size=(3, 3), stride=(1, 1), padding=(1, 1), bias=False)
[ INFO : 2022-06-08 18:52:16,380 ] -       (bn1): BatchNorm2d(32, eps=1e-05, momentum=0.1, affine=True, track_running_stats=True)
[ INFO : 2022-06-08 18:52:16,380 ] -       (conv2): Conv2d(32, 32, kernel_size=(3, 3), stride=(1, 1), padding=(1, 1), bias=False)
[ INFO : 2022-06-08 18:52:16,380 ] -       (bn2): BatchNorm2d(32, eps=1e-05, momentum=0.1, affine=True, track_running_stats=True)
[ INFO : 2022-06-08 18:52:16,380 ] -       (shortcut): Sequential()
[ INFO : 2022-06-08 18:52:16,380 ] -     )
[ INFO : 2022-06-08 18:52:16,380 ] -     (1): BasicBlock(
[ INFO : 2022-06-08 18:52:16,380 ] -       (conv1): Conv2d(32, 32, kernel_size=(3, 3), stride=(1, 1), padding=(1, 1), bias=False)
[ INFO : 2022-06-08 18:52:16,380 ] -       (bn1): BatchNorm2d(32, eps=1e-05, momentum=0.1, affine=True, track_running_stats=True)
[ INFO : 2022-06-08 18:52:16,380 ] -       (conv2): Conv2d(32, 32, kernel_size=(3, 3), stride=(1, 1), padding=(1, 1), bias=False)
[ INFO : 2022-06-08 18:52:16,380 ] -       (bn2): BatchNorm2d(32, eps=1e-05, momentum=0.1, affine=True, track_running_stats=True)
[ INFO : 2022-06-08 18:52:16,380 ] -       (shortcut): Sequential()
[ INFO : 2022-06-08 18:52:16,381 ] -     )
[ INFO : 2022-06-08 18:52:16,381 ] -     (2): BasicBlock(
[ INFO : 2022-06-08 18:52:16,381 ] -       (conv1): Conv2d(32, 32, kernel_size=(3, 3), stride=(1, 1), padding=(1, 1), bias=False)
[ INFO : 2022-06-08 18:52:16,381 ] -       (bn1): BatchNorm2d(32, eps=1e-05, momentum=0.1, affine=True, track_running_stats=True)
[ INFO : 2022-06-08 18:52:16,381 ] -       (conv2): Conv2d(32, 32, kernel_size=(3, 3), stride=(1, 1), padding=(1, 1), bias=False)
[ INFO : 2022-06-08 18:52:16,381 ] -       (bn2): BatchNorm2d(32, eps=1e-05, momentum=0.1, affine=True, track_running_stats=True)
[ INFO : 2022-06-08 18:52:16,381 ] -       (shortcut): Sequential()
[ INFO : 2022-06-08 18:52:16,381 ] -     )
[ INFO : 2022-06-08 18:52:16,381 ] -   )
[ INFO : 2022-06-08 18:52:16,381 ] -   (layer2): Sequential(
[ INFO : 2022-06-08 18:52:16,381 ] -     (0): BasicBlock(
[ INFO : 2022-06-08 18:52:16,381 ] -       (conv1): Conv2d(32, 64, kernel_size=(3, 3), stride=(2, 2), padding=(1, 1), bias=False)
[ INFO : 2022-06-08 18:52:16,382 ] -       (bn1): BatchNorm2d(64, eps=1e-05, momentum=0.1, affine=True, track_running_stats=True)
[ INFO : 2022-06-08 18:52:16,382 ] -       (conv2): Conv2d(64, 64, kernel_size=(3, 3), stride=(1, 1), padding=(1, 1), bias=False)
[ INFO : 2022-06-08 18:52:16,382 ] -       (bn2): BatchNorm2d(64, eps=1e-05, momentum=0.1, affine=True, track_running_stats=True)
[ INFO : 2022-06-08 18:52:16,382 ] -       (shortcut): Sequential(
[ INFO : 2022-06-08 18:52:16,382 ] -         (0): Conv2d(32, 64, kernel_size=(1, 1), stride=(2, 2), bias=False)
[ INFO : 2022-06-08 18:52:16,382 ] -         (1): BatchNorm2d(64, eps=1e-05, momentum=0.1, affine=True, track_running_stats=True)
[ INFO : 2022-06-08 18:52:16,382 ] -       )
[ INFO : 2022-06-08 18:52:16,382 ] -     )
[ INFO : 2022-06-08 18:52:16,382 ] -     (1): BasicBlock(
[ INFO : 2022-06-08 18:52:16,382 ] -       (conv1): Conv2d(64, 64, kernel_size=(3, 3), stride=(1, 1), padding=(1, 1), bias=False)
[ INFO : 2022-06-08 18:52:16,382 ] -       (bn1): BatchNorm2d(64, eps=1e-05, momentum=0.1, affine=True, track_running_stats=True)
[ INFO : 2022-06-08 18:52:16,382 ] -       (conv2): Conv2d(64, 64, kernel_size=(3, 3), stride=(1, 1), padding=(1, 1), bias=False)
[ INFO : 2022-06-08 18:52:16,383 ] -       (bn2): BatchNorm2d(64, eps=1e-05, momentum=0.1, affine=True, track_running_stats=True)
[ INFO : 2022-06-08 18:52:16,383 ] -       (shortcut): Sequential()
[ INFO : 2022-06-08 18:52:16,383 ] -     )
[ INFO : 2022-06-08 18:52:16,383 ] -     (2): BasicBlock(
[ INFO : 2022-06-08 18:52:16,383 ] -       (conv1): Conv2d(64, 64, kernel_size=(3, 3), stride=(1, 1), padding=(1, 1), bias=False)
[ INFO : 2022-06-08 18:52:16,383 ] -       (bn1): BatchNorm2d(64, eps=1e-05, momentum=0.1, affine=True, track_running_stats=True)
[ INFO : 2022-06-08 18:52:16,383 ] -       (conv2): Conv2d(64, 64, kernel_size=(3, 3), stride=(1, 1), padding=(1, 1), bias=False)
[ INFO : 2022-06-08 18:52:16,383 ] -       (bn2): BatchNorm2d(64, eps=1e-05, momentum=0.1, affine=True, track_running_stats=True)
[ INFO : 2022-06-08 18:52:16,383 ] -       (shortcut): Sequential()
[ INFO : 2022-06-08 18:52:16,383 ] -     )
[ INFO : 2022-06-08 18:52:16,383 ] -     (3): BasicBlock(
[ INFO : 2022-06-08 18:52:16,383 ] -       (conv1): Conv2d(64, 64, kernel_size=(3, 3), stride=(1, 1), padding=(1, 1), bias=False)
[ INFO : 2022-06-08 18:52:16,384 ] -       (bn1): BatchNorm2d(64, eps=1e-05, momentum=0.1, affine=True, track_running_stats=True)
[ INFO : 2022-06-08 18:52:16,384 ] -       (conv2): Conv2d(64, 64, kernel_size=(3, 3), stride=(1, 1), padding=(1, 1), bias=False)
[ INFO : 2022-06-08 18:52:16,384 ] -       (bn2): BatchNorm2d(64, eps=1e-05, momentum=0.1, affine=True, track_running_stats=True)
[ INFO : 2022-06-08 18:52:16,384 ] -       (shortcut): Sequential()
[ INFO : 2022-06-08 18:52:16,384 ] -     )
[ INFO : 2022-06-08 18:52:16,384 ] -   )
[ INFO : 2022-06-08 18:52:16,384 ] -   (layer3): Sequential(
[ INFO : 2022-06-08 18:52:16,384 ] -     (0): BasicBlock(
[ INFO : 2022-06-08 18:52:16,384 ] -       (conv1): Conv2d(64, 128, kernel_size=(3, 3), stride=(2, 2), padding=(1, 1), bias=False)
[ INFO : 2022-06-08 18:52:16,384 ] -       (bn1): BatchNorm2d(128, eps=1e-05, momentum=0.1, affine=True, track_running_stats=True)
[ INFO : 2022-06-08 18:52:16,384 ] -       (conv2): Conv2d(128, 128, kernel_size=(3, 3), stride=(1, 1), padding=(1, 1), bias=False)
[ INFO : 2022-06-08 18:52:16,384 ] -       (bn2): BatchNorm2d(128, eps=1e-05, momentum=0.1, affine=True, track_running_stats=True)
[ INFO : 2022-06-08 18:52:16,385 ] -       (shortcut): Sequential(
[ INFO : 2022-06-08 18:52:16,385 ] -         (0): Conv2d(64, 128, kernel_size=(1, 1), stride=(2, 2), bias=False)
[ INFO : 2022-06-08 18:52:16,385 ] -         (1): BatchNorm2d(128, eps=1e-05, momentum=0.1, affine=True, track_running_stats=True)
[ INFO : 2022-06-08 18:52:16,385 ] -       )
[ INFO : 2022-06-08 18:52:16,385 ] -     )
[ INFO : 2022-06-08 18:52:16,385 ] -     (1): BasicBlock(
[ INFO : 2022-06-08 18:52:16,385 ] -       (conv1): Conv2d(128, 128, kernel_size=(3, 3), stride=(1, 1), padding=(1, 1), bias=False)
[ INFO : 2022-06-08 18:52:16,385 ] -       (bn1): BatchNorm2d(128, eps=1e-05, momentum=0.1, affine=True, track_running_stats=True)
[ INFO : 2022-06-08 18:52:16,385 ] -       (conv2): Conv2d(128, 128, kernel_size=(3, 3), stride=(1, 1), padding=(1, 1), bias=False)
[ INFO : 2022-06-08 18:52:16,385 ] -       (bn2): BatchNorm2d(128, eps=1e-05, momentum=0.1, affine=True, track_running_stats=True)
[ INFO : 2022-06-08 18:52:16,385 ] -       (shortcut): Sequential()
[ INFO : 2022-06-08 18:52:16,385 ] -     )
[ INFO : 2022-06-08 18:52:16,386 ] -     (2): BasicBlock(
[ INFO : 2022-06-08 18:52:16,386 ] -       (conv1): Conv2d(128, 128, kernel_size=(3, 3), stride=(1, 1), padding=(1, 1), bias=False)
[ INFO : 2022-06-08 18:52:16,386 ] -       (bn1): BatchNorm2d(128, eps=1e-05, momentum=0.1, affine=True, track_running_stats=True)
[ INFO : 2022-06-08 18:52:16,386 ] -       (conv2): Conv2d(128, 128, kernel_size=(3, 3), stride=(1, 1), padding=(1, 1), bias=False)
[ INFO : 2022-06-08 18:52:16,386 ] -       (bn2): BatchNorm2d(128, eps=1e-05, momentum=0.1, affine=True, track_running_stats=True)
[ INFO : 2022-06-08 18:52:16,386 ] -       (shortcut): Sequential()
[ INFO : 2022-06-08 18:52:16,386 ] -     )
[ INFO : 2022-06-08 18:52:16,386 ] -     (3): BasicBlock(
[ INFO : 2022-06-08 18:52:16,386 ] -       (conv1): Conv2d(128, 128, kernel_size=(3, 3), stride=(1, 1), padding=(1, 1), bias=False)
[ INFO : 2022-06-08 18:52:16,386 ] -       (bn1): BatchNorm2d(128, eps=1e-05, momentum=0.1, affine=True, track_running_stats=True)
[ INFO : 2022-06-08 18:52:16,386 ] -       (conv2): Conv2d(128, 128, kernel_size=(3, 3), stride=(1, 1), padding=(1, 1), bias=False)
[ INFO : 2022-06-08 18:52:16,386 ] -       (bn2): BatchNorm2d(128, eps=1e-05, momentum=0.1, affine=True, track_running_stats=True)
[ INFO : 2022-06-08 18:52:16,387 ] -       (shortcut): Sequential()
[ INFO : 2022-06-08 18:52:16,387 ] -     )
[ INFO : 2022-06-08 18:52:16,387 ] -     (4): BasicBlock(
[ INFO : 2022-06-08 18:52:16,387 ] -       (conv1): Conv2d(128, 128, kernel_size=(3, 3), stride=(1, 1), padding=(1, 1), bias=False)
[ INFO : 2022-06-08 18:52:16,387 ] -       (bn1): BatchNorm2d(128, eps=1e-05, momentum=0.1, affine=True, track_running_stats=True)
[ INFO : 2022-06-08 18:52:16,387 ] -       (conv2): Conv2d(128, 128, kernel_size=(3, 3), stride=(1, 1), padding=(1, 1), bias=False)
[ INFO : 2022-06-08 18:52:16,387 ] -       (bn2): BatchNorm2d(128, eps=1e-05, momentum=0.1, affine=True, track_running_stats=True)
[ INFO : 2022-06-08 18:52:16,387 ] -       (shortcut): Sequential()
[ INFO : 2022-06-08 18:52:16,387 ] -     )
[ INFO : 2022-06-08 18:52:16,387 ] -     (5): BasicBlock(
[ INFO : 2022-06-08 18:52:16,387 ] -       (conv1): Conv2d(128, 128, kernel_size=(3, 3), stride=(1, 1), padding=(1, 1), bias=False)
[ INFO : 2022-06-08 18:52:16,388 ] -       (bn1): BatchNorm2d(128, eps=1e-05, momentum=0.1, affine=True, track_running_stats=True)
[ INFO : 2022-06-08 18:52:16,388 ] -       (conv2): Conv2d(128, 128, kernel_size=(3, 3), stride=(1, 1), padding=(1, 1), bias=False)
[ INFO : 2022-06-08 18:52:16,388 ] -       (bn2): BatchNorm2d(128, eps=1e-05, momentum=0.1, affine=True, track_running_stats=True)
[ INFO : 2022-06-08 18:52:16,388 ] -       (shortcut): Sequential()
[ INFO : 2022-06-08 18:52:16,388 ] -     )
[ INFO : 2022-06-08 18:52:16,388 ] -   )
[ INFO : 2022-06-08 18:52:16,388 ] -   (layer4): Sequential(
[ INFO : 2022-06-08 18:52:16,388 ] -     (0): BasicBlock(
[ INFO : 2022-06-08 18:52:16,388 ] -       (conv1): Conv2d(128, 256, kernel_size=(3, 3), stride=(2, 2), padding=(1, 1), bias=False)
[ INFO : 2022-06-08 18:52:16,388 ] -       (bn1): BatchNorm2d(256, eps=1e-05, momentum=0.1, affine=True, track_running_stats=True)
[ INFO : 2022-06-08 18:52:16,388 ] -       (conv2): Conv2d(256, 256, kernel_size=(3, 3), stride=(1, 1), padding=(1, 1), bias=False)
[ INFO : 2022-06-08 18:52:16,388 ] -       (bn2): BatchNorm2d(256, eps=1e-05, momentum=0.1, affine=True, track_running_stats=True)
[ INFO : 2022-06-08 18:52:16,389 ] -       (shortcut): Sequential(
[ INFO : 2022-06-08 18:52:16,389 ] -         (0): Conv2d(128, 256, kernel_size=(1, 1), stride=(2, 2), bias=False)
[ INFO : 2022-06-08 18:52:16,389 ] -         (1): BatchNorm2d(256, eps=1e-05, momentum=0.1, affine=True, track_running_stats=True)
[ INFO : 2022-06-08 18:52:16,389 ] -       )
[ INFO : 2022-06-08 18:52:16,389 ] -     )
[ INFO : 2022-06-08 18:52:16,389 ] -     (1): BasicBlock(
[ INFO : 2022-06-08 18:52:16,389 ] -       (conv1): Conv2d(256, 256, kernel_size=(3, 3), stride=(1, 1), padding=(1, 1), bias=False)
[ INFO : 2022-06-08 18:52:16,389 ] -       (bn1): BatchNorm2d(256, eps=1e-05, momentum=0.1, affine=True, track_running_stats=True)
[ INFO : 2022-06-08 18:52:16,389 ] -       (conv2): Conv2d(256, 256, kernel_size=(3, 3), stride=(1, 1), padding=(1, 1), bias=False)
[ INFO : 2022-06-08 18:52:16,389 ] -       (bn2): BatchNorm2d(256, eps=1e-05, momentum=0.1, affine=True, track_running_stats=True)
[ INFO : 2022-06-08 18:52:16,389 ] -       (shortcut): Sequential()
[ INFO : 2022-06-08 18:52:16,389 ] -     )
[ INFO : 2022-06-08 18:52:16,390 ] -     (2): BasicBlock(
[ INFO : 2022-06-08 18:52:16,390 ] -       (conv1): Conv2d(256, 256, kernel_size=(3, 3), stride=(1, 1), padding=(1, 1), bias=False)
[ INFO : 2022-06-08 18:52:16,390 ] -       (bn1): BatchNorm2d(256, eps=1e-05, momentum=0.1, affine=True, track_running_stats=True)
[ INFO : 2022-06-08 18:52:16,390 ] -       (conv2): Conv2d(256, 256, kernel_size=(3, 3), stride=(1, 1), padding=(1, 1), bias=False)
[ INFO : 2022-06-08 18:52:16,390 ] -       (bn2): BatchNorm2d(256, eps=1e-05, momentum=0.1, affine=True, track_running_stats=True)
[ INFO : 2022-06-08 18:52:16,390 ] -       (shortcut): Sequential()
[ INFO : 2022-06-08 18:52:16,390 ] -     )
[ INFO : 2022-06-08 18:52:16,390 ] -   )
[ INFO : 2022-06-08 18:52:16,390 ] -   (pool): TSTP()
[ INFO : 2022-06-08 18:52:16,390 ] -   (seg_1): Linear(in_features=5120, out_features=256, bias=True)
[ INFO : 2022-06-08 18:52:16,390 ] -   (seg_bn_1): BatchNorm1d(256, eps=1e-05, momentum=0.1, affine=False, track_running_stats=True)
[ INFO : 2022-06-08 18:52:16,390 ] -   (seg_2): Linear(in_features=256, out_features=256, bias=True)
[ INFO : 2022-06-08 18:52:16,391 ] -   (projection): ArcMarginProduct(
[ INFO : 2022-06-08 18:52:16,391 ] -     in_features=256, out_features=17982, scale=32.0,
[ INFO : 2022-06-08 18:52:16,391 ] -                       margin=0.0, easy_margin=False
[ INFO : 2022-06-08 18:52:16,391 ] -   )
[ INFO : 2022-06-08 18:52:16,391 ] - )
[ INFO : 2022-06-08 18:52:17,128 ] - checkpoint: exp/ResNet101-TSTP-emb256-fbank80-num_frms200-aug0.6-spTrue-saFalse-ArcMargin-SGD-epoch150/models/model_45.pt
…
