…
[ INFO : 2022-06-16 11:54:43,454 ] - <== Data statistics ==>
[ INFO : 2022-06-16 11:54:43,454 ] - train data num: 1747308, spk num: 29501
[ INFO : 2022-06-16 11:54:43,464 ] - <== Dataloaders ==>
[ INFO : 2022-06-16 11:54:43,464 ] - train dataloaders created
[ INFO : 2022-06-16 11:54:43,464 ] - loader size: 2275
[ INFO : 2022-06-16 11:54:43,465 ] - <== Model ==>
[ INFO : 2022-06-16 11:54:43,525 ] - Load initial model from exp/ResNet101-TSTP-emb256-fbank80-num_frms200-aug0.6-spTrue-saFalse-ArcMargin-SGD-epoch150/models/model_45.pt
[ INFO : 2022-06-16 11:54:43,804 ] - ResNet(
[ INFO : 2022-06-16 11:54:43,804 ] -   (conv1): Conv2d(1, 32, kernel_size=(3, 3), stride=(1, 1), padding=(1, 1), bias=False)
[ INFO : 2022-06-16 11:54:43,804 ] -   (bn1): BatchNorm2d(32, eps=1e-05, momentum=0.1, affine=True, track_running_stats=True)
[ INFO : 2022-06-16 11:54:43,805 ] -   (layer1): Sequential(
[ INFO : 2022-06-16 11:54:43,805 ] -     (0): BasicBlock(
[ INFO : 2022-06-16 11:54:43,805 ] -       (conv1): Conv2d(32, 32, kernel_size=(3, 3), stride=(1, 1), padding=(1, 1), bias=False)
[ INFO : 2022-06-16 11:54:43,805 ] -       (bn1): BatchNorm2d(32, eps=1e-05, momentum=0.1, affine=True, track_running_stats=True)
[ INFO : 2022-06-16 11:54:43,805 ] -       (conv2): Conv2d(32, 32, kernel_size=(3, 3), stride=(1, 1), padding=(1, 1), bias=False)
[ INFO : 2022-06-16 11:54:43,805 ] -       (bn2): BatchNorm2d(32, eps=1e-05, momentum=0.1, affine=True, track_running_stats=True)
[ INFO : 2022-06-16 11:54:43,805 ] -       (shortcut): Sequential()
[ INFO : 2022-06-16 11:54:43,805 ] -     )
[ INFO : 2022-06-16 11:54:43,805 ] -     (1): BasicBlock(
[ INFO : 2022-06-16 11:54:43,805 ] -       (conv1): Conv2d(32, 32, kernel_size=(3, 3), stride=(1, 1), padding=(1, 1), bias=False)
[ INFO : 2022-06-16 11:54:43,805 ] -       (bn1): BatchNorm2d(32, eps=1e-05, momentum=0.1, affine=True, track_running_stats=True)
[ INFO : 2022-06-16 11:54:43,806 ] -       (conv2): Conv2d(32, 32, kernel_size=(3, 3), stride=(1, 1), padding=(1, 1), bias=False)
[ INFO : 2022-06-16 11:54:43,806 ] -       (bn2): BatchNorm2d(32, eps=1e-05, momentum=0.1, affine=True, track_running_stats=True)
[ INFO : 2022-06-16 11:54:43,806 ] -       (shortcut): Sequential()
[ INFO : 2022-06-16 11:54:43,806 ] -     )
[ INFO : 2022-06-16 11:54:43,806 ] -     (2): BasicBlock(
[ INFO : 2022-06-16 11:54:43,806 ] -       (conv1): Conv2d(32, 32, kernel_size=(3, 3), stride=(1, 1), padding=(1, 1), bias=False)
[ INFO : 2022-06-16 11:54:43,806 ] -       (bn1): BatchNorm2d(32, eps=1e-05, momentum=0.1, affine=True, track_running_stats=True)
[ INFO : 2022-06-16 11:54:43,806 ] -       (conv2): Conv2d(32, 32, kernel_size=(3, 3), stride=(1, 1), padding=(1, 1), bias=False)
[ INFO : 2022-06-16 11:54:43,806 ] -       (bn2): BatchNorm2d(32, eps=1e-05, momentum=0.1, affine=True, track_running_stats=True)
[ INFO : 2022-06-16 11:54:43,806 ] -       (shortcut): Sequential()
[ INFO : 2022-06-16 11:54:43,806 ] -     )
[ INFO : 2022-06-16 11:54:43,807 ] -   )
[ INFO : 2022-06-16 11:54:43,807 ] -   (layer2): Sequential(
[ INFO : 2022-06-16 11:54:43,807 ] -     (0): BasicBlock(
[ INFO : 2022-06-16 11:54:43,807 ] -       (conv1): Conv2d(32, 64, kernel_size=(3, 3), stride=(2, 2), padding=(1, 1), bias=False)
[ INFO : 2022-06-16 11:54:43,807 ] -       (bn1): BatchNorm2d(64, eps=1e-05, momentum=0.1, affine=True, track_running_stats=True)
[ INFO : 2022-06-16 11:54:43,807 ] -       (conv2): Conv2d(64, 64, kernel_size=(3, 3), stride=(1, 1), padding=(1, 1), bias=False)
[ INFO : 2022-06-16 11:54:43,807 ] -       (bn2): BatchNorm2d(64, eps=1e-05, momentum=0.1, affine=True, track_running_stats=True)
[ INFO : 2022-06-16 11:54:43,807 ] -       (shortcut): Sequential(
[ INFO : 2022-06-16 11:54:43,807 ] -         (0): Conv2d(32, 64, kernel_size=(1, 1), stride=(2, 2), bias=False)
[ INFO : 2022-06-16 11:54:43,807 ] -         (1): BatchNorm2d(64, eps=1e-05, momentum=0.1, affine=True, track_running_stats=True)
[ INFO : 2022-06-16 11:54:43,807 ] -       )
[ INFO : 2022-06-16 11:54:43,808 ] -     )
[ INFO : 2022-06-16 11:54:43,808 ] -     (1): BasicBlock(
[ INFO : 2022-06-16 11:54:43,808 ] -       (conv1): Conv2d(64, 64, kernel_size=(3, 3), stride=(1, 1), padding=(1, 1), bias=False)
[ INFO : 2022-06-16 11:54:43,808 ] -       (bn1): BatchNorm2d(64, eps=1e-05, momentum=0.1, affine=True, track_running_stats=True)
[ INFO : 2022-06-16 11:54:43,808 ] -       (conv2): Conv2d(64, 64, kernel_size=(3, 3), stride=(1, 1), padding=(1, 1), bias=False)
[ INFO : 2022-06-16 11:54:43,808 ] -       (bn2): BatchNorm2d(64, eps=1e-05, momentum=0.1, affine=True, track_running_stats=True)
[ INFO : 2022-06-16 11:54:43,808 ] -       (shortcut): Sequential()
[ INFO : 2022-06-16 11:54:43,808 ] -     )
[ INFO : 2022-06-16 11:54:43,808 ] -     (2): BasicBlock(
[ INFO : 2022-06-16 11:54:43,808 ] -       (conv1): Conv2d(64, 64, kernel_size=(3, 3), stride=(1, 1), padding=(1, 1), bias=False)
[ INFO : 2022-06-16 11:54:43,808 ] -       (bn1): BatchNorm2d(64, eps=1e-05, momentum=0.1, affine=True, track_running_stats=True)
[ INFO : 2022-06-16 11:54:43,809 ] -       (conv2): Conv2d(64, 64, kernel_size=(3, 3), stride=(1, 1), padding=(1, 1), bias=False)
[ INFO : 2022-06-16 11:54:43,809 ] -       (bn2): BatchNorm2d(64, eps=1e-05, momentum=0.1, affine=True, track_running_stats=True)
[ INFO : 2022-06-16 11:54:43,809 ] -       (shortcut): Sequential()
[ INFO : 2022-06-16 11:54:43,809 ] -     )
[ INFO : 2022-06-16 11:54:43,809 ] -     (3): BasicBlock(
[ INFO : 2022-06-16 11:54:43,809 ] -       (conv1): Conv2d(64, 64, kernel_size=(3, 3), stride=(1, 1), padding=(1, 1), bias=False)
[ INFO : 2022-06-16 11:54:43,809 ] -       (bn1): BatchNorm2d(64, eps=1e-05, momentum=0.1, affine=True, track_running_stats=True)
[ INFO : 2022-06-16 11:54:43,809 ] -       (conv2): Conv2d(64, 64, kernel_size=(3, 3), stride=(1, 1), padding=(1, 1), bias=False)
[ INFO : 2022-06-16 11:54:43,809 ] -       (bn2): BatchNorm2d(64, eps=1e-05, momentum=0.1, affine=True, track_running_stats=True)
[ INFO : 2022-06-16 11:54:43,809 ] -       (shortcut): Sequential()
[ INFO : 2022-06-16 11:54:43,809 ] -     )
[ INFO : 2022-06-16 11:54:43,809 ] -   )
[ INFO : 2022-06-16 11:54:43,810 ] -   (layer3): Sequential(
[ INFO : 2022-06-16 11:54:43,810 ] -     (0): BasicBlock(
[ INFO : 2022-06-16 11:54:43,810 ] -       (conv1): Conv2d(64, 128, kernel_size=(3, 3), stride=(2, 2), padding=(1, 1), bias=False)
[ INFO : 2022-06-16 11:54:43,810 ] -       (bn1): BatchNorm2d(128, eps=1e-05, momentum=0.1, affine=True, track_running_stats=True)
[ INFO : 2022-06-16 11:54:43,810 ] -       (conv2): Conv2d(128, 128, kernel_size=(3, 3), stride=(1, 1), padding=(1, 1), bias=False)
[ INFO : 2022-06-16 11:54:43,810 ] -       (bn2): BatchNorm2d(128, eps=1e-05, momentum=0.1, affine=True, track_running_stats=True)
[ INFO : 2022-06-16 11:54:43,810 ] -       (shortcut): Sequential(
[ INFO : 2022-06-16 11:54:43,810 ] -         (0): Conv2d(64, 128, kernel_size=(1, 1), stride=(2, 2), bias=False)
[ INFO : 2022-06-16 11:54:43,810 ] -         (1): BatchNorm2d(128, eps=1e-05, momentum=0.1, affine=True, track_running_stats=True)
[ INFO : 2022-06-16 11:54:43,810 ] -       )
[ INFO : 2022-06-16 11:54:43,810 ] -     )
[ INFO : 2022-06-16 11:54:43,810 ] -     (1): BasicBlock(
[ INFO : 2022-06-16 11:54:43,811 ] -       (conv1): Conv2d(128, 128, kernel_size=(3, 3), stride=(1, 1), padding=(1, 1), bias=False)
[ INFO : 2022-06-16 11:54:43,811 ] -       (bn1): BatchNorm2d(128, eps=1e-05, momentum=0.1, affine=True, track_running_stats=True)
[ INFO : 2022-06-16 11:54:43,811 ] -       (conv2): Conv2d(128, 128, kernel_size=(3, 3), stride=(1, 1), padding=(1, 1), bias=False)
[ INFO : 2022-06-16 11:54:43,811 ] -       (bn2): BatchNorm2d(128, eps=1e-05, momentum=0.1, affine=True, track_running_stats=True)
[ INFO : 2022-06-16 11:54:43,811 ] -       (shortcut): Sequential()
[ INFO : 2022-06-16 11:54:43,811 ] -     )
[ INFO : 2022-06-16 11:54:43,811 ] -     (2): BasicBlock(
[ INFO : 2022-06-16 11:54:43,811 ] -       (conv1): Conv2d(128, 128, kernel_size=(3, 3), stride=(1, 1), padding=(1, 1), bias=False)
[ INFO : 2022-06-16 11:54:43,811 ] -       (bn1): BatchNorm2d(128, eps=1e-05, momentum=0.1, affine=True, track_running_stats=True)
[ INFO : 2022-06-16 11:54:43,811 ] -       (conv2): Conv2d(128, 128, kernel_size=(3, 3), stride=(1, 1), padding=(1, 1), bias=False)
[ INFO : 2022-06-16 11:54:43,811 ] -       (bn2): BatchNorm2d(128, eps=1e-05, momentum=0.1, affine=True, track_running_stats=True)
[ INFO : 2022-06-16 11:54:43,811 ] -       (shortcut): Sequential()
[ INFO : 2022-06-16 11:54:43,812 ] -     )
[ INFO : 2022-06-16 11:54:43,812 ] -     (3): BasicBlock(
[ INFO : 2022-06-16 11:54:43,812 ] -       (conv1): Conv2d(128, 128, kernel_size=(3, 3), stride=(1, 1), padding=(1, 1), bias=False)
[ INFO : 2022-06-16 11:54:43,812 ] -       (bn1): BatchNorm2d(128, eps=1e-05, momentum=0.1, affine=True, track_running_stats=True)
[ INFO : 2022-06-16 11:54:43,812 ] -       (conv2): Conv2d(128, 128, kernel_size=(3, 3), stride=(1, 1), padding=(1, 1), bias=False)
[ INFO : 2022-06-16 11:54:43,812 ] -       (bn2): BatchNorm2d(128, eps=1e-05, momentum=0.1, affine=True, track_running_stats=True)
[ INFO : 2022-06-16 11:54:43,812 ] -       (shortcut): Sequential()
[ INFO : 2022-06-16 11:54:43,812 ] -     )
[ INFO : 2022-06-16 11:54:43,812 ] -     (4): BasicBlock(
[ INFO : 2022-06-16 11:54:43,812 ] -       (conv1): Conv2d(128, 128, kernel_size=(3, 3), stride=(1, 1), padding=(1, 1), bias=False)
[ INFO : 2022-06-16 11:54:43,812 ] -       (bn1): BatchNorm2d(128, eps=1e-05, momentum=0.1, affine=True, track_running_stats=True)
[ INFO : 2022-06-16 11:54:43,812 ] -       (conv2): Conv2d(128, 128, kernel_size=(3, 3), stride=(1, 1), padding=(1, 1), bias=False)
[ INFO : 2022-06-16 11:54:43,813 ] -       (bn2): BatchNorm2d(128, eps=1e-05, momentum=0.1, affine=True, track_running_stats=True)
[ INFO : 2022-06-16 11:54:43,813 ] -       (shortcut): Sequential()
[ INFO : 2022-06-16 11:54:43,813 ] -     )
[ INFO : 2022-06-16 11:54:43,813 ] -     (5): BasicBlock(
[ INFO : 2022-06-16 11:54:43,813 ] -       (conv1): Conv2d(128, 128, kernel_size=(3, 3), stride=(1, 1), padding=(1, 1), bias=False)
[ INFO : 2022-06-16 11:54:43,813 ] -       (bn1): BatchNorm2d(128, eps=1e-05, momentum=0.1, affine=True, track_running_stats=True)
[ INFO : 2022-06-16 11:54:43,813 ] -       (conv2): Conv2d(128, 128, kernel_size=(3, 3), stride=(1, 1), padding=(1, 1), bias=False)
[ INFO : 2022-06-16 11:54:43,813 ] -       (bn2): BatchNorm2d(128, eps=1e-05, momentum=0.1, affine=True, track_running_stats=True)
[ INFO : 2022-06-16 11:54:43,813 ] -       (shortcut): Sequential()
[ INFO : 2022-06-16 11:54:43,813 ] -     )
[ INFO : 2022-06-16 11:54:43,813 ] -   )
[ INFO : 2022-06-16 11:54:43,813 ] -   (layer4): Sequential(
[ INFO : 2022-06-16 11:54:43,814 ] -     (0): BasicBlock(
[ INFO : 2022-06-16 11:54:43,814 ] -       (conv1): Conv2d(128, 256, kernel_size=(3, 3), stride=(2, 2), padding=(1, 1), bias=False)
[ INFO : 2022-06-16 11:54:43,814 ] -       (bn1): BatchNorm2d(256, eps=1e-05, momentum=0.1, affine=True, track_running_stats=True)
[ INFO : 2022-06-16 11:54:43,814 ] -       (conv2): Conv2d(256, 256, kernel_size=(3, 3), stride=(1, 1), padding=(1, 1), bias=False)
[ INFO : 2022-06-16 11:54:43,814 ] -       (bn2): BatchNorm2d(256, eps=1e-05, momentum=0.1, affine=True, track_running_stats=True)
[ INFO : 2022-06-16 11:54:43,814 ] -       (shortcut): Sequential(
[ INFO : 2022-06-16 11:54:43,814 ] -         (0): Conv2d(128, 256, kernel_size=(1, 1), stride=(2, 2), bias=False)
[ INFO : 2022-06-16 11:54:43,814 ] -         (1): BatchNorm2d(256, eps=1e-05, momentum=0.1, affine=True, track_running_stats=True)
[ INFO : 2022-06-16 11:54:43,814 ] -       )
[ INFO : 2022-06-16 11:54:43,814 ] -     )
[ INFO : 2022-06-16 11:54:43,814 ] -     (1): BasicBlock(
[ INFO : 2022-06-16 11:54:43,814 ] -       (conv1): Conv2d(256, 256, kernel_size=(3, 3), stride=(1, 1), padding=(1, 1), bias=False)
[ INFO : 2022-06-16 11:54:43,815 ] -       (bn1): BatchNorm2d(256, eps=1e-05, momentum=0.1, affine=True, track_running_stats=True)
[ INFO : 2022-06-16 11:54:43,815 ] -       (conv2): Conv2d(256, 256, kernel_size=(3, 3), stride=(1, 1), padding=(1, 1), bias=False)
[ INFO : 2022-06-16 11:54:43,815 ] -       (bn2): BatchNorm2d(256, eps=1e-05, momentum=0.1, affine=True, track_running_stats=True)
[ INFO : 2022-06-16 11:54:43,815 ] -       (shortcut): Sequential()
[ INFO : 2022-06-16 11:54:43,815 ] -     )
[ INFO : 2022-06-16 11:54:43,815 ] -     (2): BasicBlock(
[ INFO : 2022-06-16 11:54:43,815 ] -       (conv1): Conv2d(256, 256, kernel_size=(3, 3), stride=(1, 1), padding=(1, 1), bias=False)
[ INFO : 2022-06-16 11:54:43,815 ] -       (bn1): BatchNorm2d(256, eps=1e-05, momentum=0.1, affine=True, track_running_stats=True)
[ INFO : 2022-06-16 11:54:43,815 ] -       (conv2): Conv2d(256, 256, kernel_size=(3, 3), stride=(1, 1), padding=(1, 1), bias=False)
[ INFO : 2022-06-16 11:54:43,815 ] -       (bn2): BatchNorm2d(256, eps=1e-05, momentum=0.1, affine=True, track_running_stats=True)
[ INFO : 2022-06-16 11:54:43,815 ] -       (shortcut): Sequential()
[ INFO : 2022-06-16 11:54:43,815 ] -     )
[ INFO : 2022-06-16 11:54:43,816 ] -   )
[ INFO : 2022-06-16 11:54:43,816 ] -   (pool): TSTP()
[ INFO : 2022-06-16 11:54:43,816 ] -   (seg_1): Linear(in_features=5120, out_features=256, bias=True)
[ INFO : 2022-06-16 11:54:43,816 ] -   (seg_bn_1): BatchNorm1d(256, eps=1e-05, momentum=0.1, affine=False, track_running_stats=True)
[ INFO : 2022-06-16 11:54:43,816 ] -   (seg_2): Linear(in_features=256, out_features=256, bias=True)
[ INFO : 2022-06-16 11:54:43,816 ] -   (projection): ArcMarginProduct(
[ INFO : 2022-06-16 11:54:43,816 ] -     in_features=256, out_features=88503, scale=32.0,
[ INFO : 2022-06-16 11:54:43,816 ] -                       margin=0.0, easy_margin=False
[ INFO : 2022-06-16 11:54:43,816 ] -   )
[ INFO : 2022-06-16 11:54:43,816 ] - )
[ INFO : 2022-06-16 11:54:44,674 ] - start_epoch: 1
…
