…
         [[-0.1451]]]], device='cuda:0')), ('layer4.0.shortcut.1.weight', tensor([ … device='cuda:0')), ('layer4.0.shortcut.1.bias', tensor([… device='cuda:0')), ('layer4.0.shortcut.1.running_mean', tensor([ … device='cuda:0')), ('layer4.0.shortcut.1.running_var', tensor([… device='cuda:0')), ('layer4.0.shortcut.1.num_batches_tracked', tensor(96064, device='cuda:0')), ('layer4.1.conv1.weight', tensor([[[[ … ...,
         [[… ...,
         [[ … ...,
         [[ … ...,
        [[[ … ...,
         [[… ...,
         [[… ...,
         [[… device='cuda:0')), ('layer4.1.bn1.weight', tensor([… device='cuda:0')), ('layer4.1.bn1.bias', tensor([… device='cuda:0')), ('layer4.1.bn1.running_mean', tensor([… INFO : 2022-06-16 14:29:44,476 ] - ResNet(
[ INFO : 2022-06-16 14:29:44,487 ] -   (conv1): Conv2d(1, 32, kernel_size=(3, 3), stride=(1, 1), padding=(1, 1), bias=False)
[ INFO : 2022-06-16 14:29:44,497 ] -   (bn1): BatchNorm2d(32, eps=1e-05, momentum=0.1, affine=True, track_running_stats=True)
[ INFO : 2022-06-16 14:29:44,503 ] -   (layer1): Sequential(
[ INFO : 2022-06-16 14:29:44,508 ] -     (0): BasicBlock(
[ INFO : 2022-06-16 14:29:44,508 ] -       (conv1): Conv2d(32, 32, kernel_size=(3, 3), stride=(1, 1), padding=(1, 1), bias=False)
[ INFO : 2022-06-16 14:29:44,509 ] -       (bn1): BatchNorm2d(32, eps=1e-05, momentum=0.1, affine=True, track_running_stats=True)
[ INFO : 2022-06-16 14:29:44,509 ] -       (conv2): Conv2d(32, 32, kernel_size=(3, 3), stride=(1, 1), padding=(1, 1), bias=False)
[ INFO : 2022-06-16 14:29:44,509 ] -       (bn2): BatchNorm2d(32, eps=1e-05, momentum=0.1, affine=True, track_running_stats=True)
[ INFO : 2022-06-16 14:29:44,509 ] -       (shortcut): Sequential()
[ INFO : 2022-06-16 14:29:44,509 ] -     )
[ INFO : 2022-06-16 14:29:44,509 ] -     (1): BasicBlock(
[ INFO : 2022-06-16 14:29:44,509 ] -       (conv1): Conv2d(32, 32, kernel_size=(3, 3), stride=(1, 1), padding=(1, 1), bias=False)
[ INFO : 2022-06-16 14:29:44,509 ] -       (bn1): BatchNorm2d(32, eps=1e-05, momentum=0.1, affine=True, track_running_stats=True)
[ INFO : 2022-06-16 14:29:44,509 ] -       (conv2): Conv2d(32, 32, kernel_size=(3, 3), stride=(1, 1), padding=(1, 1), bias=False)
[ INFO : 2022-06-16 14:29:44,509 ] -       (bn2): BatchNorm2d(32, eps=1e-05, momentum=0.1, affine=True, track_running_stats=True)
[ INFO : 2022-06-16 14:29:44,509 ] -       (shortcut): Sequential()
[ INFO : 2022-06-16 14:29:44,509 ] -     )
[ INFO : 2022-06-16 14:29:44,510 ] -     (2): BasicBlock(
[ INFO : 2022-06-16 14:29:44,510 ] -       (conv1): Conv2d(32, 32, kernel_size=(3, 3), stride=(1, 1), padding=(1, 1), bias=False)
[ INFO : 2022-06-16 14:29:44,510 ] -       (bn1): BatchNorm2d(32, eps=1e-05, momentum=0.1, affine=True, track_running_stats=True)
[ INFO : 2022-06-16 14:29:44,510 ] -       (conv2): Conv2d(32, 32, kernel_size=(3, 3), stride=(1, 1), padding=(1, 1), bias=False)
[ INFO : 2022-06-16 14:29:44,510 ] -       (bn2): BatchNorm2d(32, eps=1e-05, momentum=0.1, affine=True, track_running_stats=True)
[ INFO : 2022-06-16 14:29:44,510 ] -       (shortcut): Sequential()
[ INFO : 2022-06-16 14:29:44,510 ] -     )
[ INFO : 2022-06-16 14:29:44,510 ] -   )
[ INFO : 2022-06-16 14:29:44,510 ] -   (layer2): Sequential(
[ INFO : 2022-06-16 14:29:44,510 ] -     (0): BasicBlock(
[ INFO : 2022-06-16 14:29:44,510 ] -       (conv1): Conv2d(32, 64, kernel_size=(3, 3), stride=(2, 2), padding=(1, 1), bias=False)
[ INFO : 2022-06-16 14:29:44,510 ] -       (bn1): BatchNorm2d(64, eps=1e-05, momentum=0.1, affine=True, track_running_stats=True)
[ INFO : 2022-06-16 14:29:44,510 ] -       (conv2): Conv2d(64, 64, kernel_size=(3, 3), stride=(1, 1), padding=(1, 1), bias=False)
[ INFO : 2022-06-16 14:29:44,511 ] -       (bn2): BatchNorm2d(64, eps=1e-05, momentum=0.1, affine=True, track_running_stats=True)
[ INFO : 2022-06-16 14:29:44,511 ] -       (shortcut): Sequential(
[ INFO : 2022-06-16 14:29:44,511 ] -         (0): Conv2d(32, 64, kernel_size=(1, 1), stride=(2, 2), bias=False)
[ INFO : 2022-06-16 14:29:44,511 ] -         (1): BatchNorm2d(64, eps=1e-05, momentum=0.1, affine=True, track_running_stats=True)
[ INFO : 2022-06-16 14:29:44,511 ] -       )
[ INFO : 2022-06-16 14:29:44,511 ] -     )
[ INFO : 2022-06-16 14:29:44,511 ] -     (1): BasicBlock(
[ INFO : 2022-06-16 14:29:44,511 ] -       (conv1): Conv2d(64, 64, kernel_size=(3, 3), stride=(1, 1), padding=(1, 1), bias=False)
[ INFO : 2022-06-16 14:29:44,511 ] -       (bn1): BatchNorm2d(64, eps=1e-05, momentum=0.1, affine=True, track_running_stats=True)
[ INFO : 2022-06-16 14:29:44,635 ] -       (conv2): Conv2d(64, 64, kernel_size=(3, 3), stride=(1, 1), padding=(1, 1), bias=False)
[ INFO : 2022-06-16 14:29:44,646 ] -       (bn2): BatchNorm2d(64, eps=1e-05, momentum=0.1, affine=True, track_running_stats=True)
[ INFO : 2022-06-16 14:29:44,669 ] -       (shortcut): Sequential()
[ INFO : 2022-06-16 14:29:44,670 ] -     )
[ INFO : 2022-06-16 14:29:44,670 ] -     (2): BasicBlock(
[ INFO : 2022-06-16 14:29:44,670 ] -       (conv1): Conv2d(64, 64, kernel_size=(3, 3), stride=(1, 1), padding=(1, 1), bias=False)
[ INFO : 2022-06-16 14:29:44,670 ] -       (bn1): BatchNorm2d(64, eps=1e-05, momentum=0.1, affine=True, track_running_stats=True)
[ INFO : 2022-06-16 14:29:44,670 ] -       (conv2): Conv2d(64, 64, kernel_size=(3, 3), stride=(1, 1), padding=(1, 1), bias=False)
[ INFO : 2022-06-16 14:29:44,670 ] -       (bn2): BatchNorm2d(64, eps=1e-05, momentum=0.1, affine=True, track_running_stats=True)
[ INFO : 2022-06-16 14:29:44,670 ] -       (shortcut): Sequential()
[ INFO : 2022-06-16 14:29:44,670 ] -     )
[ INFO : 2022-06-16 14:29:44,670 ] -     (3): BasicBlock(
[ INFO : 2022-06-16 14:29:44,670 ] -       (conv1): Conv2d(64, 64, kernel_size=(3, 3), stride=(1, 1), padding=(1, 1), bias=False)
[ INFO : 2022-06-16 14:29:44,671 ] -       (bn1): BatchNorm2d(64, eps=1e-05, momentum=0.1, affine=True, track_running_stats=True)
[ INFO : 2022-06-16 14:29:44,671 ] -       (conv2): Conv2d(64, 64, kernel_size=(3, 3), stride=(1, 1), padding=(1, 1), bias=False)
[ INFO : 2022-06-16 14:29:44,671 ] -       (bn2): BatchNorm2d(64, eps=1e-05, momentum=0.1, affine=True, track_running_stats=True)
[ INFO : 2022-06-16 14:29:44,671 ] -       (shortcut): Sequential()
[ INFO : 2022-06-16 14:29:44,671 ] -     )
[ INFO : 2022-06-16 14:29:44,671 ] -   )
[ INFO : 2022-06-16 14:29:44,671 ] -   (layer3): Sequential(
[ INFO : 2022-06-16 14:29:44,671 ] -     (0): BasicBlock(
[ INFO : 2022-06-16 14:29:44,671 ] -       (conv1): Conv2d(64, 128, kernel_size=(3, 3), stride=(2, 2), padding=(1, 1), bias=False)
[ INFO : 2022-06-16 14:29:44,671 ] -       (bn1): BatchNorm2d(128, eps=1e-05, momentum=0.1, affine=True, track_running_stats=True)
[ INFO : 2022-06-16 14:29:44,671 ] -       (conv2): Conv2d(128, 128, kernel_size=(3, 3), stride=(1, 1), padding=(1, 1), bias=False)
[ INFO : 2022-06-16 14:29:44,672 ] -       (bn2): BatchNorm2d(128, eps=1e-05, momentum=0.1, affine=True, track_running_stats=True)
[ INFO : 2022-06-16 14:29:44,672 ] -       (shortcut): Sequential(
[ INFO : 2022-06-16 14:29:44,672 ] -         (0): Conv2d(64, 128, kernel_size=(1, 1), stride=(2, 2), bias=False)
[ INFO : 2022-06-16 14:29:44,672 ] -         (1): BatchNorm2d(128, eps=1e-05, momentum=0.1, affine=True, track_running_stats=True)
[ INFO : 2022-06-16 14:29:44,672 ] -       )
[ INFO : 2022-06-16 14:29:44,672 ] -     )
[ INFO : 2022-06-16 14:29:44,672 ] -     (1): BasicBlock(
[ INFO : 2022-06-16 14:29:44,672 ] -       (conv1): Conv2d(128, 128, kernel_size=(3, 3), stride=(1, 1), padding=(1, 1), bias=False)
[ INFO : 2022-06-16 14:29:44,672 ] -       (bn1): BatchNorm2d(128, eps=1e-05, momentum=0.1, affine=True, track_running_stats=True)
[ INFO : 2022-06-16 14:29:44,672 ] -       (conv2): Conv2d(128, 128, kernel_size=(3, 3), stride=(1, 1), padding=(1, 1), bias=False)
[ INFO : 2022-06-16 14:29:44,672 ] -       (bn2): BatchNorm2d(128, eps=1e-05, momentum=0.1, affine=True, track_running_stats=True)
[ INFO : 2022-06-16 14:29:44,673 ] -       (shortcut): Sequential()
[ INFO : 2022-06-16 14:29:44,673 ] -     )
[ INFO : 2022-06-16 14:29:44,673 ] -     (2): BasicBlock(
[ INFO : 2022-06-16 14:29:44,673 ] -       (conv1): Conv2d(128, 128, kernel_size=(3, 3), stride=(1, 1), padding=(1, 1), bias=False)
[ INFO : 2022-06-16 14:29:44,673 ] -       (bn1): BatchNorm2d(128, eps=1e-05, momentum=0.1, affine=True, track_running_stats=True)
[ INFO : 2022-06-16 14:29:44,673 ] -       (conv2): Conv2d(128, 128, kernel_size=(3, 3), stride=(1, 1), padding=(1, 1), bias=False)
[ INFO : 2022-06-16 14:29:44,679 ] -       (bn2): BatchNorm2d(128, eps=1e-05, momentum=0.1, affine=True, track_running_stats=True)
[ INFO : 2022-06-16 14:29:44,679 ] -       (shortcut): Sequential()
[ INFO : 2022-06-16 14:29:44,679 ] -     )
[ INFO : 2022-06-16 14:29:44,679 ] -     (3): BasicBlock(
[ INFO : 2022-06-16 14:29:44,679 ] -       (conv1): Conv2d(128, 128, kernel_size=(3, 3), stride=(1, 1), padding=(1, 1), bias=False)
[ INFO : 2022-06-16 14:29:44,679 ] -       (bn1): BatchNorm2d(128, eps=1e-05, momentum=0.1, affine=True, track_running_stats=True)
[ INFO : 2022-06-16 14:29:44,679 ] -       (conv2): Conv2d(128, 128, kernel_size=(3, 3), stride=(1, 1), padding=(1, 1), bias=False)
[ INFO : 2022-06-16 14:29:44,679 ] -       (bn2): BatchNorm2d(128, eps=1e-05, momentum=0.1, affine=True, track_running_stats=True)
[ INFO : 2022-06-16 14:29:44,679 ] -       (shortcut): Sequential()
[ INFO : 2022-06-16 14:29:44,679 ] -     )
[ INFO : 2022-06-16 14:29:44,679 ] -     (4): BasicBlock(
[ INFO : 2022-06-16 14:29:44,680 ] -       (conv1): Conv2d(128, 128, kernel_size=(3, 3), stride=(1, 1), padding=(1, 1), bias=False)
[ INFO : 2022-06-16 14:29:44,680 ] -       (bn1): BatchNorm2d(128, eps=1e-05, momentum=0.1, affine=True, track_running_stats=True)
[ INFO : 2022-06-16 14:29:44,680 ] -       (conv2): Conv2d(128, 128, kernel_size=(3, 3), stride=(1, 1), padding=(1, 1), bias=False)
[ INFO : 2022-06-16 14:29:44,680 ] -       (bn2): BatchNorm2d(128, eps=1e-05, momentum=0.1, affine=True, track_running_stats=True)
[ INFO : 2022-06-16 14:29:44,680 ] -       (shortcut): Sequential()
[ INFO : 2022-06-16 14:29:44,680 ] -     )
[ INFO : 2022-06-16 14:29:44,680 ] -     (5): BasicBlock(
[ INFO : 2022-06-16 14:29:44,680 ] -       (conv1): Conv2d(128, 128, kernel_size=(3, 3), stride=(1, 1), padding=(1, 1), bias=False)
[ INFO : 2022-06-16 14:29:44,680 ] -       (bn1): BatchNorm2d(128, eps=1e-05, momentum=0.1, affine=True, track_running_stats=True)
[ INFO : 2022-06-16 14:29:44,680 ] -       (conv2): Conv2d(128, 128, kernel_size=(3, 3), stride=(1, 1), padding=(1, 1), bias=False)
[ INFO : 2022-06-16 14:29:44,680 ] -       (bn2): BatchNorm2d(128, eps=1e-05, momentum=0.1, affine=True, track_running_stats=True)
[ INFO : 2022-06-16 14:29:44,681 ] -       (shortcut): Sequential()
[ INFO : 2022-06-16 14:29:44,681 ] -     )
[ INFO : 2022-06-16 14:29:44,681 ] -   )
[ INFO : 2022-06-16 14:29:44,681 ] -   (layer4): Sequential(
[ INFO : 2022-06-16 14:29:44,681 ] -     (0): BasicBlock(
[ INFO : 2022-06-16 14:29:44,681 ] -       (conv1): Conv2d(128, 256, kernel_size=(3, 3), stride=(2, 2), padding=(1, 1), bias=False)
[ INFO : 2022-06-16 14:29:44,681 ] -       (bn1): BatchNorm2d(256, eps=1e-05, momentum=0.1, affine=True, track_running_stats=True)
[ INFO : 2022-06-16 14:29:44,681 ] -       (conv2): Conv2d(256, 256, kernel_size=(3, 3), stride=(1, 1), padding=(1, 1), bias=False)
[ INFO : 2022-06-16 14:29:44,681 ] -       (bn2): BatchNorm2d(256, eps=1e-05, momentum=0.1, affine=True, track_running_stats=True)
[ INFO : 2022-06-16 14:29:44,681 ] -       (shortcut): Sequential(
[ INFO : 2022-06-16 14:29:44,681 ] -         (0): Conv2d(128, 256, kernel_size=(1, 1), stride=(2, 2), bias=False)
[ INFO : 2022-06-16 14:29:44,681 ] -         (1): BatchNorm2d(256, eps=1e-05, momentum=0.1, affine=True, track_running_stats=True)
[ INFO : 2022-06-16 14:29:44,682 ] -       )
[ INFO : 2022-06-16 14:29:44,682 ] -     )
[ INFO : 2022-06-16 14:29:44,682 ] -     (1): BasicBlock(
[ INFO : 2022-06-16 14:29:44,682 ] -       (conv1): Conv2d(256, 256, kernel_size=(3, 3), stride=(1, 1), padding=(1, 1), bias=False)
[ INFO : 2022-06-16 14:29:44,682 ] -       (bn1): BatchNorm2d(256, eps=1e-05, momentum=0.1, affine=True, track_running_stats=True)
[ INFO : 2022-06-16 14:29:44,682 ] -       (conv2): Conv2d(256, 256, kernel_size=(3, 3), stride=(1, 1), padding=(1, 1), bias=False)
[ INFO : 2022-06-16 14:29:44,682 ] -       (bn2): BatchNorm2d(256, eps=1e-05, momentum=0.1, affine=True, track_running_stats=True)
[ INFO : 2022-06-16 14:29:44,682 ] -       (shortcut): Sequential()
[ INFO : 2022-06-16 14:29:44,682 ] -     )
[ INFO : 2022-06-16 14:29:44,698 ] -     (2): BasicBlock(
[ INFO : 2022-06-16 14:29:44,703 ] -       (conv1): Conv2d(256, 256, kernel_size=(3, 3), stride=(1, 1), padding=(1, 1), bias=False)
[ INFO : 2022-06-16 14:29:44,703 ] -       (bn1): BatchNorm2d(256, eps=1e-05, momentum=0.1, affine=True, track_running_stats=True)
[ INFO : 2022-06-16 14:29:44,704 ] -       (conv2): Conv2d(256, 256, kernel_size=(3, 3), stride=(1, 1), padding=(1, 1), bias=False)
[ INFO : 2022-06-16 14:29:44,704 ] -       (bn2): BatchNorm2d(256, eps=1e-05, momentum=0.1, affine=True, track_running_stats=True)
[ INFO : 2022-06-16 14:29:44,704 ] -       (shortcut): Sequential()
[ INFO : 2022-06-16 14:29:44,704 ] -     )
[ INFO : 2022-06-16 14:29:44,704 ] -   )
[ INFO : 2022-06-16 14:29:44,704 ] -   (pool): TSTP()
[ INFO : 2022-06-16 14:29:44,704 ] -   (seg_1): Linear(in_features=5120, out_features=256, bias=True)
[ INFO : 2022-06-16 14:29:44,704 ] -   (seg_bn_1): BatchNorm1d(256, eps=1e-05, momentum=0.1, affine=False, track_running_stats=True)
[ INFO : 2022-06-16 14:29:44,704 ] -   (seg_2): Linear(in_features=256, out_features=256, bias=True)
[ INFO : 2022-06-16 14:29:44,704 ] -   (projection): ArcMarginProduct(
[ INFO : 2022-06-16 14:29:44,704 ] -     in_features=256, out_features=88503, scale=32.0,
[ INFO : 2022-06-16 14:29:44,704 ] -                       margin=0.0, easy_margin=False
[ INFO : 2022-06-16 14:29:44,705 ] -   )
          [ … ...,
         [[ … ...,
         [[… device='cuda
…
