…
[ INFO : 2022-06-16 14:07:53,803 ] - <== Data statistics ==>
[ INFO : 2022-06-16 14:07:53,803 ] - train data num: 1747308, spk num: 29501
[ INFO : 2022-06-16 14:07:53,852 ] - <== Dataloaders ==>
[ INFO : 2022-06-16 14:07:53,852 ] - train dataloaders created
[ INFO : 2022-06-16 14:07:53,853 ] - loader size: 2275
[ INFO : 2022-06-16 14:07:53,853 ] - <== Model ==>
[ INFO : 2022-06-16 14:07:53,935 ] - Load initial model from exp/ResNet101-TSTP-emb256-fbank80-num_frms200-aug0.6-spTrue-saFalse-ArcMargin-SGD-epoch150/models/model_45.pt
[ INFO : 2022-06-16 14:07:54,521 ] - ResNet(
[ INFO : 2022-06-16 14:07:54,521 ] -   (conv1): Conv2d(1, 32, kernel_size=(3, 3), stride=(1, 1), padding=(1, 1), bias=False)
[ INFO : 2022-06-16 14:07:54,521 ] -   (bn1): BatchNorm2d(32, eps=1e-05, momentum=0.1, affine=True, track_running_stats=True)
[ INFO : 2022-06-16 14:07:54,521 ] -   (layer1): Sequential(
[ INFO : 2022-06-16 14:07:54,522 ] -     (0): BasicBlock(
[ INFO : 2022-06-16 14:07:54,522 ] -       (conv1): Conv2d(32, 32, kernel_size=(3, 3), stride=(1, 1), padding=(1, 1), bias=False)
[ INFO : 2022-06-16 14:07:54,522 ] -       (bn1): BatchNorm2d(32, eps=1e-05, momentum=0.1, affine=True, track_running_stats=True)
[ INFO : 2022-06-16 14:07:54,522 ] -       (conv2): Conv2d(32, 32, kernel_size=(3, 3), stride=(1, 1), padding=(1, 1), bias=False)
[ INFO : 2022-06-16 14:07:54,522 ] -       (bn2): BatchNorm2d(32, eps=1e-05, momentum=0.1, affine=True, track_running_stats=True)
[ INFO : 2022-06-16 14:07:54,522 ] -       (shortcut): Sequential()
[ INFO : 2022-06-16 14:07:54,522 ] -     )
[ INFO : 2022-06-16 14:07:54,522 ] -     (1): BasicBlock(
[ INFO : 2022-06-16 14:07:54,522 ] -       (conv1): Conv2d(32, 32, kernel_size=(3, 3), stride=(1, 1), padding=(1, 1), bias=False)
[ INFO : 2022-06-16 14:07:54,522 ] -       (bn1): BatchNorm2d(32, eps=1e-05, momentum=0.1, affine=True, track_running_stats=True)
[ INFO : 2022-06-16 14:07:54,522 ] -       (conv2): Conv2d(32, 32, kernel_size=(3, 3), stride=(1, 1), padding=(1, 1), bias=False)
[ INFO : 2022-06-16 14:07:54,523 ] -       (bn2): BatchNorm2d(32, eps=1e-05, momentum=0.1, affine=True, track_running_stats=True)
[ INFO : 2022-06-16 14:07:54,523 ] -       (shortcut): Sequential()
[ INFO : 2022-06-16 14:07:54,523 ] -     )
[ INFO : 2022-06-16 14:07:54,523 ] -     (2): BasicBlock(
[ INFO : 2022-06-16 14:07:54,523 ] -       (conv1): Conv2d(32, 32, kernel_size=(3, 3), stride=(1, 1), padding=(1, 1), bias=False)
[ INFO : 2022-06-16 14:07:54,523 ] -       (bn1): BatchNorm2d(32, eps=1e-05, momentum=0.1, affine=True, track_running_stats=True)
[ INFO : 2022-06-16 14:07:54,523 ] -       (conv2): Conv2d(32, 32, kernel_size=(3, 3), stride=(1, 1), padding=(1, 1), bias=False)
[ INFO : 2022-06-16 14:07:54,523 ] -       (bn2): BatchNorm2d(32, eps=1e-05, momentum=0.1, affine=True, track_running_stats=True)
[ INFO : 2022-06-16 14:07:54,523 ] -       (shortcut): Sequential()
[ INFO : 2022-06-16 14:07:54,524 ] -     )
[ INFO : 2022-06-16 14:07:54,524 ] -   )
[ INFO : 2022-06-16 14:07:54,524 ] -   (layer2): Sequential(
[ INFO : 2022-06-16 14:07:54,524 ] -     (0): BasicBlock(
[ INFO : 2022-06-16 14:07:54,524 ] -       (conv1): Conv2d(32, 64, kernel_size=(3, 3), stride=(2, 2), padding=(1, 1), bias=False)
[ INFO : 2022-06-16 14:07:54,524 ] -       (bn1): BatchNorm2d(64, eps=1e-05, momentum=0.1, affine=True, track_running_stats=True)
[ INFO : 2022-06-16 14:07:54,524 ] -       (conv2): Conv2d(64, 64, kernel_size=(3, 3), stride=(1, 1), padding=(1, 1), bias=False)
[ INFO : 2022-06-16 14:07:54,524 ] -       (bn2): BatchNorm2d(64, eps=1e-05, momentum=0.1, affine=True, track_running_stats=True)
[ INFO : 2022-06-16 14:07:54,524 ] -       (shortcut): Sequential(
[ INFO : 2022-06-16 14:07:54,524 ] -         (0): Conv2d(32, 64, kernel_size=(1, 1), stride=(2, 2), bias=False)
[ INFO : 2022-06-16 14:07:54,525 ] -         (1): BatchNorm2d(64, eps=1e-05, momentum=0.1, affine=True, track_running_stats=True)
[ INFO : 2022-06-16 14:07:54,525 ] -       )
[ INFO : 2022-06-16 14:07:54,525 ] -     )
[ INFO : 2022-06-16 14:07:54,525 ] -     (1): BasicBlock(
[ INFO : 2022-06-16 14:07:54,525 ] -       (conv1): Conv2d(64, 64, kernel_size=(3, 3), stride=(1, 1), padding=(1, 1), bias=False)
[ INFO : 2022-06-16 14:07:54,525 ] -       (bn1): BatchNorm2d(64, eps=1e-05, momentum=0.1, affine=True, track_running_stats=True)
[ INFO : 2022-06-16 14:07:54,525 ] -       (conv2): Conv2d(64, 64, kernel_size=(3, 3), stride=(1, 1), padding=(1, 1), bias=False)
[ INFO : 2022-06-16 14:07:54,525 ] -       (bn2): BatchNorm2d(64, eps=1e-05, momentum=0.1, affine=True, track_running_stats=True)
[ INFO : 2022-06-16 14:07:54,525 ] -       (shortcut): Sequential()
[ INFO : 2022-06-16 14:07:54,525 ] -     )
[ INFO : 2022-06-16 14:07:54,526 ] -     (2): BasicBlock(
[ INFO : 2022-06-16 14:07:54,526 ] -       (conv1): Conv2d(64, 64, kernel_size=(3, 3), stride=(1, 1), padding=(1, 1), bias=False)
[ INFO : 2022-06-16 14:07:54,526 ] -       (bn1): BatchNorm2d(64, eps=1e-05, momentum=0.1, affine=True, track_running_stats=True)
[ INFO : 2022-06-16 14:07:54,526 ] -       (conv2): Conv2d(64, 64, kernel_size=(3, 3), stride=(1, 1), padding=(1, 1), bias=False)
[ INFO : 2022-06-16 14:07:54,526 ] -       (bn2): BatchNorm2d(64, eps=1e-05, momentum=0.1, affine=True, track_running_stats=True)
[ INFO : 2022-06-16 14:07:54,526 ] -       (shortcut): Sequential()
[ INFO : 2022-06-16 14:07:54,526 ] -     )
[ INFO : 2022-06-16 14:07:54,526 ] -     (3): BasicBlock(
[ INFO : 2022-06-16 14:07:54,526 ] -       (conv1): Conv2d(64, 64, kernel_size=(3, 3), stride=(1, 1), padding=(1, 1), bias=False)
[ INFO : 2022-06-16 14:07:54,526 ] -       (bn1): BatchNorm2d(64, eps=1e-05, momentum=0.1, affine=True, track_running_stats=True)
[ INFO : 2022-06-16 14:07:54,526 ] -       (conv2): Conv2d(64, 64, kernel_size=(3, 3), stride=(1, 1), padding=(1, 1), bias=False)
[ INFO : 2022-06-16 14:07:54,526 ] -       (bn2): BatchNorm2d(64, eps=1e-05, momentum=0.1, affine=True, track_running_stats=True)
[ INFO : 2022-06-16 14:07:54,526 ] -       (shortcut): Sequential()
[ INFO : 2022-06-16 14:07:54,527 ] -     )
[ INFO : 2022-06-16 14:07:54,527 ] -   )
[ INFO : 2022-06-16 14:07:54,527 ] -   (layer3): Sequential(
[ INFO : 2022-06-16 14:07:54,527 ] -     (0): BasicBlock(
[ INFO : 2022-06-16 14:07:54,527 ] -       (conv1): Conv2d(64, 128, kernel_size=(3, 3), stride=(2, 2), padding=(1, 1), bias=False)
[ INFO : 2022-06-16 14:07:54,527 ] -       (bn1): BatchNorm2d(128, eps=1e-05, momentum=0.1, affine=True, track_running_stats=True)
[ INFO : 2022-06-16 14:07:54,527 ] -       (conv2): Conv2d(128, 128, kernel_size=(3, 3), stride=(1, 1), padding=(1, 1), bias=False)
[ INFO : 2022-06-16 14:07:54,527 ] -       (bn2): BatchNorm2d(128, eps=1e-05, momentum=0.1, affine=True, track_running_stats=True)
[ INFO : 2022-06-16 14:07:54,527 ] -       (shortcut): Sequential(
[ INFO : 2022-06-16 14:07:54,527 ] -         (0): Conv2d(64, 128, kernel_size=(1, 1), stride=(2, 2), bias=False)
[ INFO : 2022-06-16 14:07:54,527 ] -         (1): BatchNorm2d(128, eps=1e-05, momentum=0.1, affine=True, track_running_stats=True)
[ INFO : 2022-06-16 14:07:54,528 ] -       )
[ INFO : 2022-06-16 14:07:54,528 ] -     )
[ INFO : 2022-06-16 14:07:54,528 ] -     (1): BasicBlock(
[ INFO : 2022-06-16 14:07:54,528 ] -       (conv1): Conv2d(128, 128, kernel_size=(3, 3), stride=(1, 1), padding=(1, 1), bias=False)
[ INFO : 2022-06-16 14:07:54,528 ] -       (bn1): BatchNorm2d(128, eps=1e-05, momentum=0.1, affine=True, track_running_stats=True)
[ INFO : 2022-06-16 14:07:54,528 ] -       (conv2): Conv2d(128, 128, kernel_size=(3, 3), stride=(1, 1), padding=(1, 1), bias=False)
[ INFO : 2022-06-16 14:07:54,528 ] -       (bn2): BatchNorm2d(128, eps=1e-05, momentum=0.1, affine=True, track_running_stats=True)
[ INFO : 2022-06-16 14:07:54,528 ] -       (shortcut): Sequential()
[ INFO : 2022-06-16 14:07:54,528 ] -     )
[ INFO : 2022-06-16 14:07:54,528 ] -     (2): BasicBlock(
[ INFO : 2022-06-16 14:07:54,529 ] -       (conv1): Conv2d(128, 128, kernel_size=(3, 3), stride=(1, 1), padding=(1, 1), bias=False)
[ INFO : 2022-06-16 14:07:54,529 ] -       (bn1): BatchNorm2d(128, eps=1e-05, momentum=0.1, affine=True, track_running_stats=True)
[ INFO : 2022-06-16 14:07:54,529 ] -       (conv2): Conv2d(128, 128, kernel_size=(3, 3), stride=(1, 1), padding=(1, 1), bias=False)
[ INFO : 2022-06-16 14:07:54,529 ] -       (bn2): BatchNorm2d(128, eps=1e-05, momentum=0.1, affine=True, track_running_stats=True)
[ INFO : 2022-06-16 14:07:54,529 ] -       (shortcut): Sequential()
[ INFO : 2022-06-16 14:07:54,529 ] -     )
[ INFO : 2022-06-16 14:07:54,529 ] -     (3): BasicBlock(
[ INFO : 2022-06-16 14:07:54,529 ] -       (conv1): Conv2d(128, 128, kernel_size=(3, 3), stride=(1, 1), padding=(1, 1), bias=False)
[ INFO : 2022-06-16 14:07:54,529 ] -       (bn1): BatchNorm2d(128, eps=1e-05, momentum=0.1, affine=True, track_running_stats=True)
[ INFO : 2022-06-16 14:07:54,529 ] -       (conv2): Conv2d(128, 128, kernel_size=(3, 3), stride=(1, 1), padding=(1, 1), bias=False)
[ INFO : 2022-06-16 14:07:54,530 ] -       (bn2): BatchNorm2d(128, eps=1e-05, momentum=0.1, affine=True, track_running_stats=True)
[ INFO : 2022-06-16 14:07:54,530 ] -       (shortcut): Sequential()
[ INFO : 2022-06-16 14:07:54,530 ] -     )
[ INFO : 2022-06-16 14:07:54,530 ] -     (4): BasicBlock(
[ INFO : 2022-06-16 14:07:54,530 ] -       (conv1): Conv2d(128, 128, kernel_size=(3, 3), stride=(1, 1), padding=(1, 1), bias=False)
[ INFO : 2022-06-16 14:07:54,530 ] -       (bn1): BatchNorm2d(128, eps=1e-05, momentum=0.1, affine=True, track_running_stats=True)
[ INFO : 2022-06-16 14:07:54,530 ] -       (conv2): Conv2d(128, 128, kernel_size=(3, 3), stride=(1, 1), padding=(1, 1), bias=False)
[ INFO : 2022-06-16 14:07:54,530 ] -       (bn2): BatchNorm2d(128, eps=1e-05, momentum=0.1, affine=True, track_running_stats=True)
[ INFO : 2022-06-16 14:07:54,530 ] -       (shortcut): Sequential()
[ INFO : 2022-06-16 14:07:54,530 ] -     )
[ INFO : 2022-06-16 14:07:54,530 ] -     (5): BasicBlock(
[ INFO : 2022-06-16 14:07:54,531 ] -       (conv1): Conv2d(128, 128, kernel_size=(3, 3), stride=(1, 1), padding=(1, 1), bias=False)
[ INFO : 2022-06-16 14:07:54,531 ] -       (bn1): BatchNorm2d(128, eps=1e-05, momentum=0.1, affine=True, track_running_stats=True)
[ INFO : 2022-06-16 14:07:54,531 ] -       (conv2): Conv2d(128, 128, kernel_size=(3, 3), stride=(1, 1), padding=(1, 1), bias=False)
[ INFO : 2022-06-16 14:07:54,531 ] -       (bn2): BatchNorm2d(128, eps=1e-05, momentum=0.1, affine=True, track_running_stats=True)
[ INFO : 2022-06-16 14:07:54,531 ] -       (shortcut): Sequential()
[ INFO : 2022-06-16 14:07:54,531 ] -     )
[ INFO : 2022-06-16 14:07:54,531 ] -   )
[ INFO : 2022-06-16 14:07:54,531 ] -   (layer4): Sequential(
[ INFO : 2022-06-16 14:07:54,531 ] -     (0): BasicBlock(
[ INFO : 2022-06-16 14:07:54,532 ] -       (conv1): Conv2d(128, 256, kernel_size=(3, 3), stride=(2, 2), padding=(1, 1), bias=False)
[ INFO : 2022-06-16 14:07:54,532 ] -       (bn1): BatchNorm2d(256, eps=1e-05, momentum=0.1, affine=True, track_running_stats=True)
[ INFO : 2022-06-16 14:07:54,532 ] -       (conv2): Conv2d(256, 256, kernel_size=(3, 3), stride=(1, 1), padding=(1, 1), bias=False)
[ INFO : 2022-06-16 14:07:54,532 ] -       (bn2): BatchNorm2d(256, eps=1e-05, momentum=0.1, affine=True, track_running_stats=True)
[ INFO : 2022-06-16 14:07:54,532 ] -       (shortcut): Sequential(
[ INFO : 2022-06-16 14:07:54,533 ] -         (0): Conv2d(128, 256, kernel_size=(1, 1), stride=(2, 2), bias=False)
[ INFO : 2022-06-16 14:07:54,533 ] -         (1): BatchNorm2d(256, eps=1e-05, momentum=0.1, affine=True, track_running_stats=True)
[ INFO : 2022-06-16 14:07:54,533 ] -       )
[ INFO : 2022-06-16 14:07:54,533 ] -     )
[ INFO : 2022-06-16 14:07:54,533 ] -     (1): BasicBlock(
[ INFO : 2022-06-16 14:07:54,533 ] -       (conv1): Conv2d(256, 256, kernel_size=(3, 3), stride=(1, 1), padding=(1, 1), bias=False)
[ INFO : 2022-06-16 14:07:54,533 ] -       (bn1): BatchNorm2d(256, eps=1e-05, momentum=0.1, affine=True, track_running_stats=True)
[ INFO : 2022-06-16 14:07:54,533 ] -       (conv2): Conv2d(256, 256, kernel_size=(3, 3), stride=(1, 1), padding=(1, 1), bias=False)
[ INFO : 2022-06-16 14:07:54,533 ] -       (bn2): BatchNorm2d(256, eps=1e-05, momentum=0.1, affine=True, track_running_stats=True)
[ INFO : 2022-06-16 14:07:54,533 ] -       (shortcut): Sequential()
[ INFO : 2022-06-16 14:07:54,534 ] -     )
[ INFO : 2022-06-16 14:07:54,534 ] -     (2): BasicBlock(
[ INFO : 2022-06-16 14:07:54,534 ] -       (conv1): Conv2d(256, 256, kernel_size=(3, 3), stride=(1, 1), padding=(1, 1), bias=False)
[ INFO : 2022-06-16 14:07:54,534 ] -       (bn1): BatchNorm2d(256, eps=1e-05, momentum=0.1, affine=True, track_running_stats=True)
[ INFO : 2022-06-16 14:07:54,534 ] -       (conv2): Conv2d(256, 256, kernel_size=(3, 3), stride=(1, 1), padding=(1, 1), bias=False)
[ INFO : 2022-06-16 14:07:54,534 ] -       (bn2): BatchNorm2d(256, eps=1e-05, momentum=0.1, affine=True, track_running_stats=True)
[ INFO : 2022-06-16 14:07:54,534 ] -       (shortcut): Sequential()
[ INFO : 2022-06-16 14:07:54,534 ] -     )
[ INFO : 2022-06-16 14:07:54,534 ] -   )
[ INFO : 2022-06-16 14:07:54,534 ] -   (pool): TSTP()
[ INFO : 2022-06-16 14:07:54,535 ] -   (seg_1): Linear(in_features=5120, out_features=256, bias=True)
[ INFO : 2022-06-16 14:07:54,535 ] -   (seg_bn_1): BatchNorm1d(256, eps=1e-05, momentum=0.1, affine=False, track_running_stats=True)
[ INFO : 2022-06-16 14:07:54,535 ] -   (seg_2): Linear(in_features=256, out_features=256, bias=True)
[ INFO : 2022-06-16 14:07:54,535 ] -   (projection): ArcMarginProduct(
[ INFO : 2022-06-16 14:07:54,535 ] -     in_features=256, out_features=88503, scale=32.0,
[ INFO : 2022-06-16 14:07:54,535 ] -                       margin=0.0, easy_margin=False
[ INFO : 2022-06-16 14:07:54,535 ] -   )
[ INFO : 2022-06-16 14:07:54,535 ] - )
Traceback (most recent call last):
…
