…
[ INFO : 2022-06-16 11:45:17,335 ] - <== Data statistics ==>
[ INFO : 2022-06-16 11:45:17,335 ] - train data num: 1747308, spk num: 29501
[ INFO : 2022-06-16 11:45:17,345 ] - <== Dataloaders ==>
[ INFO : 2022-06-16 11:45:17,346 ] - train dataloaders created
[ INFO : 2022-06-16 11:45:17,346 ] - loader size: 2275
[ INFO : 2022-06-16 11:45:17,346 ] - <== Model ==>
[ INFO : 2022-06-16 11:45:17,407 ] - Load initial model from exp/ResNet101-TSTP-emb256-fbank80-num_frms200-aug0.6-spTrue-saFalse-ArcMargin-SGD-epoch150/models/model_45.pt
[ INFO : 2022-06-16 11:45:17,685 ] - ResNet(
[ INFO : 2022-06-16 11:45:17,685 ] -   (conv1): Conv2d(1, 32, kernel_size=(3, 3), stride=(1, 1), padding=(1, 1), bias=False)
[ INFO : 2022-06-16 11:45:17,685 ] -   (bn1): BatchNorm2d(32, eps=1e-05, momentum=0.1, affine=True, track_running_stats=True)
[ INFO : 2022-06-16 11:45:17,685 ] -   (layer1): Sequential(
[ INFO : 2022-06-16 11:45:17,685 ] -     (0): BasicBlock(
[ INFO : 2022-06-16 11:45:17,685 ] -       (conv1): Conv2d(32, 32, kernel_size=(3, 3), stride=(1, 1), padding=(1, 1), bias=False)
[ INFO : 2022-06-16 11:45:17,685 ] -       (bn1): BatchNorm2d(32, eps=1e-05, momentum=0.1, affine=True, track_running_stats=True)
[ INFO : 2022-06-16 11:45:17,685 ] -       (conv2): Conv2d(32, 32, kernel_size=(3, 3), stride=(1, 1), padding=(1, 1), bias=False)
[ INFO : 2022-06-16 11:45:17,685 ] -       (bn2): BatchNorm2d(32, eps=1e-05, momentum=0.1, affine=True, track_running_stats=True)
[ INFO : 2022-06-16 11:45:17,685 ] -       (shortcut): Sequential()
[ INFO : 2022-06-16 11:45:17,685 ] -     )
[ INFO : 2022-06-16 11:45:17,686 ] -     (1): BasicBlock(
[ INFO : 2022-06-16 11:45:17,686 ] -       (conv1): Conv2d(32, 32, kernel_size=(3, 3), stride=(1, 1), padding=(1, 1), bias=False)
[ INFO : 2022-06-16 11:45:17,686 ] -       (bn1): BatchNorm2d(32, eps=1e-05, momentum=0.1, affine=True, track_running_stats=True)
[ INFO : 2022-06-16 11:45:17,686 ] -       (conv2): Conv2d(32, 32, kernel_size=(3, 3), stride=(1, 1), padding=(1, 1), bias=False)
[ INFO : 2022-06-16 11:45:17,686 ] -       (bn2): BatchNorm2d(32, eps=1e-05, momentum=0.1, affine=True, track_running_stats=True)
[ INFO : 2022-06-16 11:45:17,686 ] -       (shortcut): Sequential()
[ INFO : 2022-06-16 11:45:17,686 ] -     )
[ INFO : 2022-06-16 11:45:17,686 ] -     (2): BasicBlock(
[ INFO : 2022-06-16 11:45:17,686 ] -       (conv1): Conv2d(32, 32, kernel_size=(3, 3), stride=(1, 1), padding=(1, 1), bias=False)
[ INFO : 2022-06-16 11:45:17,686 ] -       (bn1): BatchNorm2d(32, eps=1e-05, momentum=0.1, affine=True, track_running_stats=True)
[ INFO : 2022-06-16 11:45:17,686 ] -       (conv2): Conv2d(32, 32, kernel_size=(3, 3), stride=(1, 1), padding=(1, 1), bias=False)
[ INFO : 2022-06-16 11:45:17,686 ] -       (bn2): BatchNorm2d(32, eps=1e-05, momentum=0.1, affine=True, track_running_stats=True)
[ INFO : 2022-06-16 11:45:17,687 ] -       (shortcut): Sequential()
[ INFO : 2022-06-16 11:45:17,687 ] -     )
[ INFO : 2022-06-16 11:45:17,687 ] -   )
[ INFO : 2022-06-16 11:45:17,687 ] -   (layer2): Sequential(
[ INFO : 2022-06-16 11:45:17,687 ] -     (0): BasicBlock(
[ INFO : 2022-06-16 11:45:17,687 ] -       (conv1): Conv2d(32, 64, kernel_size=(3, 3), stride=(2, 2), padding=(1, 1), bias=False)
[ INFO : 2022-06-16 11:45:17,687 ] -       (bn1): BatchNorm2d(64, eps=1e-05, momentum=0.1, affine=True, track_running_stats=True)
[ INFO : 2022-06-16 11:45:17,687 ] -       (conv2): Conv2d(64, 64, kernel_size=(3, 3), stride=(1, 1), padding=(1, 1), bias=False)
[ INFO : 2022-06-16 11:45:17,687 ] -       (bn2): BatchNorm2d(64, eps=1e-05, momentum=0.1, affine=True, track_running_stats=True)
[ INFO : 2022-06-16 11:45:17,687 ] -       (shortcut): Sequential(
[ INFO : 2022-06-16 11:45:17,687 ] -         (0): Conv2d(32, 64, kernel_size=(1, 1), stride=(2, 2), bias=False)
[ INFO : 2022-06-16 11:45:17,687 ] -         (1): BatchNorm2d(64, eps=1e-05, momentum=0.1, affine=True, track_running_stats=True)
[ INFO : 2022-06-16 11:45:17,688 ] -       )
[ INFO : 2022-06-16 11:45:17,688 ] -     )
[ INFO : 2022-06-16 11:45:17,688 ] -     (1): BasicBlock(
[ INFO : 2022-06-16 11:45:17,688 ] -       (conv1): Conv2d(64, 64, kernel_size=(3, 3), stride=(1, 1), padding=(1, 1), bias=False)
[ INFO : 2022-06-16 11:45:17,688 ] -       (bn1): BatchNorm2d(64, eps=1e-05, momentum=0.1, affine=True, track_running_stats=True)
[ INFO : 2022-06-16 11:45:17,688 ] -       (conv2): Conv2d(64, 64, kernel_size=(3, 3), stride=(1, 1), padding=(1, 1), bias=False)
[ INFO : 2022-06-16 11:45:17,688 ] -       (bn2): BatchNorm2d(64, eps=1e-05, momentum=0.1, affine=True, track_running_stats=True)
[ INFO : 2022-06-16 11:45:17,688 ] -       (shortcut): Sequential()
[ INFO : 2022-06-16 11:45:17,688 ] -     )
[ INFO : 2022-06-16 11:45:17,688 ] -     (2): BasicBlock(
[ INFO : 2022-06-16 11:45:17,688 ] -       (conv1): Conv2d(64, 64, kernel_size=(3, 3), stride=(1, 1), padding=(1, 1), bias=False)
[ INFO : 2022-06-16 11:45:17,688 ] -       (bn1): BatchNorm2d(64, eps=1e-05, momentum=0.1, affine=True, track_running_stats=True)
[ INFO : 2022-06-16 11:45:17,689 ] -       (conv2): Conv2d(64, 64, kernel_size=(3, 3), stride=(1, 1), padding=(1, 1), bias=False)
[ INFO : 2022-06-16 11:45:17,689 ] -       (bn2): BatchNorm2d(64, eps=1e-05, momentum=0.1, affine=True, track_running_stats=True)
[ INFO : 2022-06-16 11:45:17,689 ] -       (shortcut): Sequential()
[ INFO : 2022-06-16 11:45:17,689 ] -     )
[ INFO : 2022-06-16 11:45:17,689 ] -     (3): BasicBlock(
[ INFO : 2022-06-16 11:45:17,689 ] -       (conv1): Conv2d(64, 64, kernel_size=(3, 3), stride=(1, 1), padding=(1, 1), bias=False)
[ INFO : 2022-06-16 11:45:17,689 ] -       (bn1): BatchNorm2d(64, eps=1e-05, momentum=0.1, affine=True, track_running_stats=True)
[ INFO : 2022-06-16 11:45:17,689 ] -       (conv2): Conv2d(64, 64, kernel_size=(3, 3), stride=(1, 1), padding=(1, 1), bias=False)
[ INFO : 2022-06-16 11:45:17,689 ] -       (bn2): BatchNorm2d(64, eps=1e-05, momentum=0.1, affine=True, track_running_stats=True)
[ INFO : 2022-06-16 11:45:17,689 ] -       (shortcut): Sequential()
[ INFO : 2022-06-16 11:45:17,689 ] -     )
[ INFO : 2022-06-16 11:45:17,689 ] -   )
[ INFO : 2022-06-16 11:45:17,690 ] -   (layer3): Sequential(
[ INFO : 2022-06-16 11:45:17,690 ] -     (0): BasicBlock(
[ INFO : 2022-06-16 11:45:17,690 ] -       (conv1): Conv2d(64, 128, kernel_size=(3, 3), stride=(2, 2), padding=(1, 1), bias=False)
[ INFO : 2022-06-16 11:45:17,690 ] -       (bn1): BatchNorm2d(128, eps=1e-05, momentum=0.1, affine=True, track_running_stats=True)
[ INFO : 2022-06-16 11:45:17,690 ] -       (conv2): Conv2d(128, 128, kernel_size=(3, 3), stride=(1, 1), padding=(1, 1), bias=False)
[ INFO : 2022-06-16 11:45:17,690 ] -       (bn2): BatchNorm2d(128, eps=1e-05, momentum=0.1, affine=True, track_running_stats=True)
[ INFO : 2022-06-16 11:45:17,690 ] -       (shortcut): Sequential(
[ INFO : 2022-06-16 11:45:17,690 ] -         (0): Conv2d(64, 128, kernel_size=(1, 1), stride=(2, 2), bias=False)
[ INFO : 2022-06-16 11:45:17,690 ] -         (1): BatchNorm2d(128, eps=1e-05, momentum=0.1, affine=True, track_running_stats=True)
[ INFO : 2022-06-16 11:45:17,690 ] -       )
[ INFO : 2022-06-16 11:45:17,690 ] -     )
[ INFO : 2022-06-16 11:45:17,690 ] -     (1): BasicBlock(
[ INFO : 2022-06-16 11:45:17,690 ] -       (conv1): Conv2d(128, 128, kernel_size=(3, 3), stride=(1, 1), padding=(1, 1), bias=False)
[ INFO : 2022-06-16 11:45:17,691 ] -       (bn1): BatchNorm2d(128, eps=1e-05, momentum=0.1, affine=True, track_running_stats=True)
[ INFO : 2022-06-16 11:45:17,691 ] -       (conv2): Conv2d(128, 128, kernel_size=(3, 3), stride=(1, 1), padding=(1, 1), bias=False)
[ INFO : 2022-06-16 11:45:17,691 ] -       (bn2): BatchNorm2d(128, eps=1e-05, momentum=0.1, affine=True, track_running_stats=True)
[ INFO : 2022-06-16 11:45:17,691 ] -       (shortcut): Sequential()
[ INFO : 2022-06-16 11:45:17,691 ] -     )
[ INFO : 2022-06-16 11:45:17,691 ] -     (2): BasicBlock(
[ INFO : 2022-06-16 11:45:17,691 ] -       (conv1): Conv2d(128, 128, kernel_size=(3, 3), stride=(1, 1), padding=(1, 1), bias=False)
[ INFO : 2022-06-16 11:45:17,691 ] -       (bn1): BatchNorm2d(128, eps=1e-05, momentum=0.1, affine=True, track_running_stats=True)
[ INFO : 2022-06-16 11:45:17,691 ] -       (conv2): Conv2d(128, 128, kernel_size=(3, 3), stride=(1, 1), padding=(1, 1), bias=False)
[ INFO : 2022-06-16 11:45:17,691 ] -       (bn2): BatchNorm2d(128, eps=1e-05, momentum=0.1, affine=True, track_running_stats=True)
[ INFO : 2022-06-16 11:45:17,691 ] -       (shortcut): Sequential()
[ INFO : 2022-06-16 11:45:17,691 ] -     )
[ INFO : 2022-06-16 11:45:17,692 ] -     (3): BasicBlock(
[ INFO : 2022-06-16 11:45:17,692 ] -       (conv1): Conv2d(128, 128, kernel_size=(3, 3), stride=(1, 1), padding=(1, 1), bias=False)
[ INFO : 2022-06-16 11:45:17,692 ] -       (bn1): BatchNorm2d(128, eps=1e-05, momentum=0.1, affine=True, track_running_stats=True)
[ INFO : 2022-06-16 11:45:17,692 ] -       (conv2): Conv2d(128, 128, kernel_size=(3, 3), stride=(1, 1), padding=(1, 1), bias=False)
[ INFO : 2022-06-16 11:45:17,692 ] -       (bn2): BatchNorm2d(128, eps=1e-05, momentum=0.1, affine=True, track_running_stats=True)
[ INFO : 2022-06-16 11:45:17,692 ] -       (shortcut): Sequential()
[ INFO : 2022-06-16 11:45:17,692 ] -     )
[ INFO : 2022-06-16 11:45:17,692 ] -     (4): BasicBlock(
[ INFO : 2022-06-16 11:45:17,692 ] -       (conv1): Conv2d(128, 128, kernel_size=(3, 3), stride=(1, 1), padding=(1, 1), bias=False)
[ INFO : 2022-06-16 11:45:17,692 ] -       (bn1): BatchNorm2d(128, eps=1e-05, momentum=0.1, affine=True, track_running_stats=True)
[ INFO : 2022-06-16 11:45:17,692 ] -       (conv2): Conv2d(128, 128, kernel_size=(3, 3), stride=(1, 1), padding=(1, 1), bias=False)
[ INFO : 2022-06-16 11:45:17,692 ] -       (bn2): BatchNorm2d(128, eps=1e-05, momentum=0.1, affine=True, track_running_stats=True)
[ INFO : 2022-06-16 11:45:17,693 ] -       (shortcut): Sequential()
[ INFO : 2022-06-16 11:45:17,693 ] -     )
[ INFO : 2022-06-16 11:45:17,693 ] -     (5): BasicBlock(
[ INFO : 2022-06-16 11:45:17,693 ] -       (conv1): Conv2d(128, 128, kernel_size=(3, 3), stride=(1, 1), padding=(1, 1), bias=False)
[ INFO : 2022-06-16 11:45:17,693 ] -       (bn1): BatchNorm2d(128, eps=1e-05, momentum=0.1, affine=True, track_running_stats=True)
[ INFO : 2022-06-16 11:45:17,693 ] -       (conv2): Conv2d(128, 128, kernel_size=(3, 3), stride=(1, 1), padding=(1, 1), bias=False)
[ INFO : 2022-06-16 11:45:17,693 ] -       (bn2): BatchNorm2d(128, eps=1e-05, momentum=0.1, affine=True, track_running_stats=True)
[ INFO : 2022-06-16 11:45:17,693 ] -       (shortcut): Sequential()
[ INFO : 2022-06-16 11:45:17,693 ] -     )
[ INFO : 2022-06-16 11:45:17,693 ] -   )
[ INFO : 2022-06-16 11:45:17,693 ] -   (layer4): Sequential(
[ INFO : 2022-06-16 11:45:17,693 ] -     (0): BasicBlock(
[ INFO : 2022-06-16 11:45:17,693 ] -       (conv1): Conv2d(128, 256, kernel_size=(3, 3), stride=(2, 2), padding=(1, 1), bias=False)
[ INFO : 2022-06-16 11:45:17,694 ] -       (bn1): BatchNorm2d(256, eps=1e-05, momentum=0.1, affine=True, track_running_stats=True)
[ INFO : 2022-06-16 11:45:17,694 ] -       (conv2): Conv2d(256, 256, kernel_size=(3, 3), stride=(1, 1), padding=(1, 1), bias=False)
[ INFO : 2022-06-16 11:45:17,694 ] -       (bn2): BatchNorm2d(256, eps=1e-05, momentum=0.1, affine=True, track_running_stats=True)
[ INFO : 2022-06-16 11:45:17,694 ] -       (shortcut): Sequential(
[ INFO : 2022-06-16 11:45:17,694 ] -         (0): Conv2d(128, 256, kernel_size=(1, 1), stride=(2, 2), bias=False)
[ INFO : 2022-06-16 11:45:17,694 ] -         (1): BatchNorm2d(256, eps=1e-05, momentum=0.1, affine=True, track_running_stats=True)
[ INFO : 2022-06-16 11:45:17,694 ] -       )
[ INFO : 2022-06-16 11:45:17,694 ] -     )
[ INFO : 2022-06-16 11:45:17,694 ] -     (1): BasicBlock(
[ INFO : 2022-06-16 11:45:17,694 ] -       (conv1): Conv2d(256, 256, kernel_size=(3, 3), stride=(1, 1), padding=(1, 1), bias=False)
[ INFO : 2022-06-16 11:45:17,694 ] -       (bn1): BatchNorm2d(256, eps=1e-05, momentum=0.1, affine=True, track_running_stats=True)
[ INFO : 2022-06-16 11:45:17,694 ] -       (conv2): Conv2d(256, 256, kernel_size=(3, 3), stride=(1, 1), padding=(1, 1), bias=False)
[ INFO : 2022-06-16 11:45:17,695 ] -       (bn2): BatchNorm2d(256, eps=1e-05, momentum=0.1, affine=True, track_running_stats=True)
[ INFO : 2022-06-16 11:45:17,695 ] -       (shortcut): Sequential()
[ INFO : 2022-06-16 11:45:17,695 ] -     )
[ INFO : 2022-06-16 11:45:17,695 ] -     (2): BasicBlock(
[ INFO : 2022-06-16 11:45:17,695 ] -       (conv1): Conv2d(256, 256, kernel_size=(3, 3), stride=(1, 1), padding=(1, 1), bias=False)
[ INFO : 2022-06-16 11:45:17,695 ] -       (bn1): BatchNorm2d(256, eps=1e-05, momentum=0.1, affine=True, track_running_stats=True)
[ INFO : 2022-06-16 11:45:17,695 ] -       (conv2): Conv2d(256, 256, kernel_size=(3, 3), stride=(1, 1), padding=(1, 1), bias=False)
[ INFO : 2022-06-16 11:45:17,695 ] -       (bn2): BatchNorm2d(256, eps=1e-05, momentum=0.1, affine=True, track_running_stats=True)
[ INFO : 2022-06-16 11:45:17,695 ] -       (shortcut): Sequential()
[ INFO : 2022-06-16 11:45:17,695 ] -     )
[ INFO : 2022-06-16 11:45:17,695 ] -   )
[ INFO : 2022-06-16 11:45:17,695 ] -   (pool): TSTP()
[ INFO : 2022-06-16 11:45:17,695 ] -   (seg_1): Linear(in_features=5120, out_features=256, bias=True)
[ INFO : 2022-06-16 11:45:17,696 ] -   (seg_bn_1): BatchNorm1d(256, eps=1e-05, momentum=0.1, affine=False, track_running_stats=True)
[ INFO : 2022-06-16 11:45:17,696 ] -   (seg_2): Linear(in_features=256, out_features=256, bias=True)
[ INFO : 2022-06-16 11:45:17,696 ] -   (projection): ArcMarginProduct(
[ INFO : 2022-06-16 11:45:17,696 ] -     in_features=256, out_features=88503, scale=32.0,
[ INFO : 2022-06-16 11:45:17,696 ] -                       margin=0.0, easy_margin=False
[ INFO : 2022-06-16 11:45:17,696 ] -   )
[ INFO : 2022-06-16 11:45:17,696 ] - )
[ INFO : 2022-06-16 11:45:18,510 ] - start_epoch: 1
…
