…
[ INFO : 2022-06-08 17:38:02,474 ] - <== Data statistics ==>
[ INFO : 2022-06-08 17:38:02,474 ] - train data num: 1092009, spk num: 5994
[ INFO : 2022-06-08 17:38:02,484 ] - <== Dataloaders ==>
[ INFO : 2022-06-08 17:38:02,484 ] - train dataloaders created
[ INFO : 2022-06-08 17:38:02,484 ] - loader size: 2132
[ INFO : 2022-06-08 17:38:02,484 ] - <== Model ==>
[ INFO : 2022-06-08 17:38:02,545 ] - Load initial model from exp/ResNet101-TSTP-emb256-fbank80-num_frms200-aug0.6-spTrue-saFalse-ArcMargin-SGD-epoch150/models/model_45.pt
[ INFO : 2022-06-08 17:38:02,897 ] - ResNet(
[ INFO : 2022-06-08 17:38:02,897 ] -   (conv1): Conv2d(1, 32, kernel_size=(3, 3), stride=(1, 1), padding=(1, 1), bias=False)
[ INFO : 2022-06-08 17:38:02,897 ] -   (bn1): BatchNorm2d(32, eps=1e-05, momentum=0.1, affine=True, track_running_stats=True)
[ INFO : 2022-06-08 17:38:02,897 ] -   (layer1): Sequential(
[ INFO : 2022-06-08 17:38:02,897 ] -     (0): BasicBlock(
[ INFO : 2022-06-08 17:38:02,897 ] -       (conv1): Conv2d(32, 32, kernel_size=(3, 3), stride=(1, 1), padding=(1, 1), bias=False)
[ INFO : 2022-06-08 17:38:02,897 ] -       (bn1): BatchNorm2d(32, eps=1e-05, momentum=0.1, affine=True, track_running_stats=True)
[ INFO : 2022-06-08 17:38:02,897 ] -       (conv2): Conv2d(32, 32, kernel_size=(3, 3), stride=(1, 1), padding=(1, 1), bias=False)
[ INFO : 2022-06-08 17:38:02,898 ] -       (bn2): BatchNorm2d(32, eps=1e-05, momentum=0.1, affine=True, track_running_stats=True)
[ INFO : 2022-06-08 17:38:02,898 ] -       (shortcut): Sequential()
[ INFO : 2022-06-08 17:38:02,898 ] -     )
[ INFO : 2022-06-08 17:38:02,898 ] -     (1): BasicBlock(
[ INFO : 2022-06-08 17:38:02,898 ] -       (conv1): Conv2d(32, 32, kernel_size=(3, 3), stride=(1, 1), padding=(1, 1), bias=False)
[ INFO : 2022-06-08 17:38:02,898 ] -       (bn1): BatchNorm2d(32, eps=1e-05, momentum=0.1, affine=True, track_running_stats=True)
[ INFO : 2022-06-08 17:38:02,898 ] -       (conv2): Conv2d(32, 32, kernel_size=(3, 3), stride=(1, 1), padding=(1, 1), bias=False)
[ INFO : 2022-06-08 17:38:02,898 ] -       (bn2): BatchNorm2d(32, eps=1e-05, momentum=0.1, affine=True, track_running_stats=True)
[ INFO : 2022-06-08 17:38:02,898 ] -       (shortcut): Sequential()
[ INFO : 2022-06-08 17:38:02,898 ] -     )
[ INFO : 2022-06-08 17:38:02,898 ] -     (2): BasicBlock(
[ INFO : 2022-06-08 17:38:02,898 ] -       (conv1): Conv2d(32, 32, kernel_size=(3, 3), stride=(1, 1), padding=(1, 1), bias=False)
[ INFO : 2022-06-08 17:38:02,899 ] -       (bn1): BatchNorm2d(32, eps=1e-05, momentum=0.1, affine=True, track_running_stats=True)
[ INFO : 2022-06-08 17:38:02,899 ] -       (conv2): Conv2d(32, 32, kernel_size=(3, 3), stride=(1, 1), padding=(1, 1), bias=False)
[ INFO : 2022-06-08 17:38:02,899 ] -       (bn2): BatchNorm2d(32, eps=1e-05, momentum=0.1, affine=True, track_running_stats=True)
[ INFO : 2022-06-08 17:38:02,899 ] -       (shortcut): Sequential()
[ INFO : 2022-06-08 17:38:02,899 ] -     )
[ INFO : 2022-06-08 17:38:02,899 ] -   )
[ INFO : 2022-06-08 17:38:02,899 ] -   (layer2): Sequential(
[ INFO : 2022-06-08 17:38:02,899 ] -     (0): BasicBlock(
[ INFO : 2022-06-08 17:38:02,899 ] -       (conv1): Conv2d(32, 64, kernel_size=(3, 3), stride=(2, 2), padding=(1, 1), bias=False)
[ INFO : 2022-06-08 17:38:02,899 ] -       (bn1): BatchNorm2d(64, eps=1e-05, momentum=0.1, affine=True, track_running_stats=True)
[ INFO : 2022-06-08 17:38:02,899 ] -       (conv2): Conv2d(64, 64, kernel_size=(3, 3), stride=(1, 1), padding=(1, 1), bias=False)
[ INFO : 2022-06-08 17:38:02,899 ] -       (bn2): BatchNorm2d(64, eps=1e-05, momentum=0.1, affine=True, track_running_stats=True)
[ INFO : 2022-06-08 17:38:02,900 ] -       (shortcut): Sequential(
[ INFO : 2022-06-08 17:38:02,900 ] -         (0): Conv2d(32, 64, kernel_size=(1, 1), stride=(2, 2), bias=False)
[ INFO : 2022-06-08 17:38:02,900 ] -         (1): BatchNorm2d(64, eps=1e-05, momentum=0.1, affine=True, track_running_stats=True)
[ INFO : 2022-06-08 17:38:02,900 ] -       )
[ INFO : 2022-06-08 17:38:02,900 ] -     )
[ INFO : 2022-06-08 17:38:02,900 ] -     (1): BasicBlock(
[ INFO : 2022-06-08 17:38:02,900 ] -       (conv1): Conv2d(64, 64, kernel_size=(3, 3), stride=(1, 1), padding=(1, 1), bias=False)
[ INFO : 2022-06-08 17:38:02,900 ] -       (bn1): BatchNorm2d(64, eps=1e-05, momentum=0.1, affine=True, track_running_stats=True)
[ INFO : 2022-06-08 17:38:02,900 ] -       (conv2): Conv2d(64, 64, kernel_size=(3, 3), stride=(1, 1), padding=(1, 1), bias=False)
[ INFO : 2022-06-08 17:38:02,900 ] -       (bn2): BatchNorm2d(64, eps=1e-05, momentum=0.1, affine=True, track_running_stats=True)
[ INFO : 2022-06-08 17:38:02,900 ] -       (shortcut): Sequential()
[ INFO : 2022-06-08 17:38:02,900 ] -     )
[ INFO : 2022-06-08 17:38:02,901 ] -     (2): BasicBlock(
[ INFO : 2022-06-08 17:38:02,901 ] -       (conv1): Conv2d(64, 64, kernel_size=(3, 3), stride=(1, 1), padding=(1, 1), bias=False)
[ INFO : 2022-06-08 17:38:02,901 ] -       (bn1): BatchNorm2d(64, eps=1e-05, momentum=0.1, affine=True, track_running_stats=True)
[ INFO : 2022-06-08 17:38:02,901 ] -       (conv2): Conv2d(64, 64, kernel_size=(3, 3), stride=(1, 1), padding=(1, 1), bias=False)
[ INFO : 2022-06-08 17:38:02,901 ] -       (bn2): BatchNorm2d(64, eps=1e-05, momentum=0.1, affine=True, track_running_stats=True)
[ INFO : 2022-06-08 17:38:02,901 ] -       (shortcut): Sequential()
[ INFO : 2022-06-08 17:38:02,901 ] -     )
[ INFO : 2022-06-08 17:38:02,901 ] -     (3): BasicBlock(
[ INFO : 2022-06-08 17:38:02,901 ] -       (conv1): Conv2d(64, 64, kernel_size=(3, 3), stride=(1, 1), padding=(1, 1), bias=False)
[ INFO : 2022-06-08 17:38:02,901 ] -       (bn1): BatchNorm2d(64, eps=1e-05, momentum=0.1, affine=True, track_running_stats=True)
[ INFO : 2022-06-08 17:38:02,901 ] -       (conv2): Conv2d(64, 64, kernel_size=(3, 3), stride=(1, 1), padding=(1, 1), bias=False)
[ INFO : 2022-06-08 17:38:02,901 ] -       (bn2): BatchNorm2d(64, eps=1e-05, momentum=0.1, affine=True, track_running_stats=True)
[ INFO : 2022-06-08 17:38:02,901 ] -       (shortcut): Sequential()
[ INFO : 2022-06-08 17:38:02,902 ] -     )
[ INFO : 2022-06-08 17:38:02,902 ] -   )
[ INFO : 2022-06-08 17:38:02,902 ] -   (layer3): Sequential(
[ INFO : 2022-06-08 17:38:02,902 ] -     (0): BasicBlock(
[ INFO : 2022-06-08 17:38:02,902 ] -       (conv1): Conv2d(64, 128, kernel_size=(3, 3), stride=(2, 2), padding=(1, 1), bias=False)
[ INFO : 2022-06-08 17:38:02,902 ] -       (bn1): BatchNorm2d(128, eps=1e-05, momentum=0.1, affine=True, track_running_stats=True)
[ INFO : 2022-06-08 17:38:02,902 ] -       (conv2): Conv2d(128, 128, kernel_size=(3, 3), stride=(1, 1), padding=(1, 1), bias=False)
[ INFO : 2022-06-08 17:38:02,902 ] -       (bn2): BatchNorm2d(128, eps=1e-05, momentum=0.1, affine=True, track_running_stats=True)
[ INFO : 2022-06-08 17:38:02,902 ] -       (shortcut): Sequential(
[ INFO : 2022-06-08 17:38:02,902 ] -         (0): Conv2d(64, 128, kernel_size=(1, 1), stride=(2, 2), bias=False)
[ INFO : 2022-06-08 17:38:02,902 ] -         (1): BatchNorm2d(128, eps=1e-05, momentum=0.1, affine=True, track_running_stats=True)
[ INFO : 2022-06-08 17:38:02,902 ] -       )
[ INFO : 2022-06-08 17:38:02,903 ] -     )
[ INFO : 2022-06-08 17:38:02,903 ] -     (1): BasicBlock(
[ INFO : 2022-06-08 17:38:02,903 ] -       (conv1): Conv2d(128, 128, kernel_size=(3, 3), stride=(1, 1), padding=(1, 1), bias=False)
[ INFO : 2022-06-08 17:38:02,903 ] -       (bn1): BatchNorm2d(128, eps=1e-05, momentum=0.1, affine=True, track_running_stats=True)
[ INFO : 2022-06-08 17:38:02,903 ] -       (conv2): Conv2d(128, 128, kernel_size=(3, 3), stride=(1, 1), padding=(1, 1), bias=False)
[ INFO : 2022-06-08 17:38:02,903 ] -       (bn2): BatchNorm2d(128, eps=1e-05, momentum=0.1, affine=True, track_running_stats=True)
[ INFO : 2022-06-08 17:38:02,903 ] -       (shortcut): Sequential()
[ INFO : 2022-06-08 17:38:02,903 ] -     )
[ INFO : 2022-06-08 17:38:02,903 ] -     (2): BasicBlock(
[ INFO : 2022-06-08 17:38:02,903 ] -       (conv1): Conv2d(128, 128, kernel_size=(3, 3), stride=(1, 1), padding=(1, 1), bias=False)
[ INFO : 2022-06-08 17:38:02,903 ] -       (bn1): BatchNorm2d(128, eps=1e-05, momentum=0.1, affine=True, track_running_stats=True)
[ INFO : 2022-06-08 17:38:02,903 ] -       (conv2): Conv2d(128, 128, kernel_size=(3, 3), stride=(1, 1), padding=(1, 1), bias=False)
[ INFO : 2022-06-08 17:38:02,904 ] -       (bn2): BatchNorm2d(128, eps=1e-05, momentum=0.1, affine=True, track_running_stats=True)
[ INFO : 2022-06-08 17:38:02,904 ] -       (shortcut): Sequential()
[ INFO : 2022-06-08 17:38:02,904 ] -     )
[ INFO : 2022-06-08 17:38:02,904 ] -     (3): BasicBlock(
[ INFO : 2022-06-08 17:38:02,904 ] -       (conv1): Conv2d(128, 128, kernel_size=(3, 3), stride=(1, 1), padding=(1, 1), bias=False)
[ INFO : 2022-06-08 17:38:02,904 ] -       (bn1): BatchNorm2d(128, eps=1e-05, momentum=0.1, affine=True, track_running_stats=True)
[ INFO : 2022-06-08 17:38:02,904 ] -       (conv2): Conv2d(128, 128, kernel_size=(3, 3), stride=(1, 1), padding=(1, 1), bias=False)
[ INFO : 2022-06-08 17:38:02,904 ] -       (bn2): BatchNorm2d(128, eps=1e-05, momentum=0.1, affine=True, track_running_stats=True)
[ INFO : 2022-06-08 17:38:02,904 ] -       (shortcut): Sequential()
[ INFO : 2022-06-08 17:38:02,904 ] -     )
[ INFO : 2022-06-08 17:38:02,904 ] -     (4): BasicBlock(
[ INFO : 2022-06-08 17:38:02,904 ] -       (conv1): Conv2d(128, 128, kernel_size=(3, 3), stride=(1, 1), padding=(1, 1), bias=False)
[ INFO : 2022-06-08 17:38:02,905 ] -       (bn1): BatchNorm2d(128, eps=1e-05, momentum=0.1, affine=True, track_running_stats=True)
[ INFO : 2022-06-08 17:38:02,905 ] -       (conv2): Conv2d(128, 128, kernel_size=(3, 3), stride=(1, 1), padding=(1, 1), bias=False)
[ INFO : 2022-06-08 17:38:02,905 ] -       (bn2): BatchNorm2d(128, eps=1e-05, momentum=0.1, affine=True, track_running_stats=True)
[ INFO : 2022-06-08 17:38:02,905 ] -       (shortcut): Sequential()
[ INFO : 2022-06-08 17:38:02,905 ] -     )
[ INFO : 2022-06-08 17:38:02,905 ] -     (5): BasicBlock(
[ INFO : 2022-06-08 17:38:02,905 ] -       (conv1): Conv2d(128, 128, kernel_size=(3, 3), stride=(1, 1), padding=(1, 1), bias=False)
[ INFO : 2022-06-08 17:38:02,905 ] -       (bn1): BatchNorm2d(128, eps=1e-05, momentum=0.1, affine=True, track_running_stats=True)
[ INFO : 2022-06-08 17:38:02,905 ] -       (conv2): Conv2d(128, 128, kernel_size=(3, 3), stride=(1, 1), padding=(1, 1), bias=False)
[ INFO : 2022-06-08 17:38:02,905 ] -       (bn2): BatchNorm2d(128, eps=1e-05, momentum=0.1, affine=True, track_running_stats=True)
[ INFO : 2022-06-08 17:38:02,905 ] -       (shortcut): Sequential()
[ INFO : 2022-06-08 17:38:02,905 ] -     )
[ INFO : 2022-06-08 17:38:02,905 ] -   )
[ INFO : 2022-06-08 17:38:02,906 ] -   (layer4): Sequential(
[ INFO : 2022-06-08 17:38:02,906 ] -     (0): BasicBlock(
[ INFO : 2022-06-08 17:38:02,906 ] -       (conv1): Conv2d(128, 256, kernel_size=(3, 3), stride=(2, 2), padding=(1, 1), bias=False)
[ INFO : 2022-06-08 17:38:02,906 ] -       (bn1): BatchNorm2d(256, eps=1e-05, momentum=0.1, affine=True, track_running_stats=True)
[ INFO : 2022-06-08 17:38:02,906 ] -       (conv2): Conv2d(256, 256, kernel_size=(3, 3), stride=(1, 1), padding=(1, 1), bias=False)
[ INFO : 2022-06-08 17:38:02,906 ] -       (bn2): BatchNorm2d(256, eps=1e-05, momentum=0.1, affine=True, track_running_stats=True)
[ INFO : 2022-06-08 17:38:02,906 ] -       (shortcut): Sequential(
[ INFO : 2022-06-08 17:38:02,906 ] -         (0): Conv2d(128, 256, kernel_size=(1, 1), stride=(2, 2), bias=False)
[ INFO : 2022-06-08 17:38:02,906 ] -         (1): BatchNorm2d(256, eps=1e-05, momentum=0.1, affine=True, track_running_stats=True)
[ INFO : 2022-06-08 17:38:02,906 ] -       )
[ INFO : 2022-06-08 17:38:02,906 ] -     )
[ INFO : 2022-06-08 17:38:02,906 ] -     (1): BasicBlock(
[ INFO : 2022-06-08 17:38:02,907 ] -       (conv1): Conv2d(256, 256, kernel_size=(3, 3), stride=(1, 1), padding=(1, 1), bias=False)
[ INFO : 2022-06-08 17:38:02,907 ] -       (bn1): BatchNorm2d(256, eps=1e-05, momentum=0.1, affine=True, track_running_stats=True)
[ INFO : 2022-06-08 17:38:02,907 ] -       (conv2): Conv2d(256, 256, kernel_size=(3, 3), stride=(1, 1), padding=(1, 1), bias=False)
[ INFO : 2022-06-08 17:38:02,907 ] -       (bn2): BatchNorm2d(256, eps=1e-05, momentum=0.1, affine=True, track_running_stats=True)
[ INFO : 2022-06-08 17:38:02,907 ] -       (shortcut): Sequential()
[ INFO : 2022-06-08 17:38:02,907 ] -     )
[ INFO : 2022-06-08 17:38:02,907 ] -     (2): BasicBlock(
[ INFO : 2022-06-08 17:38:02,907 ] -       (conv1): Conv2d(256, 256, kernel_size=(3, 3), stride=(1, 1), padding=(1, 1), bias=False)
[ INFO : 2022-06-08 17:38:02,907 ] -       (bn1): BatchNorm2d(256, eps=1e-05, momentum=0.1, affine=True, track_running_stats=True)
[ INFO : 2022-06-08 17:38:02,907 ] -       (conv2): Conv2d(256, 256, kernel_size=(3, 3), stride=(1, 1), padding=(1, 1), bias=False)
[ INFO : 2022-06-08 17:38:02,907 ] -       (bn2): BatchNorm2d(256, eps=1e-05, momentum=0.1, affine=True, track_running_stats=True)
[ INFO : 2022-06-08 17:38:02,907 ] -       (shortcut): Sequential()
[ INFO : 2022-06-08 17:38:02,907 ] -     )
[ INFO : 2022-06-08 17:38:02,908 ] -   )
[ INFO : 2022-06-08 17:38:02,908 ] -   (pool): TSTP()
[ INFO : 2022-06-08 17:38:02,908 ] -   (seg_1): Linear(in_features=5120, out_features=256, bias=True)
[ INFO : 2022-06-08 17:38:02,908 ] -   (seg_bn_1): BatchNorm1d(256, eps=1e-05, momentum=0.1, affine=False, track_running_stats=True)
[ INFO : 2022-06-08 17:38:02,908 ] -   (seg_2): Linear(in_features=256, out_features=256, bias=True)
[ INFO : 2022-06-08 17:38:02,908 ] -   (projection): ArcMarginProduct(
[ INFO : 2022-06-08 17:38:02,908 ] -     in_features=256, out_features=17982, scale=32.0,
[ INFO : 2022-06-08 17:38:02,908 ] -                       margin=0.0, easy_margin=False
[ INFO : 2022-06-08 17:38:02,908 ] -   )
[ INFO : 2022-06-08 17:38:02,908 ] - )
[ INFO : 2022-06-08 17:38:03,632 ] - checkpoint: exp/ResNet101-TSTP-emb256-fbank80-num_frms200-aug0.6-spTrue-saFalse-ArcMargin-SGD-epoch150/models/model_45.pt
…
