…
[ INFO : 2022-06-16 16:04:29,788 ] - <== Data statistics ==>
[ INFO : 2022-06-16 16:04:29,788 ] - train data num: 1747308, spk num: 29501
[ INFO : 2022-06-16 16:04:29,798 ] - <== Dataloaders ==>
[ INFO : 2022-06-16 16:04:29,798 ] - train dataloaders created
[ INFO : 2022-06-16 16:04:29,798 ] - loader size: 2275
[ INFO : 2022-06-16 16:04:29,798 ] - <== Model ==>
[ INFO : 2022-06-16 16:04:29,860 ] - Load initial model from exp/ResNet101-TSTP-emb256-fbank80-num_frms200-aug0.6-spTrue-saFalse-ArcMargin-SGD-epoch150/models/model_45.pt
[ INFO : 2022-06-16 16:04:30,146 ] - ResNet(
[ INFO : 2022-06-16 16:04:30,146 ] -   (conv1): Conv2d(1, 32, kernel_size=(3, 3), stride=(1, 1), padding=(1, 1), bias=False)
[ INFO : 2022-06-16 16:04:30,146 ] -   (bn1): BatchNorm2d(32, eps=1e-05, momentum=0.1, affine=True, track_running_stats=True)
[ INFO : 2022-06-16 16:04:30,147 ] -   (layer1): Sequential(
[ INFO : 2022-06-16 16:04:30,147 ] -     (0): BasicBlock(
[ INFO : 2022-06-16 16:04:30,147 ] -       (conv1): Conv2d(32, 32, kernel_size=(3, 3), stride=(1, 1), padding=(1, 1), bias=False)
[ INFO : 2022-06-16 16:04:30,147 ] -       (bn1): BatchNorm2d(32, eps=1e-05, momentum=0.1, affine=True, track_running_stats=True)
[ INFO : 2022-06-16 16:04:30,147 ] -       (conv2): Conv2d(32, 32, kernel_size=(3, 3), stride=(1, 1), padding=(1, 1), bias=False)
[ INFO : 2022-06-16 16:04:30,147 ] -       (bn2): BatchNorm2d(32, eps=1e-05, momentum=0.1, affine=True, track_running_stats=True)
[ INFO : 2022-06-16 16:04:30,147 ] -       (shortcut): Sequential()
[ INFO : 2022-06-16 16:04:30,147 ] -     )
[ INFO : 2022-06-16 16:04:30,147 ] -     (1): BasicBlock(
[ INFO : 2022-06-16 16:04:30,147 ] -       (conv1): Conv2d(32, 32, kernel_size=(3, 3), stride=(1, 1), padding=(1, 1), bias=False)
[ INFO : 2022-06-16 16:04:30,148 ] -       (bn1): BatchNorm2d(32, eps=1e-05, momentum=0.1, affine=True, track_running_stats=True)
[ INFO : 2022-06-16 16:04:30,148 ] -       (conv2): Conv2d(32, 32, kernel_size=(3, 3), stride=(1, 1), padding=(1, 1), bias=False)
[ INFO : 2022-06-16 16:04:30,148 ] -       (bn2): BatchNorm2d(32, eps=1e-05, momentum=0.1, affine=True, track_running_stats=True)
[ INFO : 2022-06-16 16:04:30,148 ] -       (shortcut): Sequential()
[ INFO : 2022-06-16 16:04:30,148 ] -     )
[ INFO : 2022-06-16 16:04:30,148 ] -     (2): BasicBlock(
[ INFO : 2022-06-16 16:04:30,148 ] -       (conv1): Conv2d(32, 32, kernel_size=(3, 3), stride=(1, 1), padding=(1, 1), bias=False)
[ INFO : 2022-06-16 16:04:30,148 ] -       (bn1): BatchNorm2d(32, eps=1e-05, momentum=0.1, affine=True, track_running_stats=True)
[ INFO : 2022-06-16 16:04:30,148 ] -       (conv2): Conv2d(32, 32, kernel_size=(3, 3), stride=(1, 1), padding=(1, 1), bias=False)
[ INFO : 2022-06-16 16:04:30,148 ] -       (bn2): BatchNorm2d(32, eps=1e-05, momentum=0.1, affine=True, track_running_stats=True)
[ INFO : 2022-06-16 16:04:30,149 ] -       (shortcut): Sequential()
[ INFO : 2022-06-16 16:04:30,149 ] -     )
[ INFO : 2022-06-16 16:04:30,149 ] -   )
[ INFO : 2022-06-16 16:04:30,149 ] -   (layer2): Sequential(
[ INFO : 2022-06-16 16:04:30,149 ] -     (0): BasicBlock(
[ INFO : 2022-06-16 16:04:30,149 ] -       (conv1): Conv2d(32, 64, kernel_size=(3, 3), stride=(2, 2), padding=(1, 1), bias=False)
[ INFO : 2022-06-16 16:04:30,149 ] -       (bn1): BatchNorm2d(64, eps=1e-05, momentum=0.1, affine=True, track_running_stats=True)
[ INFO : 2022-06-16 16:04:30,149 ] -       (conv2): Conv2d(64, 64, kernel_size=(3, 3), stride=(1, 1), padding=(1, 1), bias=False)
[ INFO : 2022-06-16 16:04:30,149 ] -       (bn2): BatchNorm2d(64, eps=1e-05, momentum=0.1, affine=True, track_running_stats=True)
[ INFO : 2022-06-16 16:04:30,149 ] -       (shortcut): Sequential(
[ INFO : 2022-06-16 16:04:30,150 ] -         (0): Conv2d(32, 64, kernel_size=(1, 1), stride=(2, 2), bias=False)
[ INFO : 2022-06-16 16:04:30,150 ] -         (1): BatchNorm2d(64, eps=1e-05, momentum=0.1, affine=True, track_running_stats=True)
[ INFO : 2022-06-16 16:04:30,150 ] -       )
[ INFO : 2022-06-16 16:04:30,150 ] -     )
[ INFO : 2022-06-16 16:04:30,150 ] -     (1): BasicBlock(
[ INFO : 2022-06-16 16:04:30,150 ] -       (conv1): Conv2d(64, 64, kernel_size=(3, 3), stride=(1, 1), padding=(1, 1), bias=False)
[ INFO : 2022-06-16 16:04:30,150 ] -       (bn1): BatchNorm2d(64, eps=1e-05, momentum=0.1, affine=True, track_running_stats=True)
[ INFO : 2022-06-16 16:04:30,150 ] -       (conv2): Conv2d(64, 64, kernel_size=(3, 3), stride=(1, 1), padding=(1, 1), bias=False)
[ INFO : 2022-06-16 16:04:30,150 ] -       (bn2): BatchNorm2d(64, eps=1e-05, momentum=0.1, affine=True, track_running_stats=True)
[ INFO : 2022-06-16 16:04:30,151 ] -       (shortcut): Sequential()
[ INFO : 2022-06-16 16:04:30,151 ] -     )
[ INFO : 2022-06-16 16:04:30,151 ] -     (2): BasicBlock(
[ INFO : 2022-06-16 16:04:30,151 ] -       (conv1): Conv2d(64, 64, kernel_size=(3, 3), stride=(1, 1), padding=(1, 1), bias=False)
[ INFO : 2022-06-16 16:04:30,151 ] -       (bn1): BatchNorm2d(64, eps=1e-05, momentum=0.1, affine=True, track_running_stats=True)
[ INFO : 2022-06-16 16:04:30,151 ] -       (conv2): Conv2d(64, 64, kernel_size=(3, 3), stride=(1, 1), padding=(1, 1), bias=False)
[ INFO : 2022-06-16 16:04:30,151 ] -       (bn2): BatchNorm2d(64, eps=1e-05, momentum=0.1, affine=True, track_running_stats=True)
[ INFO : 2022-06-16 16:04:30,151 ] -       (shortcut): Sequential()
[ INFO : 2022-06-16 16:04:30,151 ] -     )
[ INFO : 2022-06-16 16:04:30,152 ] -     (3): BasicBlock(
[ INFO : 2022-06-16 16:04:30,152 ] -       (conv1): Conv2d(64, 64, kernel_size=(3, 3), stride=(1, 1), padding=(1, 1), bias=False)
[ INFO : 2022-06-16 16:04:30,152 ] -       (bn1): BatchNorm2d(64, eps=1e-05, momentum=0.1, affine=True, track_running_stats=True)
[ INFO : 2022-06-16 16:04:30,152 ] -       (conv2): Conv2d(64, 64, kernel_size=(3, 3), stride=(1, 1), padding=(1, 1), bias=False)
[ INFO : 2022-06-16 16:04:30,152 ] -       (bn2): BatchNorm2d(64, eps=1e-05, momentum=0.1, affine=True, track_running_stats=True)
[ INFO : 2022-06-16 16:04:30,152 ] -       (shortcut): Sequential()
[ INFO : 2022-06-16 16:04:30,152 ] -     )
[ INFO : 2022-06-16 16:04:30,152 ] -   )
[ INFO : 2022-06-16 16:04:30,152 ] -   (layer3): Sequential(
[ INFO : 2022-06-16 16:04:30,153 ] -     (0): BasicBlock(
[ INFO : 2022-06-16 16:04:30,153 ] -       (conv1): Conv2d(64, 128, kernel_size=(3, 3), stride=(2, 2), padding=(1, 1), bias=False)
[ INFO : 2022-06-16 16:04:30,153 ] -       (bn1): BatchNorm2d(128, eps=1e-05, momentum=0.1, affine=True, track_running_stats=True)
[ INFO : 2022-06-16 16:04:30,153 ] -       (conv2): Conv2d(128, 128, kernel_size=(3, 3), stride=(1, 1), padding=(1, 1), bias=False)
[ INFO : 2022-06-16 16:04:30,153 ] -       (bn2): BatchNorm2d(128, eps=1e-05, momentum=0.1, affine=True, track_running_stats=True)
[ INFO : 2022-06-16 16:04:30,153 ] -       (shortcut): Sequential(
[ INFO : 2022-06-16 16:04:30,153 ] -         (0): Conv2d(64, 128, kernel_size=(1, 1), stride=(2, 2), bias=False)
[ INFO : 2022-06-16 16:04:30,153 ] -         (1): BatchNorm2d(128, eps=1e-05, momentum=0.1, affine=True, track_running_stats=True)
[ INFO : 2022-06-16 16:04:30,153 ] -       )
[ INFO : 2022-06-16 16:04:30,153 ] -     )
[ INFO : 2022-06-16 16:04:30,154 ] -     (1): BasicBlock(
[ INFO : 2022-06-16 16:04:30,154 ] -       (conv1): Conv2d(128, 128, kernel_size=(3, 3), stride=(1, 1), padding=(1, 1), bias=False)
[ INFO : 2022-06-16 16:04:30,154 ] -       (bn1): BatchNorm2d(128, eps=1e-05, momentum=0.1, affine=True, track_running_stats=True)
[ INFO : 2022-06-16 16:04:30,154 ] -       (conv2): Conv2d(128, 128, kernel_size=(3, 3), stride=(1, 1), padding=(1, 1), bias=False)
[ INFO : 2022-06-16 16:04:30,154 ] -       (bn2): BatchNorm2d(128, eps=1e-05, momentum=0.1, affine=True, track_running_stats=True)
[ INFO : 2022-06-16 16:04:30,154 ] -       (shortcut): Sequential()
[ INFO : 2022-06-16 16:04:30,154 ] -     )
[ INFO : 2022-06-16 16:04:30,154 ] -     (2): BasicBlock(
[ INFO : 2022-06-16 16:04:30,154 ] -       (conv1): Conv2d(128, 128, kernel_size=(3, 3), stride=(1, 1), padding=(1, 1), bias=False)
[ INFO : 2022-06-16 16:04:30,154 ] -       (bn1): BatchNorm2d(128, eps=1e-05, momentum=0.1, affine=True, track_running_stats=True)
[ INFO : 2022-06-16 16:04:30,155 ] -       (conv2): Conv2d(128, 128, kernel_size=(3, 3), stride=(1, 1), padding=(1, 1), bias=False)
[ INFO : 2022-06-16 16:04:30,155 ] -       (bn2): BatchNorm2d(128, eps=1e-05, momentum=0.1, affine=True, track_running_stats=True)
[ INFO : 2022-06-16 16:04:30,155 ] -       (shortcut): Sequential()
[ INFO : 2022-06-16 16:04:30,155 ] -     )
[ INFO : 2022-06-16 16:04:30,155 ] -     (3): BasicBlock(
[ INFO : 2022-06-16 16:04:30,155 ] -       (conv1): Conv2d(128, 128, kernel_size=(3, 3), stride=(1, 1), padding=(1, 1), bias=False)
[ INFO : 2022-06-16 16:04:30,155 ] -       (bn1): BatchNorm2d(128, eps=1e-05, momentum=0.1, affine=True, track_running_stats=True)
[ INFO : 2022-06-16 16:04:30,155 ] -       (conv2): Conv2d(128, 128, kernel_size=(3, 3), stride=(1, 1), padding=(1, 1), bias=False)
[ INFO : 2022-06-16 16:04:30,155 ] -       (bn2): BatchNorm2d(128, eps=1e-05, momentum=0.1, affine=True, track_running_stats=True)
[ INFO : 2022-06-16 16:04:30,155 ] -       (shortcut): Sequential()
[ INFO : 2022-06-16 16:04:30,156 ] -     )
[ INFO : 2022-06-16 16:04:30,156 ] -     (4): BasicBlock(
[ INFO : 2022-06-16 16:04:30,156 ] -       (conv1): Conv2d(128, 128, kernel_size=(3, 3), stride=(1, 1), padding=(1, 1), bias=False)
[ INFO : 2022-06-16 16:04:30,156 ] -       (bn1): BatchNorm2d(128, eps=1e-05, momentum=0.1, affine=True, track_running_stats=True)
[ INFO : 2022-06-16 16:04:30,156 ] -       (conv2): Conv2d(128, 128, kernel_size=(3, 3), stride=(1, 1), padding=(1, 1), bias=False)
[ INFO : 2022-06-16 16:04:30,156 ] -       (bn2): BatchNorm2d(128, eps=1e-05, momentum=0.1, affine=True, track_running_stats=True)
[ INFO : 2022-06-16 16:04:30,156 ] -       (shortcut): Sequential()
[ INFO : 2022-06-16 16:04:30,156 ] -     )
[ INFO : 2022-06-16 16:04:30,156 ] -     (5): BasicBlock(
[ INFO : 2022-06-16 16:04:30,157 ] -       (conv1): Conv2d(128, 128, kernel_size=(3, 3), stride=(1, 1), padding=(1, 1), bias=False)
[ INFO : 2022-06-16 16:04:30,157 ] -       (bn1): BatchNorm2d(128, eps=1e-05, momentum=0.1, affine=True, track_running_stats=True)
[ INFO : 2022-06-16 16:04:30,157 ] -       (conv2): Conv2d(128, 128, kernel_size=(3, 3), stride=(1, 1), padding=(1, 1), bias=False)
[ INFO : 2022-06-16 16:04:30,157 ] -       (bn2): BatchNorm2d(128, eps=1e-05, momentum=0.1, affine=True, track_running_stats=True)
[ INFO : 2022-06-16 16:04:30,157 ] -       (shortcut): Sequential()
[ INFO : 2022-06-16 16:04:30,157 ] -     )
[ INFO : 2022-06-16 16:04:30,157 ] -   )
[ INFO : 2022-06-16 16:04:30,157 ] -   (layer4): Sequential(
[ INFO : 2022-06-16 16:04:30,157 ] -     (0): BasicBlock(
[ INFO : 2022-06-16 16:04:30,157 ] -       (conv1): Conv2d(128, 256, kernel_size=(3, 3), stride=(2, 2), padding=(1, 1), bias=False)
[ INFO : 2022-06-16 16:04:30,158 ] -       (bn1): BatchNorm2d(256, eps=1e-05, momentum=0.1, affine=True, track_running_stats=True)
[ INFO : 2022-06-16 16:04:30,158 ] -       (conv2): Conv2d(256, 256, kernel_size=(3, 3), stride=(1, 1), padding=(1, 1), bias=False)
[ INFO : 2022-06-16 16:04:30,158 ] -       (bn2): BatchNorm2d(256, eps=1e-05, momentum=0.1, affine=True, track_running_stats=True)
[ INFO : 2022-06-16 16:04:30,158 ] -       (shortcut): Sequential(
[ INFO : 2022-06-16 16:04:30,158 ] -         (0): Conv2d(128, 256, kernel_size=(1, 1), stride=(2, 2), bias=False)
[ INFO : 2022-06-16 16:04:30,158 ] -         (1): BatchNorm2d(256, eps=1e-05, momentum=0.1, affine=True, track_running_stats=True)
[ INFO : 2022-06-16 16:04:30,158 ] -       )
[ INFO : 2022-06-16 16:04:30,158 ] -     )
[ INFO : 2022-06-16 16:04:30,158 ] -     (1): BasicBlock(
[ INFO : 2022-06-16 16:04:30,159 ] -       (conv1): Conv2d(256, 256, kernel_size=(3, 3), stride=(1, 1), padding=(1, 1), bias=False)
[ INFO : 2022-06-16 16:04:30,159 ] -       (bn1): BatchNorm2d(256, eps=1e-05, momentum=0.1, affine=True, track_running_stats=True)
[ INFO : 2022-06-16 16:04:30,159 ] -       (conv2): Conv2d(256, 256, kernel_size=(3, 3), stride=(1, 1), padding=(1, 1), bias=False)
[ INFO : 2022-06-16 16:04:30,159 ] -       (bn2): BatchNorm2d(256, eps=1e-05, momentum=0.1, affine=True, track_running_stats=True)
[ INFO : 2022-06-16 16:04:30,159 ] -       (shortcut): Sequential()
[ INFO : 2022-06-16 16:04:30,159 ] -     )
[ INFO : 2022-06-16 16:04:30,159 ] -     (2): BasicBlock(
[ INFO : 2022-06-16 16:04:30,159 ] -       (conv1): Conv2d(256, 256, kernel_size=(3, 3), stride=(1, 1), padding=(1, 1), bias=False)
[ INFO : 2022-06-16 16:04:30,159 ] -       (bn1): BatchNorm2d(256, eps=1e-05, momentum=0.1, affine=True, track_running_stats=True)
[ INFO : 2022-06-16 16:04:30,159 ] -       (conv2): Conv2d(256, 256, kernel_size=(3, 3), stride=(1, 1), padding=(1, 1), bias=False)
[ INFO : 2022-06-16 16:04:30,160 ] -       (bn2): BatchNorm2d(256, eps=1e-05, momentum=0.1, affine=True, track_running_stats=True)
[ INFO : 2022-06-16 16:04:30,160 ] -       (shortcut): Sequential()
[ INFO : 2022-06-16 16:04:30,160 ] -     )
[ INFO : 2022-06-16 16:04:30,160 ] -   )
[ INFO : 2022-06-16 16:04:30,160 ] -   (pool): TSTP()
[ INFO : 2022-06-16 16:04:30,160 ] -   (seg_1): Linear(in_features=5120, out_features=256, bias=True)
[ INFO : 2022-06-16 16:04:30,160 ] -   (seg_bn_1): BatchNorm1d(256, eps=1e-05, momentum=0.1, affine=False, track_running_stats=True)
[ INFO : 2022-06-16 16:04:30,160 ] -   (seg_2): Linear(in_features=256, out_features=256, bias=True)
[ INFO : 2022-06-16 16:04:30,160 ] -   (projection): ArcMarginProduct(
[ INFO : 2022-06-16 16:04:30,161 ] -     in_features=256, out_features=88503, scale=32.0,
[ INFO : 2022-06-16 16:04:30,161 ] -                       margin=0.0, easy_margin=False
[ INFO : 2022-06-16 16:04:30,161 ] -   )
[ INFO : 2022-06-16 16:04:30,161 ] - )
Traceback (most recent call last):
…
