…
[ INFO : 2022-06-16 14:48:30,549 ] - <== Data statistics ==>
[ INFO : 2022-06-16 14:48:30,549 ] - train data num: 1747308, spk num: 29501
[ INFO : 2022-06-16 14:48:30,559 ] - <== Dataloaders ==>
[ INFO : 2022-06-16 14:48:30,559 ] - train dataloaders created
[ INFO : 2022-06-16 14:48:30,559 ] - loader size: 2275
[ INFO : 2022-06-16 14:48:30,559 ] - <== Model ==>
[ INFO : 2022-06-16 14:48:30,621 ] - Load initial model from exp/ResNet101-TSTP-emb256-fbank80-num_frms200-aug0.6-spTrue-saFalse-ArcMargin-SGD-epoch150/models/model_45.pt
[ INFO : 2022-06-16 14:48:30,898 ] - ResNet(
[ INFO : 2022-06-16 14:48:30,898 ] -   (conv1): Conv2d(1, 32, kernel_size=(3, 3), stride=(1, 1), padding=(1, 1), bias=False)
[ INFO : 2022-06-16 14:48:30,898 ] -   (bn1): BatchNorm2d(32, eps=1e-05, momentum=0.1, affine=True, track_running_stats=True)
[ INFO : 2022-06-16 14:48:30,898 ] -   (layer1): Sequential(
[ INFO : 2022-06-16 14:48:30,898 ] -     (0): BasicBlock(
[ INFO : 2022-06-16 14:48:30,898 ] -       (conv1): Conv2d(32, 32, kernel_size=(3, 3), stride=(1, 1), padding=(1, 1), bias=False)
[ INFO : 2022-06-16 14:48:30,899 ] -       (bn1): BatchNorm2d(32, eps=1e-05, momentum=0.1, affine=True, track_running_stats=True)
[ INFO : 2022-06-16 14:48:30,899 ] -       (conv2): Conv2d(32, 32, kernel_size=(3, 3), stride=(1, 1), padding=(1, 1), bias=False)
[ INFO : 2022-06-16 14:48:30,899 ] -       (bn2): BatchNorm2d(32, eps=1e-05, momentum=0.1, affine=True, track_running_stats=True)
[ INFO : 2022-06-16 14:48:30,899 ] -       (shortcut): Sequential()
[ INFO : 2022-06-16 14:48:30,899 ] -     )
[ INFO : 2022-06-16 14:48:30,899 ] -     (1): BasicBlock(
[ INFO : 2022-06-16 14:48:30,899 ] -       (conv1): Conv2d(32, 32, kernel_size=(3, 3), stride=(1, 1), padding=(1, 1), bias=False)
[ INFO : 2022-06-16 14:48:30,899 ] -       (bn1): BatchNorm2d(32, eps=1e-05, momentum=0.1, affine=True, track_running_stats=True)
[ INFO : 2022-06-16 14:48:30,899 ] -       (conv2): Conv2d(32, 32, kernel_size=(3, 3), stride=(1, 1), padding=(1, 1), bias=False)
[ INFO : 2022-06-16 14:48:30,899 ] -       (bn2): BatchNorm2d(32, eps=1e-05, momentum=0.1, affine=True, track_running_stats=True)
[ INFO : 2022-06-16 14:48:30,899 ] -       (shortcut): Sequential()
[ INFO : 2022-06-16 14:48:30,899 ] -     )
[ INFO : 2022-06-16 14:48:30,900 ] -     (2): BasicBlock(
[ INFO : 2022-06-16 14:48:30,900 ] -       (conv1): Conv2d(32, 32, kernel_size=(3, 3), stride=(1, 1), padding=(1, 1), bias=False)
[ INFO : 2022-06-16 14:48:30,900 ] -       (bn1): BatchNorm2d(32, eps=1e-05, momentum=0.1, affine=True, track_running_stats=True)
[ INFO : 2022-06-16 14:48:30,900 ] -       (conv2): Conv2d(32, 32, kernel_size=(3, 3), stride=(1, 1), padding=(1, 1), bias=False)
[ INFO : 2022-06-16 14:48:30,900 ] -       (bn2): BatchNorm2d(32, eps=1e-05, momentum=0.1, affine=True, track_running_stats=True)
[ INFO : 2022-06-16 14:48:30,900 ] -       (shortcut): Sequential()
[ INFO : 2022-06-16 14:48:30,900 ] -     )
[ INFO : 2022-06-16 14:48:30,900 ] -   )
[ INFO : 2022-06-16 14:48:30,900 ] -   (layer2): Sequential(
[ INFO : 2022-06-16 14:48:30,900 ] -     (0): BasicBlock(
[ INFO : 2022-06-16 14:48:30,900 ] -       (conv1): Conv2d(32, 64, kernel_size=(3, 3), stride=(2, 2), padding=(1, 1), bias=False)
[ INFO : 2022-06-16 14:48:30,900 ] -       (bn1): BatchNorm2d(64, eps=1e-05, momentum=0.1, affine=True, track_running_stats=True)
[ INFO : 2022-06-16 14:48:30,901 ] -       (conv2): Conv2d(64, 64, kernel_size=(3, 3), stride=(1, 1), padding=(1, 1), bias=False)
[ INFO : 2022-06-16 14:48:30,901 ] -       (bn2): BatchNorm2d(64, eps=1e-05, momentum=0.1, affine=True, track_running_stats=True)
[ INFO : 2022-06-16 14:48:30,901 ] -       (shortcut): Sequential(
[ INFO : 2022-06-16 14:48:30,901 ] -         (0): Conv2d(32, 64, kernel_size=(1, 1), stride=(2, 2), bias=False)
[ INFO : 2022-06-16 14:48:30,901 ] -         (1): BatchNorm2d(64, eps=1e-05, momentum=0.1, affine=True, track_running_stats=True)
[ INFO : 2022-06-16 14:48:30,901 ] -       )
[ INFO : 2022-06-16 14:48:30,901 ] -     )
[ INFO : 2022-06-16 14:48:30,901 ] -     (1): BasicBlock(
[ INFO : 2022-06-16 14:48:30,901 ] -       (conv1): Conv2d(64, 64, kernel_size=(3, 3), stride=(1, 1), padding=(1, 1), bias=False)
[ INFO : 2022-06-16 14:48:30,901 ] -       (bn1): BatchNorm2d(64, eps=1e-05, momentum=0.1, affine=True, track_running_stats=True)
[ INFO : 2022-06-16 14:48:30,901 ] -       (conv2): Conv2d(64, 64, kernel_size=(3, 3), stride=(1, 1), padding=(1, 1), bias=False)
[ INFO : 2022-06-16 14:48:30,901 ] -       (bn2): BatchNorm2d(64, eps=1e-05, momentum=0.1, affine=True, track_running_stats=True)
[ INFO : 2022-06-16 14:48:30,901 ] -       (shortcut): Sequential()
[ INFO : 2022-06-16 14:48:30,902 ] -     )
[ INFO : 2022-06-16 14:48:30,902 ] -     (2): BasicBlock(
[ INFO : 2022-06-16 14:48:30,902 ] -       (conv1): Conv2d(64, 64, kernel_size=(3, 3), stride=(1, 1), padding=(1, 1), bias=False)
[ INFO : 2022-06-16 14:48:30,902 ] -       (bn1): BatchNorm2d(64, eps=1e-05, momentum=0.1, affine=True, track_running_stats=True)
[ INFO : 2022-06-16 14:48:30,902 ] -       (conv2): Conv2d(64, 64, kernel_size=(3, 3), stride=(1, 1), padding=(1, 1), bias=False)
[ INFO : 2022-06-16 14:48:30,902 ] -       (bn2): BatchNorm2d(64, eps=1e-05, momentum=0.1, affine=True, track_running_stats=True)
[ INFO : 2022-06-16 14:48:30,902 ] -       (shortcut): Sequential()
[ INFO : 2022-06-16 14:48:30,902 ] -     )
[ INFO : 2022-06-16 14:48:30,902 ] -     (3): BasicBlock(
[ INFO : 2022-06-16 14:48:30,902 ] -       (conv1): Conv2d(64, 64, kernel_size=(3, 3), stride=(1, 1), padding=(1, 1), bias=False)
[ INFO : 2022-06-16 14:48:30,902 ] -       (bn1): BatchNorm2d(64, eps=1e-05, momentum=0.1, affine=True, track_running_stats=True)
[ INFO : 2022-06-16 14:48:30,902 ] -       (conv2): Conv2d(64, 64, kernel_size=(3, 3), stride=(1, 1), padding=(1, 1), bias=False)
[ INFO : 2022-06-16 14:48:30,903 ] -       (bn2): BatchNorm2d(64, eps=1e-05, momentum=0.1, affine=True, track_running_stats=True)
[ INFO : 2022-06-16 14:48:30,903 ] -       (shortcut): Sequential()
[ INFO : 2022-06-16 14:48:30,903 ] -     )
[ INFO : 2022-06-16 14:48:30,903 ] -   )
[ INFO : 2022-06-16 14:48:30,903 ] -   (layer3): Sequential(
[ INFO : 2022-06-16 14:48:30,903 ] -     (0): BasicBlock(
[ INFO : 2022-06-16 14:48:30,903 ] -       (conv1): Conv2d(64, 128, kernel_size=(3, 3), stride=(2, 2), padding=(1, 1), bias=False)
[ INFO : 2022-06-16 14:48:30,903 ] -       (bn1): BatchNorm2d(128, eps=1e-05, momentum=0.1, affine=True, track_running_stats=True)
[ INFO : 2022-06-16 14:48:30,903 ] -       (conv2): Conv2d(128, 128, kernel_size=(3, 3), stride=(1, 1), padding=(1, 1), bias=False)
[ INFO : 2022-06-16 14:48:30,903 ] -       (bn2): BatchNorm2d(128, eps=1e-05, momentum=0.1, affine=True, track_running_stats=True)
[ INFO : 2022-06-16 14:48:30,903 ] -       (shortcut): Sequential(
[ INFO : 2022-06-16 14:48:30,904 ] -         (0): Conv2d(64, 128, kernel_size=(1, 1), stride=(2, 2), bias=False)
[ INFO : 2022-06-16 14:48:30,904 ] -         (1): BatchNorm2d(128, eps=1e-05, momentum=0.1, affine=True, track_running_stats=True)
[ INFO : 2022-06-16 14:48:30,904 ] -       )
[ INFO : 2022-06-16 14:48:30,904 ] -     )
[ INFO : 2022-06-16 14:48:30,904 ] -     (1): BasicBlock(
[ INFO : 2022-06-16 14:48:30,904 ] -       (conv1): Conv2d(128, 128, kernel_size=(3, 3), stride=(1, 1), padding=(1, 1), bias=False)
[ INFO : 2022-06-16 14:48:30,904 ] -       (bn1): BatchNorm2d(128, eps=1e-05, momentum=0.1, affine=True, track_running_stats=True)
[ INFO : 2022-06-16 14:48:30,904 ] -       (conv2): Conv2d(128, 128, kernel_size=(3, 3), stride=(1, 1), padding=(1, 1), bias=False)
[ INFO : 2022-06-16 14:48:30,904 ] -       (bn2): BatchNorm2d(128, eps=1e-05, momentum=0.1, affine=True, track_running_stats=True)
[ INFO : 2022-06-16 14:48:30,904 ] -       (shortcut): Sequential()
[ INFO : 2022-06-16 14:48:30,904 ] -     )
[ INFO : 2022-06-16 14:48:30,904 ] -     (2): BasicBlock(
[ INFO : 2022-06-16 14:48:30,905 ] -       (conv1): Conv2d(128, 128, kernel_size=(3, 3), stride=(1, 1), padding=(1, 1), bias=False)
[ INFO : 2022-06-16 14:48:30,905 ] -       (bn1): BatchNorm2d(128, eps=1e-05, momentum=0.1, affine=True, track_running_stats=True)
[ INFO : 2022-06-16 14:48:30,905 ] -       (conv2): Conv2d(128, 128, kernel_size=(3, 3), stride=(1, 1), padding=(1, 1), bias=False)
[ INFO : 2022-06-16 14:48:30,905 ] -       (bn2): BatchNorm2d(128, eps=1e-05, momentum=0.1, affine=True, track_running_stats=True)
[ INFO : 2022-06-16 14:48:30,905 ] -       (shortcut): Sequential()
[ INFO : 2022-06-16 14:48:30,905 ] -     )
[ INFO : 2022-06-16 14:48:30,905 ] -     (3): BasicBlock(
[ INFO : 2022-06-16 14:48:30,905 ] -       (conv1): Conv2d(128, 128, kernel_size=(3, 3), stride=(1, 1), padding=(1, 1), bias=False)
[ INFO : 2022-06-16 14:48:30,905 ] -       (bn1): BatchNorm2d(128, eps=1e-05, momentum=0.1, affine=True, track_running_stats=True)
[ INFO : 2022-06-16 14:48:30,905 ] -       (conv2): Conv2d(128, 128, kernel_size=(3, 3), stride=(1, 1), padding=(1, 1), bias=False)
[ INFO : 2022-06-16 14:48:30,905 ] -       (bn2): BatchNorm2d(128, eps=1e-05, momentum=0.1, affine=True, track_running_stats=True)
[ INFO : 2022-06-16 14:48:30,905 ] -       (shortcut): Sequential()
[ INFO : 2022-06-16 14:48:30,906 ] -     )
[ INFO : 2022-06-16 14:48:30,906 ] -     (4): BasicBlock(
[ INFO : 2022-06-16 14:48:30,906 ] -       (conv1): Conv2d(128, 128, kernel_size=(3, 3), stride=(1, 1), padding=(1, 1), bias=False)
[ INFO : 2022-06-16 14:48:30,906 ] -       (bn1): BatchNorm2d(128, eps=1e-05, momentum=0.1, affine=True, track_running_stats=True)
[ INFO : 2022-06-16 14:48:30,906 ] -       (conv2): Conv2d(128, 128, kernel_size=(3, 3), stride=(1, 1), padding=(1, 1), bias=False)
[ INFO : 2022-06-16 14:48:30,906 ] -       (bn2): BatchNorm2d(128, eps=1e-05, momentum=0.1, affine=True, track_running_stats=True)
[ INFO : 2022-06-16 14:48:30,906 ] -       (shortcut): Sequential()
[ INFO : 2022-06-16 14:48:30,906 ] -     )
[ INFO : 2022-06-16 14:48:30,906 ] -     (5): BasicBlock(
[ INFO : 2022-06-16 14:48:30,906 ] -       (conv1): Conv2d(128, 128, kernel_size=(3, 3), stride=(1, 1), padding=(1, 1), bias=False)
[ INFO : 2022-06-16 14:48:30,906 ] -       (bn1): BatchNorm2d(128, eps=1e-05, momentum=0.1, affine=True, track_running_stats=True)
[ INFO : 2022-06-16 14:48:30,906 ] -       (conv2): Conv2d(128, 128, kernel_size=(3, 3), stride=(1, 1), padding=(1, 1), bias=False)
[ INFO : 2022-06-16 14:48:30,907 ] -       (bn2): BatchNorm2d(128, eps=1e-05, momentum=0.1, affine=True, track_running_stats=True)
[ INFO : 2022-06-16 14:48:30,907 ] -       (shortcut): Sequential()
[ INFO : 2022-06-16 14:48:30,907 ] -     )
[ INFO : 2022-06-16 14:48:30,907 ] -   )
[ INFO : 2022-06-16 14:48:30,907 ] -   (layer4): Sequential(
[ INFO : 2022-06-16 14:48:30,907 ] -     (0): BasicBlock(
[ INFO : 2022-06-16 14:48:30,907 ] -       (conv1): Conv2d(128, 256, kernel_size=(3, 3), stride=(2, 2), padding=(1, 1), bias=False)
[ INFO : 2022-06-16 14:48:30,907 ] -       (bn1): BatchNorm2d(256, eps=1e-05, momentum=0.1, affine=True, track_running_stats=True)
[ INFO : 2022-06-16 14:48:30,907 ] -       (conv2): Conv2d(256, 256, kernel_size=(3, 3), stride=(1, 1), padding=(1, 1), bias=False)
[ INFO : 2022-06-16 14:48:30,907 ] -       (bn2): BatchNorm2d(256, eps=1e-05, momentum=0.1, affine=True, track_running_stats=True)
[ INFO : 2022-06-16 14:48:30,907 ] -       (shortcut): Sequential(
[ INFO : 2022-06-16 14:48:30,908 ] -         (0): Conv2d(128, 256, kernel_size=(1, 1), stride=(2, 2), bias=False)
[ INFO : 2022-06-16 14:48:30,908 ] -         (1): BatchNorm2d(256, eps=1e-05, momentum=0.1, affine=True, track_running_stats=True)
[ INFO : 2022-06-16 14:48:30,908 ] -       )
[ INFO : 2022-06-16 14:48:30,908 ] -     )
[ INFO : 2022-06-16 14:48:30,908 ] -     (1): BasicBlock(
[ INFO : 2022-06-16 14:48:30,908 ] -       (conv1): Conv2d(256, 256, kernel_size=(3, 3), stride=(1, 1), padding=(1, 1), bias=False)
[ INFO : 2022-06-16 14:48:30,908 ] -       (bn1): BatchNorm2d(256, eps=1e-05, momentum=0.1, affine=True, track_running_stats=True)
[ INFO : 2022-06-16 14:48:30,908 ] -       (conv2): Conv2d(256, 256, kernel_size=(3, 3), stride=(1, 1), padding=(1, 1), bias=False)
[ INFO : 2022-06-16 14:48:30,908 ] -       (bn2): BatchNorm2d(256, eps=1e-05, momentum=0.1, affine=True, track_running_stats=True)
[ INFO : 2022-06-16 14:48:30,908 ] -       (shortcut): Sequential()
[ INFO : 2022-06-16 14:48:30,908 ] -     )
[ INFO : 2022-06-16 14:48:30,908 ] -     (2): BasicBlock(
[ INFO : 2022-06-16 14:48:30,909 ] -       (conv1): Conv2d(256, 256, kernel_size=(3, 3), stride=(1, 1), padding=(1, 1), bias=False)
[ INFO : 2022-06-16 14:48:30,909 ] -       (bn1): BatchNorm2d(256, eps=1e-05, momentum=0.1, affine=True, track_running_stats=True)
[ INFO : 2022-06-16 14:48:30,909 ] -       (conv2): Conv2d(256, 256, kernel_size=(3, 3), stride=(1, 1), padding=(1, 1), bias=False)
[ INFO : 2022-06-16 14:48:30,909 ] -       (bn2): BatchNorm2d(256, eps=1e-05, momentum=0.1, affine=True, track_running_stats=True)
[ INFO : 2022-06-16 14:48:30,909 ] -       (shortcut): Sequential()
[ INFO : 2022-06-16 14:48:30,909 ] -     )
[ INFO : 2022-06-16 14:48:30,909 ] -   )
[ INFO : 2022-06-16 14:48:30,909 ] -   (pool): TSTP()
[ INFO : 2022-06-16 14:48:30,909 ] -   (seg_1): Linear(in_features=5120, out_features=256, bias=True)
[ INFO : 2022-06-16 14:48:30,909 ] -   (seg_bn_1): BatchNorm1d(256, eps=1e-05, momentum=0.1, affine=False, track_running_stats=True)
[ INFO : 2022-06-16 14:48:30,909 ] -   (seg_2): Linear(in_features=256, out_features=256, bias=True)
[ INFO : 2022-06-16 14:48:30,909 ] -   (projection): ArcMarginProduct(
[ INFO : 2022-06-16 14:48:30,910 ] -     in_features=256, out_features=88503, scale=32.0,
[ INFO : 2022-06-16 14:48:30,910 ] -                       margin=0.0, easy_margin=False
[ INFO : 2022-06-16 14:48:30,910 ] -   )
[ INFO : 2022-06-16 14:48:30,910 ] - )
Traceback (most recent call last):
…
